scripts/model_rir.pt (torch, 448453 bytes, 25 tensors)

weight f4 [40, 201, 3]
000000 f1 2d aa 3d a1 f5 69 3d 1b af 92 3d 0b 9e 5f 3d
       0.08309544 0.057119016 0.07162305 0.05459408
000010 f3 b8 4e 3c 6b cf 7f 3d 0e c6 87 3d f4 25 98 3b
       0.0126173375 0.06245367 0.06629573 0.0046431962
000020 4d e2 5c 3c 08 23 bd 3d da 30 e7 3c 39 9c 3f 3d
       0.013481689 0.09235197 0.028221536 0.046779845
000030 d8 cf 76 3d 31 ce 13 3d f3 22 91 3d a8 16 d4 3c
       0.06025681 0.03608531 0.07086744 0.02588971
000040 25 f4 80 3d a1 ba 82 3d e0 ba 4a 3d 15 12 06 3d
       0.06296567 0.06383253 0.049494624 0.032732088
000050 6a c0 56 3d e6 ae fa 3c b9 a3 3a 3d d2 c4 e7 3c
       0.052429594 0.030600976 0.045566294 0.028292093
000060 aa a0 75 3d 1e 98 b1 3d 58 04 1e 3d db 83 a4 3d
       0.059967674 0.08671592 0.03857836 0.08032962
000070 48 be 5d 3d 18 da 1c 3d e7 30 16 3c 9c f7 50 3c
       0.054136544 0.038293928 0.009166933 0.012754347
000080 25 b8 8d 3d 64 1c 9c 3d 05 41 78 3c 8f 2c 8d 3d
       0.069198884 0.076226026 0.015152221 0.068932645
000090 89 80 33 3d 3e af 2d 3c 34 89 28 3d da d8 42 3d
       0.043823753 0.010600863 0.041146472 0.047570087
0000a0 fd a4 9c 3d 66 d1 91 3d 7c 34 97 3d 44 e6 0e 3d
       0.076486565 0.07120018 0.073830575 0.034887567
0000b0 bf 0c 02 3c 9e e5 2a 3c c7 4a ab 3c 82 14 22 3c
       0.007937609 0.010430722 0.02090968 0.009892585
0000c0 6d 69 0f 3c 6c 7b f3 3c 2b 68 9c 3d 0a c6 82 3d
       0.008753163 0.029721938 0.07637056 0.06385429
0000d0 7f 4f 70 3c 61 b2 0b 3c cb c1 17 3c 1e 7b 86 3d
       0.014667391 0.008526416 0.009262512 0.065664515
0000e0 85 3c 0a 3d 18 cf 96 3d dd 60 62 3c a2 78 52 3d
       0.033749122 0.07363719 0.013817039 0.051384576
0000f0 2a 59 a4 3c 54 42 89 3d c3 f7 80 3d a3 0c 37 3d
       0.020062048 0.06702104 0.06297257 0.044689786
000100 4d 38 94 3b df ba bb 3b 2b 82 67 3d 4e d0 48 3d
       0.004523313 0.005729064 0.056520622 0.04902678
000110 b4 a1 20 3d a1 f0 d8 3c 84 05 b7 3c 0c 46 63 3d
       0.039216712 0.026481928 0.022341497 0.055486724
000120 1f 01 4b 3d 30 1c 7f 3d 5a 51 03 3a f8 66 8f 3d
       0.049561616 0.06228274 0.0005009376 0.070020616
000130 d2 aa 84 3d d1 ed 72 3d e0 c6 63 3d 41 ec 9e 3c
       0.06477894 0.05930883 0.055609584 0.019399764
000140 38 18 5f 3d 55 be 7f 3d 93 17 d0 3c 56 2b 8c 3d
       0.054466456 0.062437374 0.025401866 0.06844203
000150 16 d8 f7 3c 8c 4f 95 3d ae 9f 5b 3c da 60 c6 3c
       0.030254405 0.07290563 0.01340477 0.024216104
000160 26 d2 2d 3b 8a f3 9b bb 8b 5c c9 bb 7c 33 89 bc
       0.0026522963 -0.0047592567 -0.006145065 -0.016748182
000170 64 62 60 3d e6 f5 41 3d 20 bc f8 3c 01 7f 93 3b
       0.054781333 0.047353648 0.030363142 0.004501224
000180 4f 42 83 3b a6 4f 52 3d 06 a3 ef 3a cb 75 1f 3d
       0.0040057073 0.05134549 0.0018282838 0.038930696
000190 7a ec 89 3d e9 1f 57 3d 6e 57 48 3d c7 8c 89 3d
       0.067345574 0.052520666 0.048911504 0.06716304
0001a0 06 25 5c 3d e6 b9 b4 3c d2 33 94 3c d8 d4 4f 3d
       0.053746246 0.0220613 0.018091116 0.050740093
0001b0 30 6e 2f bb a0 ff c3 3c 7f bb 44 3d d1 ad 81 3c
       -0.0026768558 0.023925602 0.048030373 0.015829952
0001c0 8e 8f bf 3c f3 37 e9 3b d7 d9 04 3d 85 27 94 3d
       0.023383882 0.0071172654 0.03243431 0.072341
0001d0 0b 8d 69 3c a0 25 12 3d 90 d7 8a 3d 3e 1c ac 3c
       0.014254819 0.035680413 0.067793965 0.02100956
0001e0 87 04 55 3d a7 1d c1 3c 50 fe 79 3d e1 d3 a0 3c
       0.05200627 0.02357371 0.061033547 0.019632282
0001f0 40 63 35 3d de 6c d7 3c cf 8c 8a 3d f9 8e 0e 3d
       0.044284105 0.02629703 0.06765138 0.034804318
000200 66 7a 31 3b c8 a2 b5 bb ca 7a a7 3c 72 68 69 bc
       0.0027081012 -0.0055430867 0.020444293 -0.014246093
000210 41 d1 b7 3c 78 60 59 3c b0 bd 65 3d fa 7a 1d 3b
       0.022438647 0.013267629 0.056089103 0.0024029599
000220 13 29 4d 3d e6 d5 bd 3b de 36 29 3c 4b 1e bb 3a
       0.050088 0.005793321 0.010328023 0.0014275996
000230 60 0e bc 3a 8d 26 43 3d 10 f8 93 3b 76 1b 0f 3d
       0.0014347546 0.047644187 0.0045156553 0.0349383
000240 1e 24 43 3d 2c e7 12 3d 73 ee 98 3d 92 a8 c4 39
       0.047641866 0.035864994 0.074673556 0.00037509628
000250 6a 05 0e 3d 37 f8 45 3c a9 04 0a bc 6e 9e b0 3c
       0.034673132 0.012083105 -0.008423963 0.02155992
000260 c9 ec 15 3d d2 9e 80 3d 2f d8 df 3c 70 56 83 3c
       0.03660277 0.062802926 0.027324764 0.016032428
000270 f6 c6 3f bc 83 57 e7 3c 08 7c 38 3d e5 00 41 3d
       -0.011705151 0.028239971 0.04504016 0.047119994
000280 7b 78 c8 3c d4 74 4e bc 88 74 f6 3c 89 c9 97 3b
       0.024471512 -0.012601096 0.030084863 0.004632179
000290 1b 76 63 3d 5f 16 5e 3d 01 4f 1e 3d df c5 7e 3d
       0.055532556 0.054220553 0.038649563 0.062200423
0002a0 b5 b5 00 3d 25 71 5b 3d 9d fd f7 ba fe 1a dd 3c
       0.03142329 0.0535747 -0.0018920187 0.02699041
0002b0 d3 bc 3d 3d ac 1a 89 3d a9 e4 04 3c 21 5c 29 3d
       0.046322655 0.066945404 0.008111157 0.041347627
0002c0 b2 90 ee bb 24 da f5 3b 0f 6c 4e 3c e7 8b 35 3c
       -0.0072804326 0.007502811 0.012599005 0.011080719
0002d0 c0 0c 53 3d 66 c8 a0 bc e4 b2 7b 3c 40 ba 58 3c
       0.05152583 -0.019626807 0.015362475 0.013227999
0002e0 e0 6a 1a 3d b9 cb 42 3d b9 20 7f 3d 2a 25 70 3c
       0.03769958 0.047557566 0.062287066 0.014657298
0002f0 af f7 57 3c 8a 2c ca 3b 5d 80 48 bb 24 f3 a2 bb
       0.013181611 0.0061698603 -0.0030594089 -0.0049728323
000300 7e 31 81 3c 27 11 81 3c 89 a5 65 3b aa f4 a0 3c
       0.01577067 0.01575525 0.0035041294 0.019647915
000310 b2 95 20 3d f8 eb 39 3d 26 35 e7 bb e7 11 d8 3c
       0.03920526 0.045391053 -0.0070558963 0.026375724
000320 f6 f7 93 3b b8 b4 83 3b bc c9 4f 3b 68 81 30 3d
       0.004515643 0.004019346 0.0031705936 0.04309216
000330 3b 91 54 3d e0 ab 12 3d 34 14 89 39 f9 f2 3b 3d
       0.051896315 0.035808444 0.0002614573 0.045886014
000340 66 3a 6e 3d 67 3e ff 3c d9 de 2d 3c 9e 3e 40 3d
       0.05816116 0.031157685 0.010612213 0.046934716
000350 bf 5a 41 3d 97 7d f8 3c f9 0a a5 3c 8e 06 8e bc
       0.047205683 0.030333323 0.020146834 -0.01733711
000360 78 ac bb 3c 59 29 fe 3b cc bb 8f 3b 64 dd 8d bc
       0.022909388 0.007756394 0.004386401 -0.017317481
000370 70 80 cd 3b cf ae 69 bc e5 05 09 bc 44 d5 1e 3d
       0.0062714145 -0.014262869 -0.008363222 0.038777605
000380 83 a5 69 3d 20 bb d0 3c 01 70 9f bc d3 af 93 3c
       0.05704261 0.025479853 -0.019462587 0.018028175
000390 dc 7b b5 3c e4 31 c2 3c 68 10 29 3d 59 0e 94 3c
       0.022153787 0.02370543 0.04127541 0.018073248
0003a0 b4 11 ba bc 61 f3 b3 bc 5e e0 6e bc 95 4b 53 3d
       -0.02271352 -0.021966638 -0.0145798605 0.051585753
0003b0 77 e8 46 bc 8d ff 2b 3d c4 51 1f 3d 7d 1d 14 3d
       -0.012140385 0.04199176 0.038896337 0.036160935
0003c0 23 49 23 3d 5c ec a9 3c 5e f6 11 3d bd 1d 24 3d
       0.03986467 0.020742588 0.035635345 0.040067423
0003d0 da 9a 2b 3d 74 78 31 38 66 ef 3a bb 1f 83 ff 3b
       0.041895725 4.231227e-05 -0.002852404 0.0077976133
0003e0 00 46 52 3d 60 40 52 bc 76 1b 8e 3c 6b 66 66 bc
       0.05133629 -0.012832731 0.017347079 -0.014062504
0003f0 ba 4d 1c bc be 81 19 3d e7 5c d6 3c 6b 6d d9 3c
       -0.009540016 0.037477247 0.026167346 0.026541432

bias f4 [40]
000000 40 76 64 3d bb b3 c4 3d b7 d9 c9 3d 91 23 96 3d
       0.055776834 0.09604593 0.09855979 0.073310025
000010 5d cd d0 3d 53 96 a8 3d 5f 0e dc 3d 90 3a 5d 3d
       0.1019542 0.08231797 0.107449286 0.054010928
000020 36 3b d0 3d e9 13 04 3e eb 14 95 3d 1c da 68 3d
       0.101675436 0.1289822 0.072793804 0.05684863
000030 57 57 aa 3d 06 1b 6c 3d 13 cc 82 3d 44 80 f1 3d
       0.0831744 0.05764296 0.0638658 0.11792043
000040 4b 3a eb 3d 57 12 f8 3d c8 5c b2 3d 5f cf d8 3d
       0.11485728 0.12112873 0.08709103 0.10586428
000050 5a 8c a2 3d 78 45 f6 3d 6c 1e d8 3d 7a 32 b3 3d
       0.07936926 0.12024969 0.105526775 0.08749862
000060 fa 65 eb 3d 3a b6 8d 3d 5b 90 b6 3d d5 7f a5 3d
       0.1149406 0.069195226 0.08914252 0.08081023
000070 2e 4e bf 3d 17 9d de 3d ab d0 d7 3d 7c 09 a6 3d
       0.093410835 0.10869806 0.10537847 0.08107278
000080 dd 2e c9 3d 84 c5 86 3d bc 37 d4 3d d5 30 fa 3d
       0.098233916 0.06580642 0.10362193 0.12216345
000090 5c ad 98 3d 26 7d fd 3d fd c8 cb 3d 8e ed 03 3e
       0.07454941 0.12377386 0.09950445 0.12883589

weight f4 [40, 40, 3]
000000 70 61 a5 3d c3 9c 11 bd 82 2d 11 3d 7a 2a 97 3c
       0.08075225 -0.03554989 0.03544379 0.018452872
000010 be 70 50 3d 93 8a cb 3c 19 0c 72 3a c8 f8 1f bd
       0.05088877 0.02484635 0.000923337 -0.039055616
000020 6d b7 16 bd 29 3a 96 3c f6 12 9d 3d e7 d8 e9 3d
       -0.036796022 0.01833828 0.07669632 0.11418324
000030 d6 3e 78 3c 3c 33 06 3c 75 55 4e bd 69 14 99 3d
       0.0151517 0.008190926 -0.050374467 0.07474596
000040 fb d5 e4 ba 5f c7 e1 3c 47 0f 21 bd 89 7e 5f 3d
       -0.0017458791 0.027560888 -0.03932121 0.054564033
000050 b0 41 10 bd 8d 52 d8 3d 19 79 4e 3d e9 b7 3f bd
       -0.035218894 0.1056262 0.050408456 -0.04680625
000060 d0 7a fa bc 89 8b 4f bc b4 5b 4a 3d 70 99 90 3d
       -0.03057614 -0.012667545 0.04940386 0.07060516
000070 24 9e 2a 3d cb 99 aa 3d 3e f6 13 3d a1 db d7 3d
       0.04165472 0.08330115 0.036123507 0.10539938
000080 f0 79 6e bd 4d 73 89 3d 45 ec 57 3c c9 7e ae 3d
       -0.058221757 0.06711445 0.01317889 0.08520276
000090 0d 14 b4 3c 80 b1 72 3b f4 d3 01 bd bc 93 c2 bc
       0.021982217 0.0037032068 -0.031696275 -0.023752086
0000a0 15 d7 d2 3d 7a cd b9 3d ab fe 1b 3d 8b 3a 93 3c
       0.1029493 0.09072395 0.038084667 0.017972251
0000b0 b1 c2 40 3d b0 00 13 bd 11 5c 83 3d 7e c5 13 bc
       0.047060672 -0.035889328 0.06414045 -0.009019254
0000c0 a5 4f 2b bd e4 60 52 bd 50 fb 26 bc ba e5 2d 3d
       -0.041824 -0.051361933 -0.0101917535 0.042455412
0000d0 75 7c 3a 3c b6 4e 3d bd f0 0c 11 bc c7 91 7c 3d
       0.011382212 -0.046217643 -0.008853182 0.06166246
0000e0 2f e4 0b bd dd e8 89 3d 4a 64 b9 3d af 54 35 bd
       -0.03415316 0.06733868 0.09052332 -0.044270214
0000f0 77 46 2d bd 92 0d 01 bd 3d e3 16 bd d2 2b 06 3c
       -0.04230353 -0.031507082 -0.036837805 0.0081891585
000100 41 de 05 3c d7 29 69 bd 18 f3 cc 3d 9c 7c 56 3d
       0.008170665 -0.056924667 0.10007304 0.05236493
000110 3b 96 9b 3d a4 bd 8e 3d 1e 37 3d bd c2 cd 24 3d
       0.075970136 0.06969765 -0.046195142 0.04023529
000120 eb 41 8f 3d fc e0 01 3d fb 34 b5 3d f1 74 d2 3d
       0.06994995 0.031708702 0.08847996 0.10276211
000130 10 bf 86 bd fa 39 e3 3d ec 34 e1 bc cc 4c e8 3b
       -0.06579411 0.110950425 -0.027491055 0.007089233
000140 ab cb 7c 3d 9e e4 d5 3c bc b6 b7 3b a3 5f 58 bd
       0.06171767 0.02610999 0.0056065004 -0.05282558
000150 48 06 07 bb bd 38 4d 3d d0 65 6e bd 88 2e e6 3d
       -0.002060311 0.050102938 -0.058202565 0.11239344
000160 ba 6e 8e 3d 6b d9 39 bd fb 81 88 3d e0 e0 ee 3c
       0.06954713 -0.04537336 0.06665417 0.029159963
000170 e0 af ac 3d 17 01 ab 3d 5c 29 4d bd 08 ee 34 3d
       0.08431983 0.08349817 -0.05008827 0.044172317
000180 2b 6b fa bc 2a 0b ee bb 03 92 62 bd 43 a4 32 bd
       -0.03056868 -0.0072645145 -0.05531503 -0.043613683
000190 92 34 ce 3d 7d 05 82 bc bc 65 b6 3d 64 e7 86 bd
       0.10068621 -0.015871758 0.08906123 -0.06587103
0001a0 73 49 70 3d a5 68 81 bd af dc 69 3d 91 da a6 3d
       0.058663797 -0.063187875 0.057095226 0.08147157
0001b0 ff 8d 20 bd 22 28 58 3d f8 e4 f0 3c 0f 2e 7c 3d
       -0.039197918 0.05277265 0.029406056 0.061567362
0001c0 b8 6c b1 3b d0 14 b7 bc 4b c8 ea 3d dc 15 5d 3d
       0.0054145716 -0.022348791 0.11463984 0.053975925
0001d0 f0 b8 af 3c c2 f4 81 3d f8 e6 86 bc fe c2 37 bd
       0.02145049 0.06345512 -0.016467556 -0.044863693
0001e0 77 a2 88 3d a3 8e b4 bd f8 49 1d 3d dc ef dc bb
       0.06671613 -0.08816268 0.03840062 -0.0067424607
0001f0 1b 2e 9c 3b b6 33 ca bc de 1c c1 3c d3 4c 75 bd
       0.0047662384 -0.02468286 0.023573335 -0.05988772
000200 c4 b5 e4 bc e3 fa ac bd 2a e3 f4 3c 30 a1 52 3d
       -0.027918704 -0.0844629 0.029893477 0.05142325
000210 a4 38 98 3c 9d b5 be 3d 92 86 31 bd 33 3d 79 3d
       0.018581696 0.09311984 -0.043341227 0.06084938
000220 76 57 8c bd d0 47 7f 3d c4 ac d4 bc 88 f9 a9 3c
       -0.06852619 0.062324345 -0.025961287 0.020748869
000230 f5 17 a8 3d 89 dd 1f 3c c6 15 87 bc b3 d4 82 bc
       0.082076944 0.009757408 -0.016489875 -0.015970564
000240 05 ae ba bd 27 77 69 3d 46 cb 94 3d d8 89 2d bb
       -0.09115223 0.0569984 0.07265334 -0.0026479866
000250 eb 94 81 3d e0 36 55 bd 04 79 2f 3d 40 72 66 3d
       0.06327232 -0.052054286 0.04284002 0.0562613
000260 e9 2d 78 bd b4 d2 61 3d e8 f2 19 3c c7 d4 34 3c
       -0.06059066 0.055132583 0.009396292 0.011037058
000270 b2 f8 f7 3a 42 00 41 3d 78 68 75 3d e0 2f 4b 3c
       0.0018918721 0.047119386 0.059914082 0.012401551
000280 c6 26 7c bd d4 4d 5e bd c7 1b a0 bd ba 2d e4 3c
       -0.061560415 -0.05427344 -0.07817798 0.027853835
000290 2c bf ec bc 2e 72 6b 3d ad 21 b1 3b fb 0e d4 ba
       -0.028899752 0.057481937 0.005405626 -0.0016178781
0002a0 3a 47 28 3d 11 5f ef 3c fd 26 29 3d a1 20 1b 3d
       0.041083552 0.029220136 0.041296948 0.037872914
0002b0 6d 4d 82 bd 38 07 dc bc 60 91 bc 3b 3c 5e 52 3c
       -0.06362424 -0.02685891 0.0057546347 0.01283985
0002c0 b8 a8 b6 3a b9 b8 64 bd a3 50 97 bd d8 89 50 3d
       0.001393578 -0.055840228 -0.07388427 0.050912708
0002d0 48 8e df 3c 54 67 41 3c ae d3 35 bc e4 c3 8a 3d
       0.027289525 0.0118044205 -0.011097832 0.067756444
0002e0 03 54 fe 3b ce bf 9d 3d 79 c7 93 bc 4c 1b aa 3d
       0.00776148 0.077025995 -0.018039452 0.08305988
0002f0 29 3a b9 3c 88 90 4e 3d 1f d3 0a bd 43 30 94 3d
       0.02261074 0.050430804 -0.033892747 0.07235768
000300 6d 78 6d 3d 64 7d 30 bd 1d 96 22 bd d3 a1 b4 bd
       0.057976175 -0.04308833 -0.03969394 -0.08819928
000310 6d 0f 3d 3c cc 4e 05 bb 03 71 37 3b a8 99 ae 3c
       0.011539322 -0.0020341156 0.0027990944 0.021313503
000320 c4 1f 89 3c d7 02 28 bb 06 87 5f 3c e2 1c 70 bd
       0.01673878 -0.0025636458 0.013643032 -0.058621295
000330 0a 89 d4 3c 86 ac 1e 3d bc de 49 3c f5 c0 b0 3d
       0.025944252 0.03873875 0.01232117 0.08630554
000340 a7 b6 30 bc 20 9a 8d bd 8f e8 ad bd 1f 99 8c bc
       -0.010785735 -0.06914163 -0.08491623 -0.017162858
000350 2c c4 23 3d f8 98 1d bd f3 9f ac 3d 6d be 40 3d
       0.039982006 -0.03847596 0.084289454 0.047056604
000360 40 c4 32 3d 7b a0 01 bd 98 0e f0 3c 77 8f a5 3d
       0.04364419 -0.031647187 0.029303834 0.08084004
000370 ce 90 db 3c 87 cb 37 bd 65 3e ab bc 10 d8 56 bd
       0.026802447 -0.044871833 -0.020903775 -0.052452147
000380 5b 59 a0 bd b4 1e 98 3d 96 fa 47 b9 6e b3 78 3d
       -0.07829543 0.07427731 -0.0001907147 0.060717992
000390 98 fb 72 3d 37 23 3e bd 1f e3 46 3d 8d 6e 19 3d
       0.05932197 -0.046420302 0.048556443 0.037458945
0003a0 2b 3f bf bd c9 af a1 bd f1 fd 87 bc 45 a4 7a bd
       -0.0933822 -0.078948565 -0.01660058 -0.061191816
0003b0 b0 8b 32 bd 62 b1 76 bd 52 6b 50 bd 3d 59 78 bc
       -0.043590248 -0.06022776 -0.0508836 -0.015157995
0003c0 35 8a 38 bd 3a 61 98 bd 56 1a 2d 3d 55 21 21 3b
       -0.04505368 -0.074404195 0.042261444 0.0024586518
0003d0 cf db a3 bd fc ae a0 bd 2a dc 06 3d ff b0 48 bd
       -0.080009095 -0.078458756 0.03292481 -0.04899692
0003e0 23 3c fd bc af c9 62 3b 18 d4 c1 bd 9c 43 ac 3d
       -0.030912464 0.0034605076 -0.09464282 0.08411333
0003f0 40 c2 85 3d 1f 39 be 3d 6b 9d d9 bc 68 ad 52 bd
       0.06531191 0.09288239 -0.02656432 -0.051434904

bias f4 [40]
000000 8d 8f e3 3b 95 76 94 3d 5c 57 46 3d e5 e6 93 3b
       0.006944603 0.0724918 0.048423156 0.0045136088
000010 6f d2 70 3b 89 77 1e 3e 6d c5 b1 3d 6d 07 f4 3d
       0.0036746522 0.15475287 0.08680234 0.11915479
000020 b8 f2 85 3d b5 08 a6 3d 05 22 01 3e a3 bf 19 3e
       0.065404356 0.081071295 0.12610634 0.1501451
000030 fb 85 26 3e 5e ff b6 3d 47 91 aa 3d 0d 59 21 3e
       0.16262047 0.08935426 0.08328491 0.15756626
000040 fa c3 72 bc 57 91 99 3d 1e 99 01 3e f1 1e ba 3d
       -0.014817232 0.074984245 0.12656066 0.09087933
000050 00 be 99 3d a7 bc fb 3d 13 8f cd bd 98 58 0f 3e
       0.07506943 0.12291842 -0.10037055 0.1399864
000060 68 56 12 3d 51 59 a0 3a 58 73 51 3d 68 1e b8 3d
       0.035726935 0.001223365 0.05113539 0.089901745
000070 72 02 7c 3d cc d9 04 3d 7f 87 ec 3d ac fa 1b 3e
       0.06152577 0.03243427 0.11549281 0.15232342
000080 f0 a7 bd 3d cd e8 14 3e 5a 8d ab 3d 13 d6 b8 3c
       0.09260547 0.14541931 0.0837657 0.022563016
000090 c9 e1 cb 3d 13 e0 2b 3e f6 ee 07 3e 4a ab a8 3d
       0.099551745 0.16784696 0.1327475 0.08235796

weight f4 [40, 40, 4]
000000 bd 82 74 3d f2 30 b9 3c 6c f4 42 bd 2a 81 71 3d
       0.059694994 0.022606347 -0.04759638 0.05896107
000010 b4 cf 41 bc 38 bd 84 3d af 15 05 3c 7c 12 9e bc
       -0.011829305 0.06481403 0.008122846 -0.019295923
000020 22 59 cd 3d 71 3f bc bc 57 22 cb 3d f8 3f 8d bc
       0.10026766 -0.02297947 0.09918659 -0.017242417
000030 02 dd 1c bd 5e fb 8e bc 73 57 d0 3d ab f8 1e bd
       -0.038296707 -0.017453846 0.101729296 -0.038811367
000040 0d 1d 1a 3d c2 ed 19 3d 48 81 bc 3d ff d0 52 3d
       0.03762536 0.03758026 0.09204346 0.051468845
000050 6b 04 5a bc 5f 5b e8 3c 56 a9 e7 bb 93 a6 fb bb
       -0.013306717 0.028363882 -0.007069747 -0.0076797693
000060 fd 18 c2 3d 1c 2c a6 3d 1a 3c e0 3d f7 75 34 bd
       0.094774224 0.08113882 0.109489635 -0.044057813
000070 56 26 2e bc ab d1 45 bd b0 e8 f1 bc 23 24 05 3d
       -0.010629257 -0.048295658 -0.0295299 0.032505166
000080 e5 a5 05 bd d5 f2 87 3d a6 65 e1 3b 7c e9 32 3d
       -0.032628912 0.066381134 0.0068785725 0.0436797
000090 f5 85 9f bc 81 5e 54 bd 3b d4 34 3d 53 c8 26 bd
       -0.019473055 -0.05184794 0.04414771 -0.040718388
0000a0 66 c3 c2 3d af b9 28 3d 9c f5 b4 bb 86 0d 2d bd
       0.095099255 0.041192707 -0.005522443 -0.042249225
0000b0 c3 4a 6f 3c 66 a2 26 bc ad 3f a2 3d bd 8b bf 3c
       0.014605227 -0.010170555 0.079223014 0.023382062
0000c0 3f b3 4d ba 3f a3 28 bd 46 ba 51 bb 81 b8 13 3d
       -0.0007846839 -0.04117131 -0.0032001897 0.03606463
0000d0 3e 46 36 bd f5 32 50 3d 93 dc 44 3c 74 bd 4f 3c
       -0.044500582 0.050829846 0.01201548 0.0126794465
0000e0 0d 17 5f bb c4 b9 c4 3c 1e ad 42 bd bc 88 49 3d
       -0.003404084 0.024014361 -0.04752838 0.049202666
0000f0 4a 89 95 3d fb 7c 8d 3d 02 63 9f 3d e8 f8 92 3d
       0.073015764 0.06908604 0.07782556 0.07176381
000100 68 9f 91 bc ab 3a 10 bd 68 90 f5 3c fb 86 b1 3d
       -0.017776206 -0.0352122 0.029976085 0.086683236
000110 1b 4b 90 bc 66 e2 9a 3b 36 b0 58 3d 48 8b 8f bc
       -0.017613938 0.004726696 0.052902423 -0.01752247
000120 6e d2 bb bc c8 fa 16 bc 01 b6 43 3c 3c bc 9d 3d
       -0.02292749 -0.009215064 0.011945249 0.077019185
000130 a6 29 b3 3d 9a 91 9d 3c ec bc ff bb 73 a9 90 3d
       0.08748178 0.019234467 -0.0078045037 0.0706357
000140 11 74 30 bd 59 9c fd b9 b3 2f a7 3c c1 bb aa 3d
       -0.04307944 -0.00048372408 0.020408487 0.083365925
000150 3d 24 0f 3d 66 17 b7 3d 41 ce 97 bc 4a d5 86 3d
       0.03494667 0.0894001 -0.018530967 0.065836504
000160 1e aa 35 3d e6 bb a4 3d 18 b3 ba 3d cd ab 51 3d
       0.04435169 0.08043651 0.09116191 0.051189233
000170 a9 c6 bd b9 91 cd 43 3c e0 36 ef bc 55 2b c8 3d
       -0.00036196903 0.011950866 -0.029200971 0.0977389
000180 55 99 49 bd 3c 0d 0e bd 36 5e 7e 3c aa 41 0a 3d
       -0.049218494 -0.03468059 0.015525391 0.03375403
000190 80 20 93 3d 15 ed 38 bd 78 15 3d ba 9c 35 0e 37
       0.07183933 -0.045147974 -0.0007212977 8.4763415e-06
0001a0 32 d8 2a 3d a7 7c bb 3d 7c 65 21 3b b3 e3 38 3d
       0.041710086 0.09154635 0.002462714 0.045139026
0001b0 e6 3e 23 3d f2 07 05 3d 95 1e 8b bc d4 dd 1c 3c
       0.039854906 0.03247828 -0.016982356 0.009574372
0001c0 e6 3a 8a 3d 71 d9 14 bd 86 1b 9d 3c cf b9 46 bd
       0.06749515 -0.03634018 0.019178163 -0.048517045
0001d0 67 50 07 3c b1 71 85 3d 31 46 1d bd 98 b0 a1 3d
       0.0082589155 0.065158255 -0.038397018 0.07895011
0001e0 a5 c2 00 3d aa 5c 51 bc eb 5f d0 bc c9 41 4b 3d
       0.031435627 -0.0127784405 -0.025436362 0.049623284
0001f0 06 4e d8 3b fe ca a9 3d 76 82 b9 3d 93 90 c7 3d
       0.006601098 0.08290671 0.090580866 0.09744372
000200 3e 90 5f bc 7b 34 8d 3d d0 eb 46 bb 55 f5 38 bd
       -0.01364523 0.068947755 -0.0030352958 -0.04515584
000210 1d 86 50 3c 96 7d fc 3c 86 b3 cc bc c6 b4 92 3b
       0.012727288 0.030821603 -0.024987947 0.0044771163
000220 2b dd 35 bd 57 6c 3c 3d 0f 76 98 bc a5 e9 af 3d
       -0.044400375 0.04600176 -0.018610982 0.08589486
000230 63 94 70 3d 91 a3 c4 3c 97 0f 84 3d 99 da 49 3d
       0.058735263 0.024003776 0.06448286 0.049280737
000240 44 79 11 3d 37 76 f3 3c 39 e5 34 bd c6 1f b9 3d
       0.03551604 0.029719455 -0.044163916 0.090392634
000250 9d 6b 99 3d d3 18 a0 3d cd d9 b1 3d 99 74 76 3d
       0.07491229 0.07817235 0.0868412 0.06016979
000260 e5 cb 24 bd b6 aa be 3c ef f7 86 bc 88 97 79 3d
       -0.04023351 0.02327476 -0.016475646 0.060935527
000270 bb 0b dc bc 70 4d b9 3d 49 1a b6 3d 42 55 b3 bb
       -0.026861062 0.09047973 0.08891732 -0.00547281
000280 ed 71 9a 3d 3f a2 9c 3a e1 d2 70 bd 69 fc 2f 3a
       0.07541261 0.0011950209 -0.05879486 0.0006713332
000290 74 90 37 3d 1c 55 7f 3c 59 20 3d bd 56 38 95 bd
       0.044815496 0.0155842565 -0.046173427 -0.07286136
0002a0 15 bc fc 3b 2d ce be 3c ec 3d 13 3d a6 79 4e bd
       0.007712851 0.023291672 0.035947725 -0.05040898
0002b0 a1 18 ba bc a0 af a7 bd 31 b8 a3 bd 2a d7 91 3d
       -0.022716822 -0.08187795 -0.07994116 0.071211174
0002c0 65 aa 23 bd d5 72 cb 3b 48 b5 40 bd 90 48 39 3d
       -0.039957423 0.0062087574 -0.047047883 0.045235217
0002d0 1f 6b 77 bd 1a 15 1a bc 08 53 c3 bc 5a 32 18 bd
       -0.060404893 -0.009404445 -0.023843303 -0.037157394
0002e0 24 4e ad 3d 84 04 ec bc 88 b9 12 3d e9 5a f6 bb
       0.0846217 -0.028810747 0.035821468 -0.0075181616
0002f0 b9 3f b6 bc ba 9e 5c 3d 71 99 00 bd bb 5d 04 bd
       -0.022247182 0.05386231 -0.031396333 -0.03231595
000300 35 6b 84 bd 10 bc a5 bd b7 2d 92 bc 3e b8 15 3d
       -0.064657606 -0.08092511 -0.017844064 0.03655266
000310 fb e0 97 bd 25 ab 0e 3c fd ad a4 bd 10 6e e2 bc
       -0.074159585 0.008707796 -0.08040998 -0.027640373
000320 b0 2c 81 3d ff 24 5b bd 5d 7d 68 bd 8f 0a 9d 3c
       0.063073516 -0.05350208 -0.05676018 0.019170074
000330 71 46 45 3d 63 a5 f6 bc ac 0e b4 3c 91 df 82 3d
       0.04816288 -0.03010816 0.021979652 0.06390298
000340 d8 3d 9d 3d 05 55 1b bd 25 2a 9a bd 91 e6 a5 bd
       0.076778114 -0.037922878 -0.0752757 -0.08100618
000350 02 b0 5c bd 88 6b ac bd ba aa 81 3d e8 57 c2 3c
       -0.05387879 -0.084189475 0.06331392 0.023723558
000360 02 34 2b bd fb ef 8b 3d a2 f6 9d bd e7 18 47 3d
       -0.041797645 0.06832882 -0.07713057 0.048607733
000370 44 e0 1a 3d 33 9a 7d bd 34 01 32 3c 25 0a 29 bd
       0.037811533 -0.061914634 0.010864545 -0.04126944
000380 25 ae 83 bc 03 9b 62 3d f1 b4 a3 bd b8 8c 8c ba
       -0.01607425 0.055323612 -0.07993496 -0.001072309
000390 fb 31 9f 3d 75 17 75 3d 2c 44 b4 bb a5 a6 6d 3d
       0.07773205 0.059836823 -0.005501291 0.058020253
0003a0 86 13 98 3d 95 16 96 3c 56 3e 14 bd be 90 3d bd
       0.07425599 0.018321315 -0.03619226 -0.046280615
0003b0 e6 cc 38 3d b5 f7 72 3d 14 ab 62 3d e0 cf 86 3d
       0.04511728 0.059318263 0.055338934 0.06582618
0003c0 e0 17 5b bd 46 c8 06 3d 3c 29 00 3b 1b 62 81 bd
       -0.053489566 0.03290584 0.0019555828 -0.0631754
0003d0 ae 77 75 3d 3d f7 cc bb 9f 3a 41 3d 77 5e f5 bb
       0.05992859 -0.006255059 0.047175046 -0.0074880677
0003e0 9c 7a bf 3c ed 84 3a 3d 61 3a 04 3d 18 27 08 bd
       0.023373894 0.045536924 0.032282237 -0.033240408
0003f0 61 5c 78 3d 78 1b e2 3c 3a 88 45 3d b2 7f 1a 3d
       0.060634974 0.027600989 0.04822562 0.037719436

bias f4 [40]
000000 55 5c 0f 3d d7 cb 8f 3d 7d 45 c0 3d 9e 2b 5f 3d
       0.035000164 0.07021301 0.09388254 0.054484956
000010 76 a0 9e 3d aa de 8d bd 7b ec cc 3d c7 56 8d 3d
       0.07745449 -0.069272354 0.100060426 0.06901317
000020 36 ac e5 3b b5 75 c3 3d 50 3b 18 3d 22 4c 08 bb
       0.0070090545 0.09543935 0.03716594 -0.0020797332
000030 04 b4 87 3d 16 b4 b8 3d fa 08 b8 3c 9d a5 4c 3d
       0.06626132 0.09018724 0.022465218 0.04996263
000040 cd a0 3b 3d 3c d4 64 3d 26 14 ea bb e7 6c 7b 3d
       0.04580765 0.055866465 -0.007143515 0.061383154
000050 82 71 53 3d 4c 25 19 3e 92 cb 17 3d 86 0a f7 3d
       0.05162192 0.14955634 0.037059374 0.12062554
000060 49 7a c7 3d 37 18 53 3d 85 ec b1 3d 9c a5 05 3e
       0.09740121 0.051536765 0.08687691 0.13051456
000070 39 a3 f0 3d ec db d5 3d e7 32 10 3d a3 09 ac 3d
       0.11749882 0.104423374 0.035204794 0.084002756
000080 1b 66 0c 3e d0 fd 96 3d 93 88 3e 3d e5 b0 da 3d
       0.13710825 0.0737263 0.046516966 0.10678271
000090 13 83 d6 3d 74 83 e4 3c 24 90 75 3c 0e 74 0b 3e
       0.10474219 0.027894713 0.014987979 0.1361849

weight f4 [40, 40, 3]
000000 b5 e4 f8 3d 1d 98 b1 3d de 90 ca 3d 69 7a 4b 3c
       0.121529974 0.086715914 0.098909125 0.012419322
000010 08 4f 72 bd d5 4d 00 bd 27 83 a5 3d e7 e4 ab 3d
       -0.0591574 -0.031324226 0.08081656 0.08393269
000020 c1 32 cc bb 04 59 4b bd 49 35 3b bd 54 77 db 3c
       -0.0062316363 -0.04964544 -0.045705114 0.026790299
000030 49 37 a4 3d 5c 58 51 bd 3a 8a 81 3c df 49 0d 3d
       0.08018357 -0.051109657 0.015812982 0.034494277
000040 ce 2a 4c bd d2 70 93 bd d5 d1 16 3d 9d f9 dd 3d
       -0.04984551 -0.07199253 0.036821205 0.108386256
000050 85 58 46 bd cb 6e f3 3d 6c 55 a5 bc 48 96 0a bd
       -0.048424263 0.118863665 -0.020182334 -0.033834726
000060 c3 c8 aa 3d ff b1 2d 3b 22 bb f2 3d 4b fe ba 3d
       0.083390735 0.00265038 0.11852099 0.09130534
000070 d2 5c 8d 3c ab 75 81 3c c9 d0 c3 3d 64 b9 f0 3d
       0.017256174 0.015803179 0.09561307 0.117541105
000080 f7 6f 33 3d 87 f7 b6 3c e8 12 3c 38 b6 e0 5c bd
       0.04380795 0.022334827 4.48403e-05 -0.05392524
000090 e6 c5 79 3c 66 fd 99 ba 62 24 ec 3d 84 72 40 3d
       0.015244937 -0.0011748492 0.11530377 0.04698421
0000a0 fe 28 da bc d6 5a e7 3c 06 c7 ba 3d 0c 43 79 bc
       -0.026630875 0.028241556 0.09119992 -0.015213739
0000b0 e1 c2 be 3d be e8 a2 3c 5a f5 b0 3d 29 cc 8f 3d
       0.09314514 0.01988637 0.08640547 0.07021362
0000c0 4c 5b 79 bb 9b 1f cf bc 66 70 17 3d 9f a9 a2 3d
       -0.0038048802 -0.025283625 0.036972426 0.07942509
0000d0 88 18 a2 3d 74 40 31 3d 54 48 28 3d 78 7a f0 3b
       0.07914835 0.043274358 0.041084602 0.007338818
0000e0 0c ae 3b 3a 7f 09 f7 3c 11 b2 26 bc ae 22 5a bd
       0.0007159419 0.030155895 -0.01017429 -0.05325573
0000f0 d3 f3 56 3d c6 d1 89 3c 90 dd a8 3d 9f d7 dd 3c
       0.052478623 0.01682366 0.08245385 0.027080355
000100 d3 ce 0b 3d cb e5 f0 3d 6b f3 eb 3d 3e bc 0c 3d
       0.03413279 0.117625795 0.11521038 0.03435921
000110 72 e9 d6 3d 32 e8 73 3d b2 fe b5 bc 6b bc 92 3d
       0.10493745 0.05954761 -0.022216175 0.07164844
000120 5a 98 bb 3d d0 b9 10 3d 59 e0 71 3d ee 3a 03 3d
       0.09159918 0.035333455 0.059051845 0.03203862
000130 9b 97 2c bc db 90 a4 3c 4a 74 f0 bc 7a 45 c7 bc
       -0.010534192 0.020088604 -0.029352326 -0.024325121
000140 d1 b4 0c 3d 34 78 e7 3d 52 3b ba bc 82 6b cd 3d
       0.034352127 0.11302224 -0.022733364 0.10030271
000150 28 8e 51 bd 36 ec 58 bc fc 74 ee 3d c7 a8 16 bd
       -0.05116096 -0.013239911 0.11643407 -0.036782052
000160 96 d5 0b 3d 52 71 10 3d 28 fd 9b 3d 88 6f 27 3d
       0.03413924 0.03526432 0.07616645 0.04087785
000170 66 88 60 3d ba 3a 60 bd d3 db 23 3d b4 79 5d bd
       0.05481758 -0.054743506 0.040004563 -0.054071143
000180 66 ef fb ba 0b a4 cc 3c 85 75 0a bd 2c ef 2a 3d
       -0.0019221127 0.024980566 -0.03380348 0.041732
000190 e9 b9 2c 3d 9a 24 2f bd 07 3b 6b bd 1f 06 3a 37
       0.042169485 -0.042759515 -0.05742934 1.1087889e-05
0001a0 e4 11 db 3d 1d 3c bb bb f3 43 8c bc a4 23 68 3d
       0.10696772 -0.005713953 -0.017122244 0.056674615
0001b0 76 b2 38 3c 29 e4 cb 3d 6f 71 1d bc e7 97 c9 3d
       0.011273017 0.099556275 -0.009609564 0.09843426
0001c0 df 18 b3 3d 9a f4 bc 3d 07 09 db 3d 59 44 52 3d
       0.08744978 0.092263415 0.10695081 0.051334713
0001d0 e3 f8 38 bd 9e 6c 01 bd fa fc 63 3d c6 f8 d3 3d
       -0.045159232 -0.031597726 0.05566118 0.10350184
0001e0 5c 9c cf bd ce 74 82 bb 4d 27 2b bd b9 36 11 bd
       -0.10137245 -0.0039812094 -0.041785527 -0.03545258
0001f0 a9 23 14 bd 97 97 cb bb 99 bb 98 bd 0c c0 ac 3d
       -0.03616682 -0.0062131393 -0.074576564 0.084350675
000200 d5 0e d2 3b 53 c3 0e bd 09 b5 9d bc 7c 66 41 3c
       0.0064104595 -0.034854244 -0.019251363 0.011804219
000210 76 f3 d7 3b 06 8d e1 3b 15 53 db 3c 78 a7 a2 bd
       0.006590302 0.0068832664 0.026773015 -0.079420984
000220 86 a0 ed bc 35 9a ba bd e7 38 68 3d e5 ad 0c bd
       -0.029007208 -0.09111444 0.05669489 -0.034345526
000230 f1 d0 7b 3d 1f 2b 54 bd 08 48 13 3d 0a 64 7a 3d
       0.06147856 -0.051798936 0.035957366 0.06113056
000240 ff 81 79 3c bf d8 a6 bd dd 39 cd 3c d0 a7 9a bd
       0.015228747 -0.0814681 0.025052005 -0.07551539
000250 c9 8d 48 bc 21 05 9d bd 48 dd 67 bd 08 07 35 bd
       -0.012240835 -0.07666994 -0.056607515 -0.04419616
000260 a2 a0 94 3d 0a 75 b6 bd bf d2 4d 3b 71 ba 6a 3d
       0.07257201 -0.08909042 0.0031406132 0.05730671
000270 5d f7 ac bd 4c 35 11 bd 99 d4 1c 3d 6c c6 a6 bd
       -0.08445618 -0.03545122 0.038288686 -0.08143315
000280 22 ad 38 3d 87 7d 56 3d b9 8a 3f 3d 41 a8 e6 3c
       0.045086987 0.052365806 0.046763156 0.028156402
000290 ad 41 9e 3c dd 48 13 bd 15 62 2d 3d ce 75 69 bd
       0.019318426 -0.03595816 0.042329866 -0.056997113
0002a0 90 c2 3e 3d 1f 90 c4 bc 3c 12 13 3d 86 63 f3 bc
       0.046572268 -0.023994504 0.03590606 -0.029710542
0002b0 b7 7a bb bc 53 56 da 3c a4 8b f8 bc 1b ed fd bc
       -0.022885663 0.02665249 -0.030340023 -0.03099685
0002c0 4b e4 0c 3d 87 82 86 bc c7 4b d8 3c 37 89 50 3d
       0.034397405 -0.016419662 0.026403321 0.05091211
0002d0 cc d0 ac bd 38 13 a7 3c f9 30 b2 bd e8 b7 9d 3c
       -0.08438262 0.020394906 -0.08700747 0.019252732
0002e0 03 ce ae bd 4a 27 16 3b f6 5f 34 3d 1a 9f a6 bb
       -0.08535387 0.0022911602 0.044036828 -0.0050848844
0002f0 2f 5b 83 3d a5 73 9c bd 99 d8 34 3d 23 8e 5a bd
       0.06413876 -0.07639245 0.044151876 -0.05335821
000300 40 cd 47 bd ac 04 62 bd ac d3 84 3d bf 70 be bd
       -0.048779726 -0.055180237 0.06485686 -0.09298848
000310 f9 d5 14 38 31 c2 88 bc 4d cb 7e 3d bf b6 2c bd
       3.5485227e-05 -0.01669416 0.0622056 -0.042166468
000320 db 20 21 3d 6f 20 47 bd 53 ef ac bd 73 c0 4f bd
       0.039337974 -0.048614915 -0.08444085 -0.050720643
000330 80 30 57 3d 02 74 34 3d b6 9d 31 bd 74 43 9b bd
       0.052536488 0.044055946 -0.043363295 -0.07581225
000340 ae 60 72 bd 0e 03 35 bd 31 98 aa 3c e4 5b 63 3d
       -0.059174232 -0.044192366 0.020824524 0.055507556
000350 11 9a 25 3d ae b8 1b bd 0e 36 c9 bc 9a 49 d0 bd
       0.040430132 -0.03801792 -0.024561908 -0.101702884
000360 f0 ad 9e bb 15 24 40 bd 5c c5 9b 3d 58 29 cc 3b
       -0.0048425123 -0.04690941 0.07606003 0.0062305145
000370 b5 96 a3 bc 7d b5 70 bd a9 b5 18 3d f9 54 1b 3d
       -0.019969324 -0.05876683 0.03728262 0.037922833
000380 61 a2 61 3d d7 3e ca bd 12 9d c9 bd fc 7a 26 3d
       0.055086497 -0.09875267 -0.09844412 0.04064463
000390 09 22 4d bc 35 5c c8 bb da 7a 14 3b da 14 8e bd
       -0.012520322 -0.0061145076 0.0022656233 -0.06937571
0003a0 a5 88 c4 bd ea e6 79 bd dc 2a a1 bd 7a 64 5d bc
       -0.095963754 -0.061011232 -0.07869503 -0.013512725
0003b0 57 17 a8 bc d7 7b be bc cf 2c 66 3d 5d e2 05 bd
       -0.020518942 -0.02325241 0.056195077 -0.03268658
0003c0 03 17 6e bc fa 2a 80 3d db e9 de 3d 1e 1e 99 3d
       -0.014531854 0.06258197 0.10884448 0.074764475
0003d0 ef 8c 7b 3c 94 d0 67 3d c4 75 4d ba 7d b4 a2 bc
       0.015353425 0.0565954 -0.0007837678 -0.019861454
0003e0 43 d4 8e 3c d4 b4 43 3d 97 ce 1a bd 41 ee 77 3d
       0.017435199 0.047779873 -0.037794676 0.06052995
0003f0 04 d2 b6 3d fe 8d 4b bd d6 be 8d bc a7 27 28 3d
       0.08926776 -0.04969596 -0.017302912 0.04105344

bias f4 [40]
000000 fb db 3f 3c db 3e 52 3d 65 8e a9 3d 53 37 6f bb
       0.011710162 0.051329475 0.08279113 -0.0036501482
000010 ba 8a 80 3d 92 b4 6c 3d 54 fc 0c 3d 73 07 69 3c
       0.0627646 0.057789393 0.034420326 0.014222967
000020 cc 84 a1 bc 54 01 12 3e fa 15 9e 3d 05 cf b3 3c
       -0.019716643 0.14258319 0.077190354 0.0219493
000030 12 ce 0d 3e cb b9 03 3e 01 78 10 3e 15 40 e6 3d
       0.13848141 0.12863843 0.14108278 0.112426914
000040 e2 2a e6 3c c4 19 27 3d c2 d9 d0 3d 66 3a f6 3d
       0.02809662 0.040796056 0.10197784 0.12022857
000050 01 0c 07 3e 58 7f 1b 3d 17 eb f0 3d f4 f1 9e 3d
       0.13188173 0.03796324 0.1176359 0.07760993
000060 05 88 13 3a 34 e5 a9 3d 49 d2 95 3d 2a 6f d8 3d
       0.00056278735 0.0829567 0.07315499 0.10568078
000070 99 9a 8d 3c 33 d6 b9 bd 28 13 9d 3c a3 5a c3 bc
       0.017285632 -0.090740584 0.019174173 -0.02384693
000080 b5 6a 41 3b b2 b3 88 bc 35 d0 15 3e 24 8e c1 bc
       0.0029513065 -0.016687248 0.14630206 -0.023627348
000090 f3 79 08 3d 12 9c 18 3e e3 63 01 3e 8a 46 e3 3d
       0.033319425 0.14903286 0.1263576 0.11097439

weight f4 [40, 40, 3]
000000 9e bd f0 3c c4 8a 17 3d 58 21 6d 3b 77 f6 3f 3d
       0.029387292 0.03699757 0.0036183205 0.046865907
000010 ca 49 a1 bc 24 ad 2c bc 88 42 52 bc d2 13 a4 3d
       -0.019688506 -0.010539327 -0.012833245 0.08011593
000020 04 68 87 bc af 56 a9 3d 07 ab 79 3c dc d0 f3 bc
       -0.01652909 0.08268487 0.01523853 -0.029762678
000030 d7 08 6d bd 58 ab 90 3d b4 0d ce 3d 7b 36 bb 3d
       -0.05786976 0.07063931 0.100612074 0.09141251
000040 bc 8f c6 3d 6b 77 81 3c 60 80 96 3d e5 cc 0c bd
       0.09695384 0.015804013 0.07348704 -0.03437509
000050 c1 62 af 3c 30 7c 6a 3c c7 c9 5d 3c e4 11 bd 3d
       0.021409394 0.014311835 0.013536877 0.09231928
000060 d2 dc eb 3d 65 a7 40 3d 01 ca cb 3d 07 bd db 3d
       0.115167275 0.04703464 0.099506386 0.107294135
000070 20 3e 4b bd 8a ed e1 3c 9a 73 b4 3c fa 93 92 3d
       -0.049619794 0.027579088 0.02202778 0.071571305
000080 e0 70 bd 3c 69 fd 88 3a a1 f8 4c bb 84 fe 20 bc
       0.023125112 0.0010451499 -0.0031276124 -0.009826306
000090 1f 32 d3 bc 5d d5 a6 3d 9d 3b f2 bc f3 cf f4 3c
       -0.025780736 0.081461646 -0.029569441 0.029884314
0000a0 b5 a9 c0 3d 67 a6 ea bc 9d 7f ea 3d 1e a3 90 3d
       0.09407369 -0.0286438 0.114501216 0.07062362
0000b0 cc 52 27 bd 30 d4 c5 3d 3d 77 b8 3d 15 34 de 3c
       -0.040850446 0.09659612 0.09007118 0.027124444
0000c0 ec ee 09 3b e4 19 b4 3d a0 f6 eb 3d e9 2e d5 bc
       0.002104695 0.08794001 0.11521649 -0.026023345
0000d0 79 30 d4 3d f1 9e a2 3b b4 53 17 3d c2 2c 4c 3d
       0.10360808 0.004962795 0.03694506 0.049847372
0000e0 0d 9d 88 3c 12 b8 5a 3d 65 b9 ed 39 f3 33 da 3d
       0.01667645 0.0533982 0.00045342292 0.1065444
0000f0 6d 7f f6 3a 7b d7 9b 3d d7 d4 98 3d aa e3 d5 3d
       0.0018806286 0.07609459 0.07462471 0.10443814
000100 0e e9 d8 3d 5f 25 78 bd 00 08 30 bd aa 98 f3 bc
       0.10591327 -0.060582515 -0.04297638 -0.029735882
000110 1a 3a 80 3d 35 53 27 3c 57 ae 9f bc 2d 8c fc 3d
       0.06261082 0.010212709 -0.019492311 0.12331424
000120 5b 42 27 bd b2 c4 d6 3d 46 51 0c bd eb 85 03 3d
       -0.040834766 0.104867354 -0.034257196 0.032110136
000130 04 8d 59 3d 46 ff cd 3d d2 86 39 bd e2 26 87 3b
       0.053113 0.10058455 -0.04529459 0.0041245082
000140 2c 76 7c 3d 38 66 0a 3c f1 81 78 3d 9d bd 90 3d
       0.061636135 0.008447222 0.060670797 0.07067416
000150 b1 92 d5 bc c6 fd 00 bd 02 02 63 3d fc 80 08 bd
       -0.026070924 -0.031492017 0.055421837 -0.033326134
000160 ea 5e 0a bc bb c8 cd 3d 05 2d ad 3d b1 a3 50 3d
       -0.008445481 0.10048052 0.084558524 0.05093736
000170 ba 11 ca bc 1d be 8a bb 12 e2 60 bd 42 c0 63 bd
       -0.024666656 -0.004234089 -0.054903097 -0.055603273
000180 b6 1f 80 3d 63 a9 7a 3d b2 e6 26 3d d4 0a 6d bd
       0.062560484 0.061196696 0.040747352 -0.057871655
000190 94 2a 5a bd 25 55 e1 bc 2f b4 48 bd 23 91 16 3d
       -0.053263262 -0.02750642 -0.04899996 0.036759507
0001a0 08 10 2a 3c bc 4d e4 3d 19 72 c6 3d b9 d1 5d 3d
       0.010379799 0.11147639 0.09689731 0.054155085
0001b0 36 bb c4 bb 9f f7 d3 bc df 77 e2 3d aa 50 df 3d
       -0.0060037626 -0.02587491 0.1105802 0.10904057
0001c0 c0 1a 8c 3d f5 40 69 bd 34 d3 c4 bc 80 40 ce bb
       0.0684104 -0.056946713 -0.02402649 -0.00629431
0001d0 ce 19 1f 3d 33 af 48 3d 08 7f 20 3c 48 4a aa 3d
       0.03884297 0.048995208 0.009795912 0.08314949
0001e0 8c 20 8d 3d 9f 1a 69 3c 38 a6 16 3d 7d af b6 bd
       0.068909734 0.014227538 0.036779612 -0.089201905
0001f0 92 35 0b 3c 0c c6 f0 bc a9 51 a1 3d fa 14 34 bd
       0.008496659 -0.029391311 0.078769036 -0.043965317
000200 9b 60 ad 3d de f8 bc 3d c1 a0 8f bc 52 7b 68 bc
       0.08465692 0.09227155 -0.017532708 -0.014189558
000210 f1 14 4c 3d ec 8d 7c 3d e4 1d 92 3d 8b a2 4f bd
       0.04982466 0.061658785 0.071346074 -0.050692122
000220 c0 8e 99 bd 11 e8 bd 3c 51 7f 3e bc 15 f7 09 bd
       -0.074979305 0.023181947 -0.011627034 -0.0336829
000230 7c a7 95 3c 64 7d 96 bd 1d fa a5 bd 95 a8 70 bd
       0.01826834 -0.07348135 -0.08104346 -0.058754522
000240 6b 87 0e bc 73 f8 b6 3d b0 e2 90 3c 01 3a 5f bc
       -0.008699278 0.08934107 0.017686218 -0.013624669
000250 4e 26 a9 3d fb f2 9d 3d a4 73 bf 3c 01 48 aa bd
       0.08259259 0.077123605 0.023370571 -0.08314515
000260 c5 63 58 bd 52 86 53 3d 07 71 82 bd 0d a5 b6 3d
       -0.052829523 0.05164177 -0.063692145 0.089182
000270 b1 07 53 3d cc 50 ea 3c 48 7b 98 3c be 68 be 3d
       0.051521007 0.02860298 0.018613473 0.09297322
000280 7c 8e 8d bb 77 51 9a bd 06 63 81 bd aa 3d a7 bd
       -0.004319964 -0.075350694 -0.06317715 -0.08166058
000290 e9 76 44 bd 5d 73 e9 3c 03 8f fa bb 8d 8f 20 3d
       -0.047964964 0.028497392 -0.007646443 0.0391994
0002a0 18 7d 66 bd 7f 27 99 3d 88 57 23 3c 4a 20 f9 3c
       -0.056271642 0.074782364 0.0099696 0.030410904
0002b0 00 9b c3 bc 92 23 c5 3c 0a 2b a8 3d 7c 2b 03 3d
       -0.02387762 0.024064813 0.08211334 0.03202389
0002c0 f9 a7 3f 3d 74 6f 86 3d d1 04 9e bd 46 45 8e bc
       0.04679105 0.06564227 -0.077157624 -0.017367017
0002d0 44 c5 34 bc b8 51 a8 3d 9c 08 15 bd 4e ae 7f bd
       -0.01103336 0.082187116 -0.036385164 -0.06242209
0002e0 84 0a 8e bd 91 40 32 bb 8e f7 96 3c cc 92 23 3d
       -0.069355994 -0.002719913 0.01842859 0.03993492
0002f0 3e 27 7b bd b6 1d 27 bc f8 27 94 bd ef b1 b9 3d
       -0.06131672 -0.010199955 -0.07234186 0.09067141
000300 2c 9d 29 bd 67 09 c7 3d 6c 6d b8 bc 32 dc a7 bc
       -0.041409656 0.0971859 -0.022513114 -0.02049074
000310 fc a2 e0 3c b7 83 30 bc 3b 7f 8d bd 5c ce 81 3c
       0.027421467 -0.010773591 -0.06909033 0.01584547
000320 d6 a2 c6 3d c2 8d 9b bd 00 49 61 3d 06 c7 45 bd
       0.09699027 -0.075953975 0.05500126 -0.048285507
000330 c9 44 aa bc 5c 85 62 bd 48 75 75 3d 09 46 14 3d
       -0.020784752 -0.055302963 0.0599263 0.036199603
000340 c0 2b 40 3d 74 55 40 bc 44 12 2b 3d 02 09 47 3a
       0.046916723 -0.011739124 0.041765466 0.000759259
000350 9a 7a 84 3d ce da a2 3d b6 b0 a8 bd d7 bb 13 3d
       0.06468697 0.0795189 -0.0823683 0.03606781
000360 18 07 88 3d c7 6f 1d 3d 8d 61 b2 3d ba 01 71 bd
       0.06641978 0.038436677 0.087100126 -0.058839537
000370 23 02 97 bd 6a 87 4a 3d 14 05 8f 3d 79 4f 5e bd
       -0.073734544 0.049445547 0.069833905 -0.05427501
000380 c5 c6 6d 3c 0e b9 19 3d ed f1 76 3d 40 34 99 bc
       0.014512722 0.037529998 0.060289312 -0.018701673
000390 c0 b9 69 3c 27 27 a1 bd 62 95 b1 3d 38 31 c6 3d
       0.014265478 -0.07868796 0.08671071 0.096773565
0003a0 50 c0 98 bc 41 c9 6d 38 be ab 76 3c 9a 98 23 3c
       -0.01864639 5.6692636e-05 0.015055595 0.0099851135
0003b0 0e 9d 00 bb 86 8d 0a bd 16 07 5a 3d ee 78 d3 bc
       -0.0019624862 -0.033826374 0.053229414 -0.0258145
0003c0 4d 86 d1 3d ca 5d 50 3d 5b e9 b4 3d ea 37 d8 3c
       0.10230694 0.050870694 0.088335715 0.02639385
0003d0 a5 47 90 bd ea 9e aa 3d de 0b 41 3d 8c 75 6c 3d
       -0.07044915 0.08331092 0.047130458 0.05772929
0003e0 f6 95 a1 3c 14 06 c6 bc ec e2 9a 3d 24 fa 87 3d
       0.019724827 -0.02417282 0.07562813 0.066395074
0003f0 7d 09 4c bd 5f dc e5 bc 25 af 86 3b b0 80 9e 3d
       -0.049813736 -0.028059183 0.0041102343 0.07739389

bias f4 [40]
000000 ef fd 73 bc f4 c1 ec 3c f1 45 86 3a 1a 54 28 3c
       -0.014892085 0.028901078 0.0010244233 0.010273958
000010 fe 63 b3 3d c8 25 12 bd 0b 27 30 3d 9c e7 f6 3d
       0.08759306 -0.035680562 0.043005984 0.12055895
000020 55 db d5 3d 96 eb e1 3c 6c 4c f5 3d a3 46 ec 3c
       0.10442225 0.027578156 0.11977467 0.028842276
000030 2f dc 8e 3c 99 21 99 bd dd 99 c5 bb 91 9d 4f 3c
       0.017438976 -0.07477111 -0.006030305 0.012671844
000040 45 82 13 3d af 9a 0f 3d fb e6 e2 3c 17 ac df bc
       0.036012907 0.035059627 0.02769803 -0.027303739
000050 35 f5 e7 3d 6d 10 0c 3c 84 d0 87 3d 42 f3 e8 bb
       0.113260664 0.008548838 0.06631568 -0.0071090767
000060 e9 c0 b0 3c 21 e4 a1 3c 3c d5 f2 3c 55 fc 7e 3d
       0.021576362 0.0197621 0.029642694 0.06225236
000070 76 71 a5 3d a8 05 90 3d 80 c8 17 bc 62 15 5e bc
       0.080782816 0.07032329 -0.0092641115 -0.013554903
000080 0f 8c 82 bd b7 9d 91 3d 15 1e 76 3d 07 db e7 ba
       -0.0637437 0.0711016 0.060087282 -0.0017689177
000090 9a 69 8d bc ff ba 02 3d 14 4b 24 bd 29 87 8c 3d
       -0.017262269 0.031916615 -0.040110663 0.06861717

weight f4 [20, 40, 3]
000000 33 7c 30 bd 12 37 b4 3d ef d8 3e bd 5c c5 4e bd
       -0.043087196 0.08799566 -0.046593603 -0.050481185
000010 13 39 89 3d dc da e7 3d ac 57 2a 3d 6d 80 b7 bc
       0.06700339 0.11321041 0.041587517 -0.022400105
000020 96 52 2d 3d e0 a9 ce bc f3 9f 00 3e b3 4d c2 3c
       0.04231509 -0.025227487 0.12561016 0.02371869
000030 7a dd c6 bb 9f 8d 30 3b 12 64 56 bd 2e 3b 39 bd
       -0.0060688825 0.0026939881 -0.05234153 -0.045222454
000040 ac 8e 22 3c fc 7e 94 3d 35 03 3c bd 08 77 a3 3d
       0.009921711 0.07250783 -0.045901496 0.07981688
000050 3e 73 f3 3d 85 59 d4 3d 8d 05 19 bd 48 fc 83 3c
       0.11887215 0.10368637 -0.03735881 0.016111508
000060 72 13 c2 3d 78 28 3e bd 56 99 db 3d b0 59 bf 3c
       0.09476365 -0.046425313 0.10722606 0.023358196
000070 a9 47 49 bc bd 44 d3 3d d8 79 05 3d 04 d1 9d 3c
       -0.0122851515 0.10315845 0.032586902 0.019264705
000080 d3 ea a4 3d 4c 7f ab 3a cb a1 51 bc 38 69 32 3d
       0.08052602 0.0013084202 -0.012794922 0.043557376
000090 ea 00 c2 3d f2 67 af bc b7 ee c8 3d f2 1b 92 3d
       0.094728306 -0.02141187 0.09811156 0.071342364
0000a0 88 f3 fb bc 17 1d dc 3d 7a 71 12 bb 82 7c 61 bd
       -0.030755773 0.10747736 -0.002234547 -0.05505038
0000b0 72 cf bb 3b 36 45 1e bc d3 a6 99 b9 49 76 b8 3c
       0.0057315165 -0.009660056 -0.00029306728 0.02251734
0000c0 51 21 2c 3d e6 e2 3b bc f9 35 02 bd d9 95 1b bd
       0.04202396 -0.011467671 -0.031789754 -0.037984703
0000d0 2a 85 8a bc 38 c4 f4 3c 6c f3 92 3c 4c 0e 00 3d
       -0.0169092 0.02987872 0.017938338 0.031263635
0000e0 cc b6 09 3d 26 51 bf bc c4 51 d1 3d 0f 23 fd ba
       0.033621594 -0.023354124 0.10220674 -0.0019312816
0000f0 ff 0b a7 3b f8 29 93 3d 0c d6 d2 3d 04 dc b8 3c
       0.0050978656 0.07185739 0.102947325 0.02256585
000100 12 1a 4e bd 55 0c 4e bd 2d 86 17 bd 7b 11 37 3d
       -0.05031783 -0.05030473 -0.036993194 0.044694405
000110 44 17 8d 3d 9e e4 00 3d f4 36 a1 3d 22 be f2 3c
       0.06889203 0.031468026 0.078718096 0.029631678
000120 2b 26 1a 3c df 8a 31 3d b7 c8 c5 3d 2a e0 13 3d
       0.009408514 0.04334533 0.09657424 0.03610245
000130 ed 5a 1e 3d fd 5d 2e 3d c2 7e f6 3d fb cc a2 3c
       0.038660932 0.042570103 0.12035896 0.019873133
000140 9d 86 f0 3d ba bd 96 3d f4 ce 32 3d d3 d9 b5 bc
       0.117444254 0.07360406 0.043654397 -0.022198593
000150 9e b6 04 bd 41 d8 28 3b c2 5a f0 3d 43 a4 04 3b
       -0.03240072 0.0025763663 0.11736061 0.002023951
000160 d7 ca ac 3d 5f 64 cb 3d 86 d1 6c 3c 8e 8e 8c 3d
       0.08437126 0.09931254 0.014454251 0.06863128
000170 1e f1 f3 3d 6e 16 b0 bc cf f9 48 bd 18 54 00 bd
       0.11911224 -0.02149507 -0.04906636 -0.031330198
000180 49 92 96 3d 65 5f df 3d b3 30 e2 3c 52 a4 97 bc
       0.073521204 0.10906867 0.027611112 -0.018510971
000190 bc 84 cc 3d cb 7f b2 3d f4 88 f8 3d 76 6e b2 3d
       0.099862546 0.08715781 0.12135497 0.08712475
0001a0 09 73 f1 3c 23 8a ad 3d 07 59 9f 3c ab 7d c8 3d
       0.029473798 0.08473613 0.019451631 0.09789594
0001b0 55 db e6 3c f8 c6 8a 3d 1d 98 9f 3a e9 12 f0 bc
       0.028180758 0.067762315 0.0012176071 -0.029305892
0001c0 8a 56 b3 bc 71 d0 5d bc 04 4a 40 3d f8 a7 6f 3d
       -0.021891851 -0.013538466 0.046945587 0.058509797
0001d0 c2 46 b1 3d b0 8f 5d 3d 0c 4d ad 3d b4 b2 9b 3d
       0.08656074 0.05409211 0.08461961 0.07602444
0001e0 2d 34 68 3c 25 3b 93 3d ef 13 48 bd a9 f8 a9 bc
       0.014172596 0.07189015 -0.048847135 -0.020748453
0001f0 e8 7b a1 bc 2a dd bd 3c 85 de 59 bd e2 92 eb 3d
       -0.019712403 0.023176748 -0.053190727 0.11502625
000200 ba 93 28 3d 2e 76 d1 bc 9b 53 40 bd 24 6d 12 3c
       0.041156508 -0.025569048 -0.046954732 0.008937154
000210 67 38 6d 3d e4 0a 9a 3d 69 50 99 bb e2 a3 52 3d
       0.057915118 0.075216085 -0.004678775 0.051425822
000220 5b 40 42 3d 98 e4 d9 3c 8e 14 4c 3b 87 66 42 3d
       0.047424655 0.02659826 0.0031140181 0.04746106
000230 c0 83 c9 3d ce f4 24 3c c1 6b e1 3b 1f d9 09 bd
       0.098395824 0.010068132 0.0068793003 -0.03365433
000240 ae 6a 53 3d f9 76 e7 3c b0 3f ec 3d 1f 54 4b 3d
       0.05161541 0.028254973 0.11535585 0.04964077
000250 e0 b6 d4 3d f3 9a e3 3d ff 0f ea 3c 51 aa e0 3d
       0.10386443 0.111135386 0.02857208 0.10969985
000260 89 53 ce 3c 37 8e f7 3d 3c 00 cd 3d 30 f9 a2 3d
       0.025186317 0.12087672 0.1000981 0.07957685
000270 5c b7 fb 3d e0 3a 8e 3d 90 73 10 bd ba 81 53 3d
       0.122908324 0.06944823 -0.03526646 0.05163739
000280 1f 11 be 3d 37 97 73 bd bb 9a ce 3d 60 ad 88 3d
       0.09280609 -0.05947038 0.10088106 0.06673694
000290 1c fa c6 3d e4 e8 5b 3d d1 1d 59 bc 37 1c be 3d
       0.09715673 0.0536889 -0.013251738 0.09282725
0002a0 8d 13 69 3d 9f b1 21 3d 3a 05 40 bd 91 3d 62 bd
       0.05690341 0.039476033 -0.046879984 -0.055234496
0002b0 a9 1b 5b 3c 96 e0 19 3d 27 e2 88 bc 94 0c 01 3b
       0.013373294 0.037567697 -0.0167094 0.0019691335
0002c0 69 12 c4 3d ad e5 6f 3d 85 55 c8 3c 17 db e1 3d
       0.09573824 0.058568645 0.024454841 0.11028116
0002d0 67 d5 14 bd 99 2b b1 3d 29 f5 9a 3d 90 d5 41 bd
       -0.03633633 0.08650894 0.07566292 -0.04732281
0002e0 06 e4 d8 3d 6c e3 02 bd 48 91 32 3d 69 db d5 3d
       0.10590367 -0.031955168 0.043595582 0.1044224
0002f0 30 3a e0 3d e9 e2 26 3d e6 40 90 3c 9b d6 42 bd
       0.109485984 0.040743742 0.017609071 -0.047567945
000300 57 98 4e 3d 54 37 e2 3d a4 78 f1 3b 87 45 d3 3d
       0.05043825 0.11045709 0.007369118 0.10315996
000310 1f bf e7 3d 77 62 80 bb 06 ca f6 3d 08 9c c1 3d
       0.1131575 -0.003917988 0.12050252 0.09453589
000320 7e e2 b7 3c 70 d0 10 3b 35 c0 e2 3d 2e dd 3c bb
       0.022446867 0.0022096895 0.11071817 -0.0028818357
000330 e3 ab 26 bd 63 54 ac 3c 3b 96 a6 3d c0 01 f8 3d
       -0.040691268 0.021036332 0.08134123 0.12109709
000340 67 b9 ed 3c a0 47 ce 3d 65 9d a6 3d c7 42 9e 3d
       0.02901907 0.10072255 0.081354894 0.077275805
000350 3d 8e 45 bd e9 51 50 bd 12 e9 56 3d 65 84 68 bc
       -0.048231352 -0.050859366 0.052468367 -0.014191722
000360 50 c7 17 3d 4c f1 77 bc 97 ff af bc 20 e8 af bc
       0.037055314 -0.015133213 -0.02148418 -0.02147299
000370 94 ae e9 3c be 8b 3b 3a d6 7a a2 bc be 8d 80 bd
       0.028525628 0.0007154307 -0.019833963 -0.06277035
000380 3a ae a7 3d b9 87 4e bd d7 05 7c 3d fa 23 6c 3c
       0.08187528 -0.050422404 0.061529007 0.014412874
000390 10 7f e2 3d 9f 22 38 3d 29 c1 f6 3d ee 9f 3e bc
       0.110593915 0.044954892 0.12048561 -0.01163481
0003a0 bc 4b 10 bd 84 e3 6c 3c ef 4e 19 3d 9a b6 e4 bb
       -0.035228476 0.014458541 0.037428793 -0.0069797756
0003b0 61 1f 14 3d 94 9b dc 3d 52 ee 3c 3c d4 92 46 bd
       0.036162738 0.10771862 0.011531429 -0.04847987
0003c0 19 54 8a bc ad 9e 08 3d ca 4d 73 bd 13 9a 93 3d
       -0.016885804 0.03335445 -0.059400357 0.07207122
0003d0 59 fd 29 3d 74 f7 3a 3c 6b 6a 18 3d 8e 24 82 3d
       0.041501377 0.0114115365 0.037210863 0.063546285
0003e0 20 c2 94 bc 57 2c 2e 3d b0 be 29 3d 20 94 a9 3b
       -0.018158972 0.042522755 0.04144162 0.0051751286
0003f0 b7 25 12 bc b6 53 ac 3b 7e 5a d0 bd f9 ec 9f bd
       -0.008920125 0.0052590026 -0.1017351 -0.07808871
