scripts/model_rir.pt (torch, 526981 bytes, 24 tensors)

weight f4 [40, 500, 3]
0.026613932 -0.07201844 -0.11531406 0.08309813 0.0371848 -0.009825341 -0.00015298766 0.0800064
0.20251884 0.022061134 0.028364437 -0.09166775 0.05532719 0.107224226 0.13897592 0.1334215
0.09702144 -0.0710339 0.05922386 0.01584378 0.08125298 -0.0020831139 -0.00096185325 -0.030712938
0.014530226 0.20054892 -0.012894895 0.08002651 0.13629475 0.13987698 0.11725786 -0.0109943105
0.18023416 0.05502266 -0.009812108 -0.005920309 0.17254151 0.038072128 0.11531638 0.11260066
-0.021721104 0.100034244 0.05731258 0.12322249 0.03450592 0.15380502 0.109035306 0.099647984
0.12224735 0.17496216 0.066790156 0.09608945 0.04618875 0.0755026 0.12318254 0.10271679
0.07289211 0.03882799 0.1477167 -0.058571573 0.0397486 0.03418928 0.15852535 -0.04493117
0.01659356 0.022652408 -0.052417524 -0.051568884 -0.022082655 0.067974366 0.054289933 0.025265766
0.03009077 0.063631356 -0.021941166 0.03119955 0.1262556 0.040250022 -0.04089666 -0.03441
0.077212214 0.032454733 -0.05072922 0.033861578 -0.016079929 -0.021094687 0.07310274 -0.014282126
0.049882688 0.09375659 0.029439848 0.069601506 -0.059935052 0.06721721 0.042261045 0.12409082
0.096333206 -0.0031590674 0.03605663 0.057705563 0.17538695 0.17217635 -0.039711647 -0.018478986
0.10332333 -0.020815536 0.08574096 0.010652543 -0.06994174 0.046559162 0.05272716 0.05618235
-0.022580013 0.013549767 0.16170043 -0.032639064 -0.05396588 0.041685723 -0.043586515 0.05433466
0.05986727 0.016264908 0.055987544 0.0073961667 0.05609639 0.07742418 -0.022775305 -0.016187053
0.032959893 0.04009262 -0.020379767 -0.018163327 -0.0059817727 0.12219975 -0.042447172 -0.045501545
0.008688131 -0.12297769 0.026333375 0.0030522246 -0.059067007 0.029128004 -0.08436345 0.020790013
0.0006831452 0.024441605 0.0063045244 -0.03614809 -0.060254324 -0.016629027 0.07638426 0.07848742
-0.09717062 -0.07130907 0.033396617 0.013674758 -0.008733458 -0.014068699 -0.021909505 0.01587104
0.08346854 0.040550023 -0.019662354 0.033350915 -0.07144679 -0.085823104 -0.008056731 -0.010766532
0.029881448 0.025729492 -0.07951697 -0.009149806 0.104924545 0.006039313 -0.03759278 0.038992457
0.07472644 0.019472962 0.035560835 0.02281293 -0.026734352 -0.0034536768 -0.020272914 -0.052618608
0.020174995 -0.09309331 -0.019354986 0.06074508 0.00707908 -0.04882864 -0.05300931 -0.054486457
-0.09787831 -0.039918017 -0.059677564 0.08613993 0.043100942 -0.0939803 -0.01105014 -0.018846532
-0.023178637 0.072514296 0.042964075 0.0020395357 0.039987717 -0.044593178 0.027617494 0.06773473
-0.0016601111 -0.014063756 -0.08079856 0.0015117815 0.06554636 -0.0033449521 -0.04172685 0.038521487
-0.0120228855 -0.05751216 -0.03023042 -0.030268457 -0.13021336 -0.068104535 0.045711048 0.046803523
0.01108105 0.056194197 -0.029774785 -0.10629835 -0.07073182 0.013412596 -0.06957739 -0.042606752
0.025935935 -0.102362424 0.038996004 0.094721794 -0.12160977 0.014423538 0.008245679 0.15669815
0.0076840874 -0.057963293 -0.049911957 -0.09637031 -0.060490355 0.054042444 -0.042338572 -0.10007888
-0.018558044 -0.061486922 -0.0905677 0.024598382 -0.025598148 -0.07165205 0.04609105 -0.13128209
00000000: 7605 da3c 677e 93bd c729 ecbd 5a2f aa3d
00000010: 174f 183d 78fa 20bc 506b 20b9 65da a33d
00000020: 1961 4f3e 8db9 b43c 895c e83c 4dbc bbbd
00000030: c39e 623d 6098 db3d b44f 0e3e a59f 083e
00000040: 2db3 c63d 397a 91bd b894 723d d1ca 813c
00000050: f667 a63d da84 08bb e124 7cba b399 fbbc
00000060: 2f10 6e3c b25c 4d3e 1c45 53bc f0e4 a33d
00000070: da90 0b3e e93b 0f3e e424 f03d 7b21 34bc
00000080: 4e8f 383e 715f 613d f7c2 20bc 27ff c1bb
00000090: b9ae 303e 85f1 1b3d ff2a ec3d 2d9b e63d
000000a0: 75f0 b1bc c1de cc3d 99c0 6a3d 135c fc3d
000000b0: 1456 0d3d 107f 1d3e e74d df3d 3e14 cc3d
000000c0: d25c fa3d 4829 333e 47c9 883d 8cca c43d
000000d0: 6a30 3d3d 1ba1 9a3d 2147 fc3d 2e5d d23d
000000e0: 7548 953d 190a 1f3d 0c43 173e bfe8 6fbd
000000f0: 6ecf 223d 0f0a 0c3d 7854 223e bf09 38bd
00000100: 38ef 873c 8b91 b93c c2b3 56bd e539 53bd
00000110: afe6 b4bc 2536 8b3d 1f5f 5e3d 27fa ce3c
00000120: eb80 f63c 2851 823d f6bd b3bc 3396 ff3c
00000130: 2649 013e 35dd 243d 4283 27bd 80f1 0cbd
00000140: 7021 9e3d 41ef 043d 71c9 4fbd 70b2 0a3d
00000150: 0eba 83bc c4ce acbc e4b6 953d 94ff 69bc
00000160: ca51 4c3d 7403 c03d d62b f13c 3c8b 8e3d
00000170: 757e 75bd 2da9 893d eb19 2d3d 5423 fe3d
00000180: 584a c53d 5b08 4fbb 1eb0 133d ab5c 6c3d
00000190: a398 333e ff4e 303e aea8 22bd 3e61 97bc
000001a0: 2f9b d33d 5885 aabc f598 af3d 0188 2e3c
000001b0: 9d3d 8fbd d2b4 3e3d 6ff8 573d 771f 663d
000001c0: b8f9 b8bc d8ff 5d3c cc94 253e 8ab0 05bd
000001d0: 540b 5dbd a6be 2a3d c687 32bd 058e 5e3d
000001e0: 6237 753d fc3d 853c 3253 653d 8b5b f23b
000001f0: 54c5 653d 9290 9e3d 4793 babc b69a 84bc
00000200: f400 073d 2938 243d 78f3 a6bc 42cb 94bc
00000210: bf02 c4bb dd43 fa3d 16dd 2dbd d45f 3abd
00000220: aa58 0e3c badb fbbd 17b9 d73c d507 483b
00000230: 3ff0 71bd da9d ee3c bfc6 acbd d14f aa3c
00000240: 1915 333a c339 c83c 2f96 ce3b 0510 14bd
00000250: 3dcd 76bd 9939 88bc 5a6f 9c3d 03be a03d
00000260: 6401 c7bd 7d0a 92bd e4ca 083d 180c 603c
00000270: c716 0fbc 6780 66bc 907b b3bc fc03 823c
00000280: 8ef1 aa3d c817 263d f212 a1bc f89a 083d
00000290: b252 92bd 06c4 afbd 6100 04bc 1c66 30bc
000002a0: f0c9 f43c a8c6 d23c cbd9 a2bd 11e9 15bc
000002b0: aee2 d63d 6ee5 c53b e3fa 19bd 8eb6 1f3d
000002c0: 2d0a 993d c385 9f3c 3da8 113d 2fe2 ba3c
000002d0: 0002 dbbc 1557 62bb 6213 a6bc 9c86 57bd
000002e0: 0846 a53c b5a7 bebd 598e 9ebc d5cf 783d
000002f0: a1f7 e73b 8a00 48bd 4a20 59bd 312d 5fbd
00000300: 6c74 c8bd 1381 23bd 7670 74bd 226a b03d
00000310: 9d8a 303d be78 c0bd a50b 35bc 0b64 9abc
00000320: 20e1 bdbc 6082 943d 19fb 2f3d bba9 053b
00000330: 29ca 233d 56a7 36bd 153e e23c 82b8 8a3d
00000340: 1698 d9ba ab6b 66bc b779 a5bd f826 c63a
00000350: 2c3d 863d fc36 5bbb c6e9 2abd b5c8 1d3d
00000360: a3fb 44bc df91 6bbd c9a5 f7bc 8ef5 f7bc
00000370: a756 05be 647a 8bbd 823b 3b3d 0db5 3f3d
00000380: 4b8d 353c e32b 663d 40ea f3bc f3b2 d9bd
00000390: d8db 90bd 81c0 5b3c 977e 8ebd 6b84 2ebd
000003a0: 9977 d43c 64a3 d1bd 46ba 1f3d 80fd c13d
000003b0: 8b0e f9bd b450 6c3c e218 073c 7b75 203e
000003c0: ccca fb3b eb6a 6dbd 7b70 4cbd cc5d c5bd
000003d0: bcc4 77bd 9c5b 5d3d 366b 2dbd 28f6 ccbd
000003e0: 0a07 98bc b6d9 7bbd 8f7b b9bd 8c82 c93c
000003f0: 35b3 d1bc 4fbe 92bd f8c9 3c3d d06e 06be

bias f4 [40]
-0.05545991 -0.15003185 -0.078975566 -0.03808749 -0.21881296 -0.19837452 -0.09698606 -0.21105772
-0.06832952 -0.1283278 -0.40373594 -0.21357667 -0.14282744 -0.18355913 -0.3677922 -0.013434144
-0.21023518 -0.108743094 -0.08531739 -0.1010725 -0.12999791 -0.42180508 -0.044322677 -0.25549075
-0.33520678 -0.16403133 -0.26287186 -0.27546957 -0.18753627 -0.027193328 -0.35637623 -0.14869493
-0.052349806 -0.3667638 -0.10809752 -0.14024152 -0.13622092 -0.09320387 -0.08390846 -0.12860295
00000000: ee29 63bd f3a1 19be f1bd a1bd a101 1cbd
00000010: 8110 60be b122 4bbe a1a0 c6bd 841f 58be
00000020: 59f0 8bbd 5d68 03be 7ab6 cebe d8b3 5abe
00000030: 5b41 12be edf6 3bbe 424f bcbe e21a 5cbc
00000040: e447 57be b3b4 debd e2ba aebd 19ff cebd
00000050: 2c1e 05be d6f6 d7be b28b 35bd afcf 82be
00000060: 39a0 abbe d4f7 27be 2497 86be 590a 8dbe
00000070: 8209 40be 8bc4 debc f276 b6be 7c43 18be
00000080: c06c 56bd 77c8 bbbe 3c62 ddbd 799b 0fbe
00000090: 7f7d 0bbe ace1 bebd 33d8 abbd 7eb0 03be

weight f4 [40, 40, 3]
-0.05426283 -0.0899302 -0.042267647 0.06044069 0.063818 -0.025197737 0.02467096 0.028312055
-0.032694038 0.017800467 -0.02765392 0.100927874 0.09589245 -0.09825982 -0.032795783 0.018787064
0.08936215 -0.04495172 0.017282773 -0.14918554 0.09339739 0.015879238 -0.031947996 0.107743315
-0.045265935 -0.064582296 0.024087721 0.046449106 0.06508059 -0.014006603 -0.011030073 -0.10058163
0.020062575 -0.10863558 0.07324032 0.0035138766 -0.06139156 0.045597367 -0.041680805 0.01189605
0.05903536 -0.022266516 -0.034135744 -0.05745212 -0.035605926 -0.048449285 -0.06920584 -0.015798835
-0.049204584 0.109816514 -0.047974255 -0.020254223 -0.036918025 -0.031376958 0.10765162 0.0097962655
-0.06787784 -0.0062622307 -0.038487546 0.033288147 0.027376225 0.03480682 -0.058596954 -0.055863913
0.036095772 0.096089534 0.06590769 0.040769424 -0.010595594 0.07443857 0.008349873 -0.01385854
0.04667621 -0.08590771 0.032608077 0.044728585 -0.086887866 -0.05885543 0.0016699921 -0.072632246
-0.12305908 0.032742992 0.022635233 0.024286335 0.050609287 -0.04443663 0.043382157 0.03672024
0.0979869 0.077015825 -0.0709949 0.019246988 0.07577373 -0.027727397 -0.01245272 0.01540634
0.07687328 -0.04602521 0.0008401352 -0.08123743 -0.021213138 -0.06694374 0.033429295 -0.083325155
0.028850783 0.05427051 -0.028135566 0.004607725 -0.07960263 -0.14035912 -0.08681236 -0.00032992486
-0.040926035 0.05853604 0.026906643 0.017139003 -0.04667213 0.07423749 0.11674598 0.08032407
-0.09153794 -0.17181522 0.07324302 0.085665815 -0.08477414 -0.1622912 0.1288935 -0.13220006
-0.00902147 -0.1371798 0.06459627 -0.13434687 0.05169009 0.085914195 0.0597006 -0.068922974
0.04905642 0.01244924 -0.02773306 0.046019472 0.042274226 -0.099939376 0.15167998 0.10712691
-0.17903152 -0.035696402 -0.18001354 0.03152059 0.05618295 -0.16417572 0.20831324 -0.1240797
0.05895591 0.082729295 0.073937014 0.0056958967 0.09565127 -0.03831612 0.042254593 -0.18500082
-0.055948127 0.06791561 -0.0072369482 0.020713529 0.030597452 -0.09043292 -0.022975022 0.08066008
-0.20674989 -0.10884153 -0.06746634 -0.0048378706 -0.03496805 -0.18352462 -0.061487615 -0.11256135
-0.14794849 0.084955566 0.10391674 -0.03496666 -0.007606934 0.01114249 -0.13805117 0.033842493
0.10451787 -0.08229198 0.01607049 -0.101183474 0.080787525 0.0021428927 0.06677904 -0.059544977
0.07213522 0.016597468 -0.046401422 0.11519447 -0.0473126 0.09112796 -0.061962247 -0.095112346
0.07283058 0.012201393 -0.059657473 -0.1343417 0.09893584 0.13292141 0.02534844 0.053221535
0.070531234 0.031030431 -0.008925985 -0.04481478 -0.032533765 -0.057620037 -0.14974177 -0.0870497
0.011764037 -0.024491632 -0.0055710874 0.113136224 0.016398292 -0.06273526 0.010432794 -0.051845185
0.06501966 -0.026214445 0.008035979 -0.02631523 0.06339425 -0.008640965 0.048744004 0.09363827
-0.12466953 -0.06463153 0.020325938 -0.1666446 -0.102788806 0.093334734 -0.10480001 -0.107337825
0.016649432 -0.056848206 0.044797484 -0.06883299 -0.04285804 -0.04331868 -0.013359233 -0.020068357
-0.005180624 -0.13241084 0.08806992 -0.18902133 0.036717553 0.14413789 0.0053230664 -0.104803555
00000000: b442 5ebd 532d b8bd d720 2dbd a890 773d
00000010: 03b3 823d 7c6b cebc c11a ca3c afee e73c
00000020: 2fea 05bd 49d2 913c 798a e2bc 46b3 ce3d
00000030: 4363 c43d 723c c9bd df54 06bd 54e7 993c
00000040: 8103 b73d 4b1f 38bd 9a94 8d3c 18c4 18be
00000050: 2147 bf3d 2d15 823c e7db 02bd 87a8 dc3d
00000060: c668 39bd b943 84bd 9d53 c53c 6b41 3e3d
00000070: f948 853d f37b 65bc 7bb7 34bc befd cdbd
00000080: 455a a43c 557c debd 05ff 953d 1149 663b
00000090: b775 7bbd 4ec4 3a3d 7eb9 2abd a6e7 423c
000000a0: 10cf 713d 4568 b6bc ecd1 0bbd ea52 6bbd
000000b0: 85d7 11bd c272 46bd cbbb 8dbd 8f6c 81bc
000000c0: bf8a 49bd 7be7 e03d a780 44bd 2fec a5bc
000000d0: 5b37 17bd 2085 00bd 7478 dc3d 8480 203c
000000e0: 8903 8bbd 6633 cdbb 1ea5 1dbd 2759 083d
000000f0: 1b44 e03c 9991 0e3d 5c03 70bd 8fd1 64bd
00000100: 29d9 133d 97ca c43d 9cfa 863d d7fd 263d
00000110: 2499 2dbc 4073 983d e8cd 083c ee0e 63bc
00000120: 8e2f 3f3d 62f0 afbd 0c90 053d 5235 373d
00000130: 44f2 b1bd 6412 71bd a3e3 da3a 37c0 94bd
00000140: 6606 fcbd 841d 063d 866d b93c 23f4 c63c
00000150: af4b 4f3d 2f03 36bd 7db1 313d f667 163d
00000160: 5bad c83d 79ba 9d3d c665 91bd dcab 9d3c
00000170: 422f 9b3d 9124 e3bc 7e06 4cbc e06a 7c3c
00000180: bd6f 9d3d ee84 3cbd 853c 5c3a cf5f a6bd
00000190: 2dc7 adbc cd19 89bd 28ed 083d 61a6 aabd
000001a0: 7a58 ec3c c14a 5e3d 8f7c e6bc 66fc 963b
000001b0: b406 a3bd 4dba 0fbe aeca b1bd c4f9 acb9
000001c0: 0fa2 27bd 7dc3 6f3d 526b dc3c 1867 8c3c
000001d0: 462b 3fbd d309 983d 8418 ef3d f280 a43d
000001e0: 3e78 bbbd 54f0 2fbe 7000 963d 8f71 af3d
000001f0: 109e adbd aa2f 26be a8fc 033e 745f 07be
00000200: cace 13bc dd78 0cbe 0d4b 843d 3a92 09be
00000210: fdb8 533d c8f3 af3d 9e88 743d 7d27 8dbd
00000220: 62ef 483d e6f7 4b3c 7130 e3bc ea7e 3c3d
00000230: bd27 2d3d 04ad ccbd ff51 1b3e 5a65 db3d
00000240: 0a54 37be 6436 12bd 7855 38be bc1b 013d
00000250: 1820 663d ae1d 28be 1150 553e 7f1d febd
00000260: c17b 713d fa6d a93d 4a6c 973d a5a4 ba3b
00000270: d0e4 c33d 5df1 1cbd 2713 2d3d db70 3dbe
00000280: dd29 65bd 5717 8b3d ec23 edbb 6baf a93c
00000290: 82a7 fa3c e534 b9bd 1d36 bcbc 1d31 a53d
000002a0: 3eb6 53be 4fe8 debd cb2b 8abd 0087 9ebb
000002b0: a83a 0fbd e1ed 3bbe 70da 7bbd 9186 e6bd
000002c0: cf7f 17be 2ffd ad3d 4dd2 d43d 3339 0fbd
000002d0: 9643 f9bb fe8e 363c 495d 0dbe 6d9e 0a3d
000002e0: 770d d63d b388 a8bd 43a6 833c 4839 cfbd
000002f0: ee73 a53d c66f 0c3b 73c3 883d 6fe5 73bd
00000300: a1bb 933d 6af7 873c 6b0f 3ebd 14eb eb3d
00000310: dbca 41bd 4ca1 ba3d 20cc 7dbd 43ca c2bd
00000320: 3328 953d 5ae8 473c 655b 74bd df90 09be
00000330: e09e ca3d 8d1c 083e 88a7 cf3c d3fe 593d
00000340: ae72 903d 8833 fe3c 4b3e 12bc b48f 37bd
00000350: 2042 05bd fd02 6cbd e855 19be 1d47 b2bd
00000360: f3bd 403c ada2 c8bc ab8d b6bb f7b3 e73d
00000370: b655 863c 587b 80bd 4fee 2a3c 9e5b 54bd
00000380: 0729 853d adbf d6bc 57a9 033c 0a93 d7bc
00000390: d8d4 813d d692 0dbc cba7 473d 6cc5 bf3d
000003a0: bd52 ffbd 895d 84bd 9582 a63c e2a4 2abe
000003b0: f082 d2bd 4826 bf3d 63a1 d6bd efd3 dbbd
000003c0: 6464 883c aad9 68bd 917d 373d 50f8 8cbd
000003d0: ea8b 2fbd ee6e 31bd afe0 5abc 6566 a4bc
000003e0: 39c2 a9bb b596 07be 015e b43d cf8e 41be
000003f0: 2565 163d e298 133e 1e6d ae3b 3fa3 d6bd

bias f4 [40]
0.039065912 -0.023464711 -0.046309818 -0.06718556 0.011741261 -0.029825728 -0.03445327 -0.026415447
-0.01546754 -0.067684025 0.08038708 -0.066421025 0.015152121 -0.042366616 0.097744726 -0.08735507
-0.073637724 -0.04647711 -0.028793443 -0.043287538 -0.07893039 0.00018672735 0.07110397 0.13029583
-0.049454805 0.08782946 -0.08545722 -0.03320227 0.07701691 0.058677457 0.040468164 0.024309957
-0.018540185 0.08619873 -0.017594004 0.059756253 0.00029641777 -0.010483991 -0.03324349 0.10898158
00000000: 9403 203d 1139 c0bc 5daf 3dbd 9598 89bd
00000010: 6b5e 403c 1655 f4bc df1e 0dbd 3565 d8bc
00000020: 916b 7dbc ec9d 8abd fba1 a43d bf07 88bd
00000030: 9a40 783c 9e88 2dbd 632e c83d 37e7 b2bd
00000040: 60cf 96bd c85e 3ebd 3ae0 ebbc 464e 31bd
00000050: 42a6 a1bd 3ecc 4339 f59e 913d 456c 053e
00000060: 1f91 4abd efdf b33d 3204 afbd 1aff 07bd
00000070: 0bbb 9d3d c657 703d f2c1 253d ad25 c73c
00000080: 96e1 97bc f688 b03d 4d21 90bc f9c2 743d
00000090: 8568 9b39 0cc5 2bbc 532a 08bd bc31 df3d

weight f4 [40, 40, 4]
-0.02913371 -0.021849236 0.009330557 -0.09970178 0.07559829 -0.0169947 0.08348381 0.02270961
0.082508266 0.041445836 -0.0005600115 -0.07766424 -0.09492048 -0.058439255 0.014824549 -0.012605233
0.0134584475 0.008180233 0.09085457 -0.029872147 0.001523833 0.081274256 -0.018275462 0.048555873
0.059697483 -0.07642595 -0.06439348 -0.042929493 -0.004014002 0.06626435 -0.04987517 0.018115774
-0.019716777 0.0023647312 0.1089359 0.0025114163 -0.20798546 0.014849626 0.027117334 0.01799632
0.015856864 -0.04789099 -0.030654838 0.011383079 -0.09637634 0.017718356 0.1666713 -0.119550124
-0.025143474 -0.11363614 -0.06828269 -0.06609206 0.06795877 -0.037598014 0.030256983 -0.044487644
-0.07234568 -0.11529595 0.0017998917 0.005894972 -0.08544582 -0.14309342 -0.1027926 -0.07306997
-0.096642 -0.061205316 0.027588645 0.01553933 -0.04218997 0.021745762 0.06546532 -0.058964487
-0.1622745 0.01967501 0.05426858 -0.095062874 0.044656403 -0.11372915 0.007670217 0.045412447
0.01567804 0.008745052 -0.005768723 -0.0027809911 0.0044331374 0.016486242 0.029438972 -0.059336107
-0.08969298 -0.15738507 -0.058693554 -0.07851909 -0.09764604 -0.027801901 0.014927614 -0.0028568911
-0.087668106 -0.010076571 0.035103347 0.018624201 -0.119794995 0.06826272 0.11200168 0.053981856
0.024284722 -0.054135714 0.016236478 0.080992505 0.037683968 -0.01733859 0.029690513 0.0241541
-0.042582367 -0.08898789 -0.053505182 -0.053311784 0.10553393 -0.17990127 -0.1971352 -0.16493033
-0.043303862 -0.073212735 -0.034681994 -0.036134664 0.009699791 -0.15095434 0.00787827 -0.07101424
-0.034429274 0.094207145 0.0023343086 -0.009514036 -0.086214915 0.013892421 -0.09519131 0.061292008
0.017585203 0.018241461 0.028033197 0.05920124 -0.0077279625 -0.24123652 -0.22844803 -0.057356253
0.023570616 0.0662122 -0.14057383 0.016956849 -0.10802282 0.029379249 -0.0138584 -0.14063948
0.016609332 -0.0065785567 0.030407662 -0.04242812 -0.06553508 -0.11147471 -0.0059906477 -0.18727979
0.09555666 -0.10832155 -0.06860589 -0.09064038 -0.06223261 0.10200476 0.033591636 -0.07198437
-0.12509497 -0.0161356 -0.018592127 -0.007997993 -0.096713215 -0.06267068 -0.009072109 -0.059346844
0.13094129 -0.009195928 0.013604712 0.050273996 -0.12999271 -0.16974244 -0.03952732 -0.033163093
0.06516354 -0.0048429333 0.013041101 0.02110112 0.03819258 0.08239773 -0.09487724 0.0362552
-0.17926614 -0.037751958 -0.1098772 0.022875812 0.10097679 -0.07698136 0.060518235 -0.041071985
-0.019866176 -0.07985061 -0.089588575 -0.10472931 0.0934932 -0.13170236 -0.04891854 0.021632215
0.04515175 -0.046269845 0.020138048 0.05164468 -0.07218178 -0.048214227 -0.069806345 0.059870984
-0.012386995 -0.062795706 0.048207127 0.060910292 0.014168651 -0.076465264 0.04432188 -0.07365913
-0.009962002 -0.070809565 0.0019620028 0.019995708 0.06484895 -0.06253867 0.028847663 0.0658545
-0.11651453 -0.026168609 -0.10130201 0.051373 0.0313652 -0.05277018 0.07334793 0.057097167
-0.049365822 -0.027988007 -0.01088489 -0.021053486 0.097380735 -0.15224423 0.07529868 -0.054618724
-0.00045811158 -0.08614761 0.038082145 -0.035995696 -0.041467633 0.010586859 0.044487216 -0.005072803
00000000: d1a9 eebc 2bfd b2bc 31df 183c 7230 ccbd
00000010: 47d3 9a3d 7838 8bbc 8ff9 aa3d 8109 ba3c
00000020: 18fa a83d 1cc3 293d bccd 12ba 6e0e 9fbd
00000030: ab65 c2bd 005e 6fbd aae2 723c 2e86 4ebc
00000040: d280 5c3c 6206 063c f611 ba3d 6fb6 f4bc
00000050: 5abb c73a 1e73 a63d 6cb6 95bc 86e2 463d
00000060: 5985 743d 3585 9cbd bbe0 83bd d6d6 2fbd
00000070: e487 83bb 9bb5 873d e849 4cbd 8867 943c
00000080: 1485 a1bc 9bf9 1a3b c919 df3d 9396 243b
00000090: 24fa 54be d94b 733c 2c25 de3c 056d 933c
000000a0: 41e6 813c 5829 44bd db1f fbbc 1880 3a3c
000000b0: f560 c5bd 1626 913c e2ab 2a3e b2d6 f4bd
000000c0: b0f9 cdbc 11ba e8bd ccd7 8bbd 465b 87bd
000000d0: f82d 8b3d 6000 1abd 7edd f73c ad38 36bd
000000e0: f929 94bd 4820 ecbd 58ea eb3a 9c2a c13b
000000f0: 38fe aebd 1587 12be ed84 d2bd b5a5 95bd
00000100: 3eec c5bd 6db2 7abd 9501 e23c ad98 7e3c
00000110: 64cf 2cbd 2b24 b23c af12 863d bf84 71bd
00000120: 492b 26be 7d2d a13c bb48 5e3d 53b0 c2bd
00000130: a2e9 363d d4ea e8bd 7256 fb3b 6702 3a3d
00000140: 3c6f 803c 6847 0f3c 8e07 bdbb 4a41 36bb
00000150: da43 913b 280e 873c 002a f13c 6b0a 73bd
00000160: f4b0 b7bd 8d29 21be a768 70bd 9ece a0bd
00000170: a6fa c7bd d0c0 e3bc f392 743c ae3a 3bbb
00000180: 568b b3bd 3418 25bc 87c8 0f3d c891 983c
00000190: 1457 f5bd 53cd 8b3d 2361 e53d 141c 5d3d
000001a0: c1f0 c63c 69bd 5dbd 5d02 853c 66df a53d
000001b0: 815a 1a3d a909 8ebc 8539 f33c d2de c53c
000001c0: d96a 2ebd 483f b6bd 4028 5bbd 755d 5abd
000001d0: 2c22 d83d 0a38 38be cfdd 49be 7fe3 28be
000001e0: 645f 31bd 8ff0 95bd b50e 0ebd f101 14bd
000001f0: dfeb 1e3c c693 1abe dc13 013c ea6f 91bd
00000200: b605 0dbd adef c03d 33fb 183b c2e0 1bbc
00000210: 7291 b0bd 099d 633c a9f3 c2bd 540d 7b3d
00000220: d80e 903c 1e6f 953c e0a5 e53c 007d 723d
00000230: d93a fdbb b506 77be 48ee 69be 64ee 6abd
00000240: 2a17 c13c 439a 873d 96f2 0fbe 17e9 8a3c
00000250: 113b ddbd c0ac f03c 580e 63bc cc03 10be
00000260: 4b10 883c ef90 d7bb 7d19 f93c 1cc9 2dbd
00000270: 4237 86bd da4c e4bd 324d c4bb 46c6 3fbe
00000280: 36b3 c33d b0d7 ddbd 3f81 8cbd aaa1 b9bd
00000290: 9fe7 7ebd dfe7 d03d 6297 093d 8b6c 93bd
000002a0: e518 00be ce2e 84bc 844e 98bc 040a 03bc
000002b0: 9411 c6bd 7c59 80bd 2fa3 14bc ad15 73bd
000002c0: 7915 063e 85aa 16bc 4ce6 5e3c 1bec 4d3d
000002d0: cf1c 05be f6d0 2dbe 66e7 21bd 06d6 07bd
000002e0: 7674 853d 78b1 9ebb 58aa 553c 42dc ac3c
000002f0: d36f 1c3d 24c0 a83d 004f c2bd 5580 143d
00000300: 8b91 37be cca1 1abd 4c07 e1bd 0e66 bb3c
00000310: ebcc ce3d 67a8 9dbd f8e1 773d 193b 28bd
00000320: 64be a2bc b788 a3bd 377a b7bd 527c d6bd
00000330: 5d79 bf3d fcdc 06be cf5e 48bd 0b36 b13c
00000340: 0bf1 383d 7385 3dbd 8cf8 a43c 5f89 533d
00000350: 0bd4 93bd 487c 45bd a1f6 8ebd 473b 753d
00000360: d3f2 4abc 099b 80bd d674 453d 127d 793d
00000370: a123 683c d299 9cbd dc8a 353d 99da 96bd
00000380: aa37 23bc 9b04 91bd f294 003b 0ace a33c
00000390: 87cf 843d 4614 80bd ef51 ec3c b9de 863d
000003a0: 2b9f eebd 8d5f d6bc 6e77 cfbd 7f6c 523d
000003b0: cc78 003d 8b25 58bd 7137 963d b8de 693d
000003c0: d133 4abd 1b47 e5bc 8a56 32bc 5c78 acbc
000003d0: 8d6f c73d e9e5 1bbe 3236 9a3d e2b7 5fbd
000003e0: b22e f0b9 286e b0bd 06fc 1b3d 3970 13bd
000003f0: f7d9 29bd 8174 2d3c 3a38 363d c139 a6bb

bias f4 [40]
0.04330831 0.0101646725 0.06050128 -0.085839145 0.012438621 -0.007510277 -0.038946334 -0.014352314
0.07561839 0.038581207 0.055688262 -0.020513643 0.07000124 -0.052890744 0.046900906 0.0051589883
0.08580765 -0.022442002 0.056103542 -0.07261973 0.01274834 -0.037014753 0.0010005096 0.038577035
-0.025035042 -0.041111898 -0.09749769 0.10169034 -0.06601399 0.016767949 0.031107107 0.0847851
-0.02548228 -0.0039628777 0.011526059 0.036283426 -0.0019757836 0.08651688 -0.054960374 -0.054777216
00000000: 0e64 313d ba89 263c 31d0 773d 6fcc afbd
00000010: 5ccb 4b3c c518 f6bb 3186 1fbd f825 6bbc
00000020: d1dd 9a3d 5407 1e3d 6019 643d 3a0c a8bc
00000030: cf5c 8f3d f7a3 58bd 2a1b 403d bb0c a93b
00000040: ecbb af3d 4ad8 b7bc d4cc 653d a7b9 94bd
00000050: 6ade 503c c89c 17bd 8823 833a f402 1e3d
00000060: 4a16 cdbc f364 28bd deac c7bd 0643 d03d
00000070: 5832 87bd f05c 893c 55d4 fe3c cfa3 ad3d
00000080: 37c0 d0bc 07db 81bb ccd7 3c3c ee9d 143d
00000090: 267c 01bb c32f b13d 211e 61bd 135e 60bd

weight f4 [40, 40, 3]
-0.15684894 -0.38800445 -0.65677196 -0.029117817 0.058795705 -0.027194828 0.18086694 -0.015126277
-0.06527492 -0.17788401 0.029343251 -0.12558092 -0.046792492 -0.060682233 0.17233534 -0.18291481
-0.17801045 -0.35221595 -0.30254728 -0.43095225 0.15526916 0.123749025 0.03951591 -0.008174428
0.105673276 -0.17240624 -0.21077669 0.14256823 0.06366487 -0.19351932 0.058780942 -0.3290668
-0.05541101 0.119077116 0.072054945 0.071086444 0.22043633 0.008618026 0.11887176 -0.006775545
-0.03512591 -0.19415341 -0.23056175 -0.047301974 -0.07429483 0.36699867 -0.047191765 -0.30707005
-0.03383128 -0.038073614 -0.5511594 0.09571057 -0.03466245 -0.007557761 0.19330008 0.071338266
0.08290051 -0.022618895 -0.054282445 -0.07476745 0.03158414 0.11676608 -0.06513403 0.16478145
0.0035158738 0.05442912 -0.18480706 0.06531217 -0.016287124 0.0292259 -0.051474757 0.08403543
-0.014919442 0.102727994 0.16945773 -0.18086912 -0.22756138 -0.3948709 -0.298712 -0.20834772
0.18761352 -0.11973499 0.18939479 -0.013134245 -0.21478514 -0.0067428155 -0.02492898 -0.030609297
-0.154695 -0.07567649 0.42334196 0.044382162 -0.47404715 0.07329442 0.17177302 0.022326935
0.042216104 0.08353978 0.0071132723 -0.14130893 0.22994597 0.006479756 -0.22572418 0.067681536
-0.5463843 -0.041960586 0.07610482 -0.34292382 0.09640842 -0.28798458 -0.5349384 -0.44521296
-0.1673972 -0.010184101 0.012813372 -0.035387814 0.12451992 -0.04191981 -0.101129524 0.036731403
-0.10293902 -0.07256092 -0.038204834 -0.074434295 0.058936056 0.05544377 0.007676631 -0.049764868
0.037350837 -0.10581809 0.013686568 0.0042141364 0.034421988 -0.099303454 -0.024363814 0.036765516
-0.029502537 0.02107427 -0.000101930644 0.06306152 0.020108288 -0.05463855 -0.12008823 0.02654913
0.00021720349 -0.13809168 0.025461337 -0.034219366 0.03772776 -0.005360926 0.024578407 -0.014647852
-0.09527528 0.045268763 -0.095109224 -0.016193403 -0.08257336 -0.08002659 -0.046577815 -0.10166653
-0.10800071 -0.107505254 -0.0336829 0.006562136 0.053415887 -0.009360354 -0.049450397 0.01379332
-0.095950216 -0.026938954 -0.019219454 0.01928713 -0.10506803 -0.039545435 0.05961971 -0.09080345
0.031819433 -0.022706103 -0.011134834 -0.10097465 -0.07690953 -0.025568478 -0.08047856 -0.028782176
-0.0375597 -0.09229959 0.047155436 -0.07052735 0.028681152 -0.09248962 -0.053052757 -0.06707628
0.019949831 -0.09690835 -0.022178872 0.027891772 -0.014649825 -0.008145176 0.011090507 -0.08792546
-0.019932913 0.0030093512 -0.02248026 -0.025097663 -0.04937066 -0.0066188932 -0.017790843 -0.057585545
-0.03562131 0.01196582 0.0330631 0.06854266 0.009517588 -0.0355309 -0.068359405 -0.021913704
-0.116989285 0.020412939 -0.11314293 -0.045695357 -0.05621678 -0.075926654 0.05099071 -0.065042585
-0.07570265 -0.0014229448 0.04161005 -0.039938293 -0.0034632434 0.009213412 -0.043280974 -0.11906502
-0.030432688 -0.020499928 -0.09424946 -0.08662093 0.03577158 -0.017065939 -0.07028385 -0.049575306
-0.03024409 0.035808142 -0.047307648 -0.03331675 0.062142078 -0.039907638 -0.011000038 -0.19117191
0.13991258 -0.10870998 -0.06720881 0.011177901 0.02816208 -0.11957434 -0.05014891 -0.044788383
00000000: 029d 20be 85a8 c6be 3522 28bf 7d88 eebc
00000010: c4d3 703d b0c7 debc 2f35 393e 34d4 77bc
00000020: dbae 85bd 3a27 36be 4261 f03c 4998 00be
00000030: 7ca9 3fbd ef8d 78bd ad78 303e 054e 3bbe
00000040: 5f48 36be a655 b4be 7ae7 9abe c6a5 dcbe
00000050: e1fe 1e3e 2170 fd3d 6fdb 213d 09ee 05bc
00000060: 3b6b d83d 438b 30be d8d5 57be 68fd 113e
00000070: ba62 823d ee29 46be 49c4 703d 727b a8be
00000080: a8f6 62bd b4de f33d 8b91 933d c595 913d
00000090: 10ba 613e 9f32 0d3c 0a73 f33d 6405 debb
000000a0: 30e0 0fbd 27d0 46be 6118 6cbe b7bf 41bd
000000b0: e327 98bd 40e7 bb3e 274c 41bd 4938 9dbe
000000c0: ab92 0abd 14f3 1bbd c818 0dbf e703 c43d
000000d0: 37fa 0dbd 18a7 f7bb 75f0 453e cc19 923d
000000e0: bec7 a93d 434b b9bc 4557 5ebd ad1f 99bd
000000f0: 5f5e 013d 0e23 ef3d fe64 85bd 78bc 283e
00000100: 936a 663b 12f1 5e3d 103e 3dbe 63c2 853d
00000110: 936c 85bc 286b ef3c 32d7 52bd c41a ac3d
00000120: ad70 74bc 0e63 d23d 5486 2d3e c135 39be
00000130: da05 69be 852c cabe c7f0 98be 1b59 55be
00000140: c21d 403e 9e37 f5bd b5f0 413e 0431 57bc
00000150: a3f0 5bbe d6f2 dcbb dc37 ccbc 59c0 fabc
00000160: 5e68 1ebe 47fc 9abd 47c0 d83e 12ca 353d
00000170: 4fb6 f2be 631b 963d 44e5 2f3e fae6 b63c
00000180: cbea 2c3d e716 ab3d 7416 e93b 4ab3 10be
00000190: f576 6b3e 2254 d43b 3d24 67be 9e9c 8a3d
000001a0: d7df 0bbf ddde 2bbd d8dc 9b3d b693 afbe
000001b0: c771 c53d b772 93be b9f1 08bf f4f2 e3be
000001c0: 2c6a 2bbe 37db 26bc 2def 513c d0f2 10bd
000001d0: 4d04 ff3d 1bb4 2bbd ff1c cfbd ab73 163d
000001e0: b1d1 d2bd d29a 94bd ac7c 1cbd 0271 98bd
000001f0: ef66 713d 0219 633d 408c fb3b 3fd6 4bbd
00000200: 31fd 183d 28b7 d8bd a03d 603c bd16 8a3b
00000210: 12fe 0c3d 9c5f cbbd 9f96 c7bc 7097 163d
00000220: 4eaf f1bc f3a3 ac3c 99c3 d5b8 6626 813d
00000230: 23ba a43c accc 5fbd d1f0 f5bd 907d d93c
00000240: 1ec1 6339 e867 0dbe 4b94 d03c 9b29 0cbd
00000250: 6c88 1a3d b5aa afbb a858 c93c 8bfd 6fbc
00000260: b01f c3bd bd6b 393d a0c8 c2bd 07a8 84bc
00000270: 391c a9bd fbe4 a3bd 61c8 3ebd 8b36 d0bd
00000280: 7a2f ddbd b72b dcbd 15f7 09bd 3007 d73b
00000290: 9eca 5a3d 2c5c 19bc 808c 4abd 61fd 613c
000002a0: 8c81 c4bd 15af dcbc 1e72 9dbc 0b00 9e3c
000002b0: e82d d7bd 65fa 21bd cc33 743d 29f7 b9bd
000002c0: 1855 023d 2602 babc e16e 36bc cccb cebd
000002d0: be82 9dbd fc74 d1bc f1d1 a4bd 99c8 ebbc
000002e0: 33d8 19bd 9107 bdbd 0f26 413d a570 90bd
000002f0: bcf4 ea3c 336b bdbd d94d 59bd 4a5f 89bd
00000300: d46d a33c e377 c6bd 77b0 b5bc 497d e43c
00000310: d205 70bc 5873 05bc f5b4 353c 4312 b4bd
00000320: 594a a3bc 8938 453b 8628 b8bc 9d99 cdbc
00000330: e438 4abd 4de3 d8bb 1abe 91bc d2de 6bbd
00000340: a7e7 11bd 490c 443c 2c6d 073d 1860 8c3d
00000350: a8ef 1b3c d988 11bd 0400 8cbd 5e84 b3bc
00000360: 1498 efbd 0939 a73c 7bb7 e7bd 0e2b 3bbd
00000370: 9143 66bd 6f7f 9bbd a2db 503d 0c35 85bd
00000380: fe09 9bbd 1b82 baba 4d6f 2a3d 5696 23bd
00000390: 95f7 62bb daf3 163c 6447 31bd 5cd8 f3bd
000003a0: f94d f9bc 77ef a7bc dc05 c1bd 5066 b1bd
000003b0: 3885 123d decd 8bbc fbf0 8fbd 7a0f 4bbd
000003c0: 74c2 f7bc 8fab 123d aac5 41bd 2577 08bd
000003d0: b188 7e3d 3176 23bd 8139 34bc 92c2 43be
000003e0: 3e45 0f3e 57a3 debd c6a4 89bd 8423 373c
000003f0: 2ab4 e63c 64e3 f4bd f268 4dbd 0674 37bd

bias f4 [40]
0.07881283 -0.07134639 0.030411052 -0.00541086 -0.071963325 -0.0398922 -0.034723733 -0.016071826
0.053889968 -0.022651603 -0.10917611 0.07089042 0.025430694 -0.097050525 0.063438796 0.04298666
0.078921854 0.032981493 -0.011491898 -0.06676196 -0.020172063 0.09820347 -0.101712234 0.047601905
-0.07059936 -0.014343238 0.021482188 0.005706762 0.13728641 0.08755622 0.03567131 0.093677826
-0.041307513 -0.022252813 -0.021301376 -0.03486577 -0.03879261 0.11186186 0.06929446 -0.05379188
00000000: 9f68 a13d 0e1e 92bd 9920 f93c 954d b1bb
00000010: 8261 93bd 0166 23bd 793a 0ebd 10a9 83bc
00000020: babb 5c3d db8f b9bc b997 dfbd ff2e 913d
00000030: 0854 d03c 6dc2 c6bd 33ec 813d c812 303d
00000040: c8a1 a13d 9a17 073d 8448 3cbc 7fba 88bd
00000050: e23f a5bc e71e c93d 814e d0bd 37fa 423d
00000060: 6696 90bd e7ff 6abc 6afb af3c caff ba3b
00000070: cf94 0c3e ad50 b33d 141c 123d 29da bf3d
00000080: 1132 29bd 884b b6bc 3980 aebc 69cf 0ebd
00000090: 00e5 1ebd d517 e53d 41ea 8d3d e054 5cbd

weight f4 [40, 40, 3]
-0.06395853 -0.09191839 0.017638253 -0.01504825 -0.07604381 -0.010189124 -0.084900595 0.005434589
-0.12565537 -0.09380711 -0.10135886 -0.07059936 -0.070874415 -0.0265527 0.043317698 -0.08316616
-0.03582006 0.04260136 -0.04103648 -0.06940602 0.06953453 -0.09272302 -0.010763946 0.046797816
-0.10170426 0.029185189 -0.06346902 -0.019686963 0.009452739 -0.10042884 -0.06708663 -0.08226321
-0.0024225847 0.04224498 0.028274002 -0.08207411 0.00044902682 -0.08718921 0.0014180214 -0.1027507
0.05949012 -0.09195702 0.07148507 0.05973954 -0.06459374 0.04364077 0.02450722 -0.10052039
-0.091388196 -0.0050003827 -0.06397097 0.00642006 -0.08430034 -0.09906628 0.058845144 0.07462448
-0.083737016 -0.017358141 0.05204738 -0.09499504 -0.075561784 0.03865638 -0.008194502 -0.057807107
-0.0888399 -0.07879575 0.0075365077 -0.044246875 -0.023659108 -0.060064547 -0.0117261745 -0.030863984
-0.038880687 -0.042825215 -0.09438163 0.032976378 -0.0952567 -0.023838127 0.05627036 -0.015028856
0.011158225 0.021692257 0.013065877 -0.07366838 -0.08312609 -0.041266236 0.021532746 -0.015042063
0.050747316 0.054298878 0.018469721 -0.014322315 -0.045818377 -0.0050421376 -0.082333356 -0.09658231
-0.09502497 -0.09379734 -0.05826307 -0.072087936 0.04728377 -0.09813198 -0.09890146 -0.09194656
-0.111125395 -0.061093297 0.05346164 -0.054355778 -0.041756842 0.024340555 -0.101001754 -0.072255254
-0.01682436 -0.017411705 -0.023093086 -0.033193305 -0.11886059 -0.10194057 -0.090943635 -0.027366752
-0.0931756 -0.03393482 -0.024471711 0.1094231 -0.0077922097 0.0075398413 -0.031714655 -0.12260209
-0.043612715 0.05886096 0.0059832693 0.09229647 -0.021559888 0.021536145 -0.04819272 0.08812024
-0.10472511 0.07476724 0.021899907 -0.0929844 -0.08452328 -0.02848092 0.045074902 -0.060196716
0.0063994117 0.004148869 -0.10012615 0.0399336 -0.0245159 -0.058926143 -0.070096806 -0.04603147
0.042209525 -0.0039659357 0.046805736 -0.08205592 -0.09198554 0.00718859 -0.097772904 -0.05149116
0.053900115 0.024934376 0.023653915 0.0350381 -0.073249415 0.015617952 0.08567216 0.05460624
-0.08440372 -0.009216124 -0.030919498 -0.040634565 -0.016897896 -0.059641622 -0.034467954 -0.107113324
-0.08626645 -0.0073961327 -0.079569004 0.025695404 -0.12459824 -0.21171196 -0.029172992 -0.091027975
0.04095406 -0.017528592 -0.03885423 -0.053248633 -0.054976396 0.0329681 0.08858157 0.06460606
-0.055633213 -0.0658764 0.052722886 0.06460277 0.052389685 -0.036284007 0.0185809 -0.043476373
-0.07319659 -0.10241729 -0.107774824 -0.06829144 -0.08936945 -0.2693794 0.00561081 -0.04641754
-0.05312649 -0.0324832 -0.074034356 -0.078951284 -0.011800453 -0.15713933 -0.11637109 -0.013977376
-0.078801244 0.06970831 0.02017143 -0.046505295 0.001741399 -0.064886525 -0.05750038 0.011750131
0.038847066 -0.089459784 -0.120341845 -0.013349768 -0.06860988 -0.061518688 0.008775186 -0.10924013
-0.1212357 -0.0878878 -0.077571295 -0.15366505 0.0022208197 0.0054661953 -0.040552173 -0.021338293
0.035863556 0.10701763 -0.028327323 -0.0119367475 0.059800424 0.05848673 -0.031012282 -0.21835208
-0.08834885 0.028585324 -0.028451415 0.043608136 0.0947993 0.004760207 0.04417618 -0.0592175
00000000: b1fc 82bd b53f bcbd 197e 903c ef8c 76bc
00000010: dbbc 9bbd 49f0 26bc 5de0 adbd a314 b23b
00000020: cdab 00be f11d c0bd 3c95 cfbd 6696 90bd
00000030: 9b26 91bd 0c85 d9bc e66d 313d 0553 aabd
00000040: 0eb8 12bd c37e 2e3d de15 28bd be24 8ebd
00000050: 1f68 8e3d 91e5 bdbd 435b 30bc 11af 3f3d
00000060: 534a d0bd c715 ef3c 0cfc 81bd 8e46 a1bc
00000070: a9df 1a3c a3ad cdbd b764 89bd 9d79 a8bd
00000080: 3ac4 1ebb 1209 2d3d e19e e73c 7916 a8bd
00000090: 5c6b eb39 4290 b2bd e7dc b93a f66e d2bd
000000a0: e9ab 733d f653 bcbd c466 923d 73b1 743d
000000b0: b949 84bd aac0 323d 5ec3 c83c a2dd cdbd
000000c0: bc29 bbbd 40da a3bb 3603 83bd 5e5f d23b
000000d0: a8a5 acbd 43e3 cabd 9b07 713d b8d4 983d
000000e0: 507e abbd a932 8ebc a22f 553d c28c c2bd
000000f0: 23c0 9abd 2756 1e3d 3c42 06bc 25c7 6cbd
00000100: b2f1 b5bd ab5f a1bd cff4 f63b 363c 35bd
00000110: bfd0 c1bc 3e06 76bd 241f 40bc 77d6 fcbc
00000120: 5b41 1fbd 7e69 2fbd 284b c1bd 3d12 073d
00000130: f215 c3bd 2d48 c3bc c07b 663d 973b 76bc
00000140: fdd0 363c f6b3 b13c 4312 563c 73df 96bd
00000150: 033e aabd c906 29bd 7165 b03c fc72 76bc
00000160: 6bdc 4f3d 8068 5e3d d04d 973c 25a8 6abc
00000170: 0dac 3bbd 8438 a5bb 649e a8bd f2cc c5bd
00000180: 749c c2bd d218 c0bd 42a5 6ebd d7a2 93bd
00000190: a0ac 413d 6bf9 c8bd d98c cabd 7a4e bcbd
000001a0: b695 e3bd f73c 7abd 98fa 5a3d 2aa4 5ebd
000001b0: 3909 2bbd d865 c73c 02da cebd 90fa 93bd
000001c0: 3dd3 89bc fea2 8ebc b62d bdbc b4f5 07bd
000001d0: 2e6d f3bd 38c6 d0bd a840 babd 3d30 e0bc
000001e0: d9d2 bebd 3dff 0abd e678 c8bc 3819 e03d
000001f0: cb55 ffbb c610 f73b 3ae7 01bd ce16 fbbd
00000200: 3fa3 32bd 3118 713d 4d0f c43b ef05 bd3d
00000210: 5d9e b0bc 926c b03c bb65 45bd 6278 b43d
00000220: 1e7a d6bd 911f 993d 6f67 b33c 9b6e bebd
00000230: 8b1a adbd d150 e9bc 76a0 383d d590 76bd
00000240: 28b2 d13b 3cf3 873b f00e cdbd 6a91 233d
00000250: 92d5 c8bc 8a5c 71bd ea8e 8fbd 7f8b 3cbd
00000260: e5e3 2c3d aef4 81bb 5fb7 3f3d ef0c a8bd
00000270: ea62 bcbd 438e eb3b 293d c8bd 65e8 52bd
00000280: 5ec6 5c3d 2d43 cc3c dbc5 c13c 1c84 0f3d
00000290: ca03 96bd 70e2 7f3c e374 af3d cbaa 5f3d
000002a0: dcdb acbd 3aff 16bc e34a fdbc 6e70 26bd
000002b0: 756d 8abc c64a 74bd 452e 0dbd 3b5e dbbd
000002c0: 77ac b0bd 425b f2bb 13f5 a2bd 2b7f d23c
000002d0: 5d2d ffbd 05cb 58be 33fc eebc e06c babd
000002e0: 72bf 273d 1f98 8fbc 9d25 1fbd 3d1b 5abd
000002f0: ee2e 61bd 8f09 073d 416a b53d 2f50 843d
00000300: a7df 63bd 35ea 86bd f4f3 573d 754e 843d
00000310: 9196 563d 8a9e 14bd f936 983c 4814 32bd
00000320: 18e8 95bd 28c0 d1bd 0cb9 dcbd 62dc 8bbd
00000330: 5507 b7bd 19ec 89be e3da b73b 5220 3ebd
00000340: 2a9b 59bd 1b0d 05bd 539f 97bd 36b1 a1bd
00000350: b056 41bc 22e9 20be f753 eebd 5d01 65bc
00000360: 8c62 a1bd 3bc3 8e3d 8e3e a53c 567c 3ebd
00000370: a83f e43a 3ae3 84bd 8585 6bbd 9f83 403c
00000380: 1a1e 1f3d b136 b7bd c975 f6bd fcb8 5abc
00000390: 5683 8cbd 05fb 7bbd ccc5 0f3c 4ab9 dfbd
000003a0: 6c4a f8bd 85fe b3bd b3dd 9ebd 5f5a 1dbe
000003b0: 2c8b 113b c51d b33b 091a 26bd a5cd aebc
000003c0: aae5 123d 0f2c db3d b40e e8bc 5992 43bc
000003d0: 4af1 743d c88f 6f3d 780d febc b097 5fbe
000003e0: 3ef0 b4bd c52b ea3c f112 e9bc 729e 323d
000003f0: 2326 c23d 83fb 9b3b 15f2 343d 0d8e 72bd

bias f4 [40]
0.027601138 -0.037762865 0.043035388 0.034655683 -0.023925735 -0.0489843 -0.025462462 0.014312492
-0.05833495 -0.09866729 -0.0040536523 -0.066638134 0.052466333 0.005692722 -0.10960114 0.019154916
0.022166515 -0.07608056 -0.063856706 -0.051856592 -0.13075417 -0.040338147 -0.10104708 -0.119874634
0.037021145 0.06755281 -0.040839378 -0.054379825 -0.019207861 -0.008486217 -0.006576606 0.05981768
-0.12554975 -0.09245413 -0.026187906 0.02394748 -0.025108127 0.038596146 -0.05680215 0.052251752
00000000: c81b e23c 3cad 1abd e045 303d 1ef3 0d3d
00000010: e7ff c3bc c3a3 48bd a796 d0bc f17e 6a3c
00000020: a1f0 6ebd 1312 cabd 80d4 84bb 9379 88bd
00000030: f0e6 563d 038a ba3b 9076 e0bd c5ea 9c3c
00000040: 8d96 b53c 20d0 9bbd 4ec7 82bd 9467 54bd
00000050: 6ce4 05be 9d39 25bd c5f1 cebd d580 f5bd
00000060: 7ca3 173d 2159 8a3d 3147 27bd 61bd 5ebd
00000070: ce59 9dbc c609 0bbc 9280 d7bb 6203 753d
00000080: 1d90 00be 9758 bdbd 0588 d6bc 812d c43c
00000090: 8faf cdbc fe16 1e3d 5fa9 68bd ef05 563d

weight f4 [20, 40, 3]
0.011153405 -0.05253334 0.12874459 -0.0541424 0.045955494 -0.040016163 0.04718357 -0.013781984
-0.05865778 0.09669031 0.0044921916 0.0756454 0.091274954 -0.090452425 -0.0033947516 -0.046659064
0.063167155 -0.020057555 -0.07285856 -0.08067537 -0.121457085 0.058866326 0.024571422 0.009120597
-0.017742671 0.14845993 0.047511037 -0.09231709 0.18244497 0.10452308 -0.06953707 0.02086838
0.011561435 -0.004326265 0.084175 -0.019461302 0.012864704 -0.10966415 -0.059380215 -0.032329526
0.15735081 0.060121275 -0.044084486 0.17534356 -0.043886237 0.025370551 0.041488227 0.1958711
0.092149824 0.01998439 -0.082289204 0.026557801 0.04835206 -0.035527438 0.045711264 0.078022964
0.117666945 -0.04362563 0.061140243 0.082570314 0.08583385 -0.091779 0.06896689 -0.04454502
0.13459112 -0.013055086 0.0144487675 -0.014059163 -0.1480779 0.0429059 0.0761166 0.08379483
0.0014749237 0.08190599 0.038478583 -0.07443235 0.028256027 -0.0028806725 0.041070003 -0.18651046
0.004353897 0.15683423 0.057131905 -0.11726284 -0.03509345 0.05612786 -0.04798775 0.05098322
-0.06533669 -0.0355616 0.010346372 0.1252299 -0.06654736 -0.02796464 -0.025441092 -0.04636018
-0.07132653 0.0074548037 0.033233434 -0.034784812 -0.003937516 -0.004203197 0.062071133 0.08457963
0.008724861 0.027227236 0.070506684 -0.118354194 0.17619626 0.11267762 -0.051454473 0.0044520036
-0.058583014 -0.014391624 0.06298953 -0.05257874 -0.03592994 0.17598505 0.11937867 -0.10301505
-0.026531162 0.09330683 0.21669495 0.0045606853 0.034783076 0.061464835 0.097319186 0.13317472
0.01224161 0.07957103 -0.057230104 0.072953165 0.07752304 0.06207861 0.06802137 0.11339049
0.10423507 0.0016675846 -0.010091437 -0.10243937 -0.07493389 -0.015068376 -0.053611718 0.07544242
-0.06759086 0.012276153 0.04248801 -0.018237974 -0.07319767 -0.06234248 0.0030094553 0.023627963
0.010878687 0.028932642 -0.019853951 -0.04716338 0.042825747 -0.03599065 0.027003046 0.073560335
0.0012132892 -0.03886612 -0.011607288 -0.035218254 -0.056701705 -0.08174797 0.04823004 0.0014113808
0.010006122 0.10890714 -0.09530727 -0.014632224 0.018086264 0.010399523 -0.012476903 -0.14039694
-0.057734925 0.05960143 -0.05177903 0.009942065 -0.051754612 0.048752584 -0.026411371 0.025769584
0.09161224 0.10075817 -0.07738535 -0.022909159 0.01153822 0.08003101 0.03695517 0.09360139
0.026489783 0.06769092 -0.056366872 -0.05953539 -0.007385071 0.067931734 0.027084459 0.05898698
0.12051156 0.061853237 0.023230571 -0.019878192 0.023723328 -0.015873637 0.03620492 0.08280838
0.11600026 -0.051231552 -0.03726802 -0.071067885 0.05181717 -0.0114777535 -0.021942351 0.04928255
0.05879345 -0.084821746 -0.0411368 -0.08931136 -0.005583971 -0.07735473 0.111310564 0.011239094
-0.046874024 0.02865581 0.03298889 0.04131051 0.021390934 0.040973715 -0.07642319 0.11752351
0.0969362 0.090749264 0.031572454 -0.008435499 -0.03794306 -0.029677298 -0.03563793 0.08182418
-0.0145332115 -0.14408958 -0.124179825 0.024726862 -0.1157577 0.046834502 -0.03460375 -0.11883406
0.017516322 0.123061046 -0.03898924 -0.007274068 -0.02306223 -0.104807444 -0.006342818 -0.06519458
00000000: c5bc 363c 332d 57bd 9fd5 033e 6cc4 5dbd
00000010: d43b 3c3d fde7 23bd 8f43 413d d5cd 61bc
00000020: 2443 70bd 9205 c63d 3c33 933b faeb 9a3d
00000030: 5dee ba3d 1f3f b9bd 7b7a 5ebb 931d 3fbd
00000040: c85d 813d be4f a4bc de36 95bd 2139 a5bd
00000050: 7ebe f8bd d11d 713d 024a c93c 8e6e 153c
00000060: 1459 91bc e105 183e ef9a 423d be10 bdbd
00000070: dbd2 3a3e 3210 d63d 7469 8ebd 2af4 aa3c
00000080: 2c6c 3d3c 57c3 8dbb f163 ac3d 4f6d 9fbc
00000090: 7bc6 523c 9997 e0bd ab38 73bd f76b 04bd
000000a0: 9220 213e ba41 763d ef91 34bd 438d 333e
000000b0: 0ec2 33bd e7d5 cf3c 8fef 293d 6f92 483e
000000c0: 0cb9 bc3d 4eb6 a33c 3e87 a8bd bf8f d93c
000000d0: cf0c 463d 3885 11bd bc3b 3b3d 81ca 9f3d
000000e0: 5efb f03d cab0 32bd 316e 7a3d a01a a93d
000000f0: a8c9 af3d a1f6 bbbd 833e 8d3d d774 36bd
00000100: 41d2 093e 00e5 55bc 86ba 6c3c 6758 66bc
00000110: bca1 17be 19be 2f3d 05e3 9b3d a09c ab3d
00000120: 3a52 c13a 54be a73d b89b 1d3d fd6f 98bd
00000130: 2f79 e73c aac9 3cbb 0539 283d 99fc 3ebe
00000140: 23ab 8e3b 2799 203e 2503 6a3d 8027 f0bd
00000150: 26be 0fbd 54e6 653d ce8e 44bd c8d3 503d
00000160: 3ecf 85bd 0aa9 11bd d483 293c 443c 003e
00000170: fb49 88bd 1a16 e5bc d669 d0bc 2ce4 3dbd
00000180: a513 92bd 6d47 f43b c81f 083d 857a 0ebd
00000190: 4706 81bb f9ba 89bb 4d3e 7e3d 1638 ad3d
000001a0: b8f2 0e3c a70b df3c cf65 903d af63 f2bd
000001b0: cb6c 343e 86c3 e63d edc1 52bd 1de2 913b
000001c0: bef4 6fbd d9ca 6bbc a800 813d ce5c 57bd
000001d0: 462b 13bd 6d35 343e ce7c f43d 8ef9 d2bd
000001e0: e157 d9bc a717 bf3d 48e5 5d3e cd71 953b
000001f0: b378 0e3d 8dc2 7b3d 484f c73d f45e 083e
00000200: 0991 483c 23f6 a23d 1d6a 6abd 7868 953d
00000210: 66c4 9e3d 2446 7e3d ca4e 8b3d 4639 e83d
00000220: 3279 d53d db92 da3a 8e56 25bc bbcb d1bd
00000230: f076 99bd 5ae1 76bc f697 5bbd 8e81 9a3d
00000240: 146d 8abd eb21 493c e807 2e3d ce67 95bc
00000250: a9e8 95bd d45a 7fbd 483a 453b 6e8f c13c
00000260: 853c 323c 2604 ed3c c1a4 a2bc 632e 41bd
00000270: 0d6a 2f3d ef6a 13bd 7e35 dd3c cda6 963d
00000280: 3b07 9f3a 1532 1fbd 7f2c 3ebc 0441 10bd
00000290: 0c40 68bd 7b6b a7bd dd8c 453d 15fe b83a
000002a0: b8f0 233c b50a df3d 7530 c3bd ffbb 6fbc
000002b0: a529 943c c362 2a3c ed6b 4cbc 37c4 0fbe
000002c0: 757b 6cbd a120 743d 4016 54bd 0be4 223c
000002d0: a5fc 53bd cab0 473d a95c d8bc bc1a d33c
000002e0: 339f bb3d 4d5a ce3d 367c 9ebd fdab bbbc
000002f0: cd0a 3d3c 4ce7 a33d 4e5e 173d 16b2 bf3d
00000300: 1a01 d93c 89a1 8a3d f3e0 66bd 62db 73bd
00000310: 77fe f1bb cb1f 8b3d 3ae0 dd3c 559c 713d
00000320: c4ce f63d d259 7d3d 0a4e be3c 97d7 a2bc
00000330: 6d57 c23c 6e09 82bc 9c4b 143d 7197 a93d
00000340: 8b91 ed3d 2dd8 51bd 5aa6 18bd 0a8c 91bd
00000350: 3e3e 543d 300d 3cbc 72c0 b3bc 80dc 493d
00000360: 67d1 703d 06b7 adbd 107f 28bd e0e8 b6bd
00000370: bef9 b6bb 286c 9ebd cbf6 e33d 2d24 383c
00000380: fafe 3fbd 97bf ea3c 5c1f 073d 3635 293d
00000390: 0a3c af3c 0ed4 273d c383 9cbd 2ab0 f03d
000003a0: 7d86 c63d c0da b93d 1e52 013d 0c35 0abc
000003b0: 2f6a 1bbd ce1d f3bc 14f9 11bd 7093 a73d
000003c0: b51c 6ebc 388c 13be fe51 febd fd8f ca3c
000003d0: 5f12 edbd 89d5 3f3d a9bc 0dbd 465f f3bd
000003e0: 647e 8f3c 6e07 fc3d 2eb3 1fbd 4e5b eebb
000003f0: 00ed bcbc 49a5 d6bd 6ad7 cfbb bc84 85bd

weight f4 [40, 20, 1]
-0.07325529 -0.26782167 -0.18858431 -0.17236845 -0.06598908 -0.15712944 0.15427317 0.13182604
0.16401999 -0.26584095 -0.13113984 0.2029554 -0.08294076 0.20474374 -0.22938819 -0.006955453
0.08884314 0.17300917 0.011640293 -0.23165351 0.030147437 -0.059551775 -0.1223893 0.10862793
0.0819854 0.101211764 -0.30091292 -0.19221859 0.15847203 0.036040273 0.033930343 -0.03157017
0.09514159 0.04247386 -0.15884592 -0.082527764 0.21661207 -0.066875525 -0.18645202 -0.37302324
0.20265184 -0.032071706 0.027120627 -0.07053948 0.007722518 0.15044576 -0.10601645 0.031797465
-0.1129608 0.20215708 -0.15043567 -0.006651836 0.12617062 0.021099526 0.12630904 -0.19401859
-0.06443205 -0.13970797 0.06542977 -0.18916959 0.1824238 -0.17227398 -0.1600689 -0.044097003
0.12354827 0.1767875 0.093286246 0.01432146 -0.20847271 0.1342458 0.020577649 -0.044624943
0.0013480638 0.11130978 0.09817289 -0.11814636 -0.13791354 0.16869299 -0.12096936 -0.20568846
-0.052932974 0.05052739 -0.036622796 -0.18617004 -0.084811635 -0.2642016 0.25385308 0.03173561
0.032737114 0.003050956 -0.0345471 0.10421133 0.15779334 -0.09520619 0.09807764 -0.10457321
0.011082784 -0.06356504 -0.0021198532 -0.1384393 0.14037728 -0.053403564 -0.11574742 0.021489374
-0.04358317 0.17391193 -0.10719849 0.19057435 -0.2382232 0.20038939 0.085878335 0.22734448
0.07166646 0.0017261466 0.12532268 0.2133096 0.16285606 -0.20150954 -0.095289506 0.100649595
-0.14151688 0.033386014 -0.025723232 0.027762288 0.106625855 -0.224195 -0.1627421 -0.06799132
-0.0048915483 -0.111844435 -0.013057243 -0.20865275 0.07425092 -0.037444983 -0.14396122 -0.06825871
-0.13242888 0.087697916 -0.120515786 -0.47397494 -0.2955809 0.079137504 0.14380458 0.21650483
-0.0048733167 0.08527102 -0.16932105 -0.21560295 0.066440664 -0.08491343 0.054256573 -0.21967022
0.15197752 -0.052492872 -0.19228819 -0.1825297 -0.15788448 -0.03662688 -0.25741774 -0.22115244
-0.2315092 0.21280013 -0.46771932 -0.18926099 -0.12624559 0.034783732 -0.066192314 0.073959924
-0.099467 0.035665073 -0.18458965 0.25983104 -0.14382349 -0.07375051 0.110168174 0.18338794
0.23687568 -0.2181322 -0.17195226 -0.33629698 -0.17938933 -0.0179357 0.029468913 -0.21316478
-2.6712234e-05 0.18593432 -0.3084301 -0.11042571 0.15562433 -0.12062629 0.113674335 -0.075146236
-0.20665605 0.20706753 -0.2178078 -0.16065365 0.17206602 -0.16359328 -0.15861325 -0.08231254
0.08439008 -0.12886794 -0.027037589 0.017298158 -0.15703177 0.18785079 -0.060244914 0.039611805
-0.18984523 0.14811774 -0.14239927 -0.14109074 0.04189343 -0.16259988 -0.032643195 0.053739652
0.12870398 0.030095076 -0.13403934 0.056690283 -0.014748148 -0.31036568 0.20366429 -0.026819859
0.14512676 -0.27955914 0.05435998 -0.03105664 -0.2816353 -0.27897066 -0.14754571 0.0839035
0.076774225 -0.2019237 -0.3453662 -0.10361832 -0.09246429 0.15437262 -0.3369881 -0.09446666
0.096443534 0.20379901 -0.05310363 -0.17833532 -0.09313574 0.022319114 -0.16020706 -0.14108561
0.1346616 0.023648532 -0.0035737122 0.11057282 0.1616156 0.037806235 -0.11755736 -0.23548351
00000000: df06 96bd ec1f 89be 3f1c 41be 5b81 30be
00000010: 4825 87bd 8ae6 20be c9f9 1d3e 68fd 063e
00000020: dbf4 273e 4e1c 88be 8649 06be 8ad3 4f3e
00000030: d8dc a9bd 58a8 513e bde4 6abe 92ea e3bb
00000040: 64f3 b53d 5129 313e edb6 3e3c 9436 6dbe
00000050: c2f7 f63c 90ec 73bd 3ea7 fabd 5278 de3d
00000060: f6e7 a73d 1d48 cf3d 4211 9abe f3d4 44be
00000070: 7e46 223e f79e 133d 8bfa 0a3d b94f 01bd
00000080: 98d9 c23d 12f9 2d3d 81a8 22be 5104 a9bd
00000090: 8ecf 5d3e 09f6 88bd 47ed 3ebe e7fc bebe
000000a0: f783 4f3e 9f5d 03bd 142c de3c 0177 90bd
000000b0: 2d0d fd3b 740e 1a3e 271f d9bd 0f3e 023d
000000c0: fe57 e7bd 4402 4f3e cf0b 1abe a5f7 d9bb
000000d0: df32 013e ead8 ac3c 2857 013e cfac 46be
000000e0: f3f4 83bd 9b0f 0fbe 0b00 863d acb5 41be
000000f0: 4ecd 3a3e 9768 30be 1ae9 23be 0f9f 34bd
00000100: e006 fd3d c807 353e dc0c bf3d 8fa4 6a3c
00000110: df79 55be bb77 093e 7592 a83c a5c8 36bd
00000120: 84b1 b03a 62f6 e33d de0e c93d b8f6 f1bd
00000130: 3539 0dbe dbbd 2c3e c9be f7bd ff9f 52be
00000140: 3fd0 58bd cff5 4e3d c901 16bd 5ca3 3ebe
00000150: b9b1 adbd 6f45 87be 08f9 813e 33fd 013d
00000160: 5a17 063d 8cf2 473b 4381 0dbd c06c d53d
00000170: 9494 213e 77fb c2bd eedc c83d 7b2a d6bd
00000180: 9194 353c 632e 82bd 3ced 0abb 08c3 0dbe
00000190: 10bf 0f3e b2bd 5abd fc0c edbd 7c0a b03c
000001a0: 4484 32bd f815 323e e28a dbbd ec25 433e
000001b0: c8f0 73be e032 4d3e fbe0 af3d fecc 683e
000001c0: ddc5 923d de3f e23a 9754 003e d56d 5a3e
000001d0: bdc3 263e 8458 4ebe 2527 c3bd 6021 ce3d
000001e0: cde9 10be c6bf 083d 87b9 d2bc bd6d e33c
000001f0: a85e da3d 6093 65be dda5 26be 083f 8bbd
00000200: 4849 a0bb b20e e5bd 0cee 55bc 11a9 55be
00000210: de10 983d e95f 19bd 926a 13be 39cb 8bbd
00000220: 709b 07be f79a b33d fbd0 f6bd d8ac f2be
00000230: 6156 97be d812 a23d 8241 133e 71b3 5d3e
00000240: 58b0 9fbb 93a2 ae3d 7f62 2dbe 05c7 5cbe
00000250: 0b12 883d 18e7 adbd 243c 5e3d 3bf1 60be
00000260: ff9f 1b3e c402 57bd 32e7 44be 11e9 3abe
00000270: 78ac 21be 1106 16bd 42cc 83be c975 62be
00000280: bf10 6dbe 47e8 593e e878 efbe a2cd 41be
00000290: 8646 01be 6379 0e3d d68f 87bd 4d78 973d
000002a0: 5bb5 cbbd 8a15 123d 1205 3dbe 9308 853e
000002b0: 7746 13be 820a 97bd da9f e13d 0cca 3b3e
000002c0: 8a8f 723e 0c5e 5fbe 4114 30be 1e2f acbe
000002d0: d6b1 37be e4ed 92bc ca68 f13c de47 5abe
000002e0: 1614 e0b7 9165 3e3e 8dea 9dbe e026 e2bd
000002f0: fc5b 1f3e eb0a f7bd 17ce e83d 45e6 99bd
00000300: a59d 53be 8309 543e 0209 5fbe 6482 24be
00000310: 1332 303e ff84 27be 836b 22be 7a93 a8bd
00000320: b5d4 ac3d f5f5 03be ef7d ddbc deb4 8d3c
00000330: f0cc 20be f55b 403e 5fc3 76bd fd3f 223d
00000340: ca66 42be 2dac 173e 1dd1 11be 177a 10be
00000350: 7298 2b3d 9580 26be dfb4 05bd 1c1e 5c3d
00000360: faca 033e f389 f63c 9c41 09be 1234 683d
00000370: 37a2 71bc 40e8 9ebe 5f8d 503e 52b5 dbbc
00000380: 1c9c 143e 6022 8fbe 92a8 5e3d 7f6a febc
00000390: 8132 90be 3ed5 8ebe 3916 17be 99d5 ab3d
000003a0: ce3b 9d3d 16c5 4ebe d7d3 b0be d735 d4bd
000003b0: eb5d bdbd db13 1e3e b489 acbe bc77 c1bd
000003c0: 3084 c53d b0b0 503e 3183 59bd 899d 36be
000003d0: f3bd bebd 93d6 b63c 520d 24be bf78 10be
000003e0: bbe4 093e 91ba c13c f134 6abb 0174 e23d
000003f0: 8f7e 253e b6da 1a3d eac1 f0bd 9722 71be
