BasedOnVQ-VAE-Speech/model.pt (torch, 529489 bytes, 25 tensors)

weight f4 [40, 201, 3]
00000000: 63d6 a03c f4ef 6d3c cf63 d73c 1de6 a2bc
00000010: bee8 7fbd 2767 56bd c2ad e5bc 2b4f 73bd
00000020: f7f2 6cbd e1c3 1c3d 28da 803d 57b3 b83d
00000030: b3cb d038 923d a63c 65ef 6cbc 549b d53c
00000040: d524 2b3d 5eaf 7f3d c81f bd3d f138 d33d
00000050: 9bd0 383e db29 b13d 4faf 573d 7970 313d
00000060: 6285 1abd bf82 9dbc d0a4 42bd d6bf 03bc
00000070: 7497 ef3b e519 6dbd a3ca 773a 9d18 51bd
00000080: 5240 32bd 592f 593c 625f c03c b554 433c
00000090: 2a3c 2db8 b20e a53c 86f7 423d 5066 ea3b
000000a0: eb71 53bd ee62 82bc 7c1c f63b ff62 943c
000000b0: cf4c 683a a03f 343c d9cf b93d e740 033e
000000c0: b8d2 2c3d 817c 833d 6810 293e d7dc a03b
000000d0: e374 6f3c c90e 9f3d a344 bfb9 68cd 80bc
000000e0: 58d6 893d b77e 1a3c e9c5 0d3c b8f8 3d3d
000000f0: 019c 383b f34b 4d3c 2a77 2d3b 1500 3c3c
00000100: fe78 8f3a eb06 ea3b 43f0 fb3c df6d bcbb
00000110: 951c 2d3c 5cc7 8c3c b55b ed39 e03a 44bd
00000120: 6889 d03b 2763 71ba 79f9 c6bc a5a1 923c
00000130: 9665 b7bc 884d 0a3c 4137 e93c a14f f6bc
00000140: 66e0 2a3d b94c 0d3d 6b1b b0bc f413 fbba
00000150: f70b 993c cb65 42bc 082d 5bbc 8735 833c
00000160: 7e43 a93b 6b8f 63b9 c6ab 513c 1c98 92bb
00000170: fb9e 87ba 1649 4a3c 6638 e9bc 131f 6f3c
00000180: 05ad 1a3c 2a87 2cbd b295 d1bb b6ac e53c
00000190: e310 b7bc 1c22 243a 71e9 1bbc bc9b 10bd
000001a0: 98ae dabb 116c 3f3c 8733 d2bc 2e67 06bd
000001b0: 2f14 773c c6cd a9bc 7859 de3b 4e4f c73b
000001c0: 6062 3cbc 2078 aabb db9e 93bc 04b5 bb39
000001d0: 74b1 0fbd 046a 16bc 06b3 86bc 4193 e33b
000001e0: 02b5 afbc 1087 d7bb dfac 14bd 351c 2e3c
000001f0: eb2b 1cbd d571 11bc 9319 1cbc adae 3ebc
00000200: 2f68 80bc 27ff a5bc febf 34bb 336c 44bc
00000210: 7e25 fd3a a979 ffbc 435e 36bc cbf5 c1bc
00000220: dcf9 063c 8106 83bc 1fea 0abc eef7 b1bc
00000230: 3ade 89bc 3bbc 2dbc 72b3 cd3a 1340 52bc
00000240: 1e83 43ba a142 083d b71d d3bc 26b4 3cbc
00000250: 41e4 11bc 2000 9fbb f845 89bc bd63 993a
00000260: a69d d4bc a4db c0bb 4e40 bdbb 4623 47b9
00000270: ecec b63b 02c4 86bc bb6a 51bc f83f 29bc
00000280: 4c6d 0b3d 6b9f 09bd 919f 6d3b 32eb ebbb
00000290: d96b dabb 4872 cfbb 0b03 89bb 21b6 83bb
000002a0: 924a ad3c 52fc c9bc 2985 18bc 0003 bd3b
000002b0: 50ce 2b3c 201d 1cbc 0644 20bb 8939 a83c
000002c0: 01c7 d5bc 8cce c23b 9d22 02bc 6bd8 5a3b
000002d0: ba9e 533c 7d8b 76bc f661 6dbc 6567 62bc
000002e0: 65ae dabb 53ab 903b ed42 883c a44f 0d3b
000002f0: d2ba 6cbc e46a f3bb 488e 083c 73fb 48bc
00000300: a06e ba3c e3fd 1dbb 9364 20bb d54a 09bc
00000310: 806c 013c 5c2c d2bc d5eb 4b3c c655 d239
00000320: 3875 31ba 02d2 693b f483 1739 b87d acbb
00000330: c561 12bc fe90 0c3c c8a2 73bb 4ac0 26bc
00000340: 4c75 2e3c 2268 80bb 4ff9 a63b ca3e 043a
00000350: 1256 3a3c dfe8 4ebb c93b bd3c da38 23bd
00000360: 8467 e13b ce0c 863b 0fd1 423c 9d4b 96bb
00000370: 2175 e43b d943 62bc da16 f7bb 3ff1 6c3c
00000380: 1766 debc 64cf 793a 06fa 4d3c 569f 21bc
00000390: bc7c 86bb 4355 a23b 5f04 72bc cb7c 1c3c
000003a0: a054 6cba b8da 8039 45d6 debc 6df4 0c3d
000003b0: 284a e93b 54b9 003c 9e75 d4bc 7ecb 15bb
000003c0: 0a19 2ebc 6508 8dbc 9041 483c 4028 4abb
000003d0: e5c4 e4ba 956b 85bc d16b dcbc 9a00 5b3c
000003e0: 429b da3b 4082 873c 56e7 fa3b fe03 d0bc
000003f0: bc76 e4ba 2e3b 703c 2886 a83a 2260 5a3b
0.019633478 0.014522541 0.02629271 -0.019885117 -0.06247782 -0.052344467 -0.028036956 -0.059401672
-0.057848897 0.038272742 0.0629161 0.09018581 9.956155e-05 0.02029303 -0.014461373 0.026075043
0.041783173 0.062423103 0.092345774 0.10313595 0.18048327 0.086505614 0.05265742 0.043320153
-0.03772486 -0.019227384 -0.04752046 -0.008041343 0.007311756 -0.057886023 0.00094524975 -0.051048864
-0.043518372 0.0132559175 0.023482982 0.011922051 -4.1302446e-05 0.020148609 0.047599338 0.00715331
-0.051622313 -0.015916314 0.00751072 0.018113611 0.0008861543 0.0110014975 0.09072847 0.12817727
0.042193145 0.064202316 0.16510165 0.0049091387 0.01461527 0.07766492 -0.00036481497 -0.015722945
0.06730336 0.009429625 0.0086531425 0.046379775 0.0028169157 0.012530315 0.0026468732 0.011474629
0.0010946093 0.007141938 0.030754214 -0.0057504023 0.0105658965 0.017184906 0.0004527249 -0.04790771
0.0063640364 -0.0009208195 -0.02428888 0.017899344 -0.022387307 0.008441336 0.02846873 -0.030067267
0.04171791 0.034496997 -0.021497449 -0.0019155727 0.018682463 -0.01186509 -0.0133774355 0.016016735
0.0051655164 -0.00021701834 0.012797302 -0.0044736993 -0.0010347062 0.012346527 -0.028469276 0.014594811
0.009440665 -0.04212109 -0.006396019 0.028036457 -0.02234692 0.0006261186 -0.009516106 -0.03530477
-0.006673645 0.01168348 -0.025659336 -0.032813244 0.015080496 -0.020728003 0.006785568 0.006082452
-0.011498064 -0.0052023083 -0.018020084 0.00035802287 -0.035081342 -0.0091805495 -0.016442787 0.0069450443
-0.021448616 -0.00657738 -0.036297675 0.010626842 -0.03812782 -0.008877237 -0.009527582 -0.011638326
-0.015674679 -0.020263268 -0.0027580257 -0.011988687 0.0019313542 -0.031185942 -0.011130872 -0.023676774
0.008238282 -0.015994312 -0.00847867 -0.021724667 -0.016829599 -0.01060396 0.0015693738 -0.012832659
-0.00074581977 0.033266667 -0.025771005 -0.01151756 -0.008904518 -0.00485231 -0.016756997 0.0011702698
-0.025954079 -0.005885558 -0.005775488 -0.0001899126 0.0055824425 -0.016450886 -0.012781794 -0.010330193
0.03403978 -0.0335993 0.003625844 -0.0071996683 -0.0066656885 -0.006330762 -0.004181271 -0.004019514
0.021153722 -0.024656449 -0.009309092 0.00576818 0.0104862 -0.009528428 -0.0024454608 0.020535247
-0.026095869 0.0059450325 -0.007942823 0.0033393155 0.012916261 -0.015047905 -0.014488688 -0.0138185965
-0.0066736215 0.0044149547 0.016633475 0.0021562362 -0.014448838 -0.007428514 0.008334704 -0.012266981
0.022757828 -0.0024107627 -0.002447401 -0.008379658 0.007899404 -0.025655918 0.012446363 0.00040118227
-0.0006769481 0.0035678153 0.00014449639 -0.0052640103 -0.008934443 0.008579491 -0.0037175883 -0.010177681
0.010648083 -0.0039186636 0.005095638 0.00050447567 0.01137306 -0.0031571907 0.023099797 -0.03984914
0.006878795 0.004090882 0.011890664 -0.0045866505 0.0069719707 -0.013810121 -0.007540566 0.014461814
-0.02714829 0.00095295 0.012571817 -0.009864649 -0.004104225 0.0049540116 -0.01477155 0.009551237
-0.00090152957 0.0002457702 -0.027201781 0.03441279 0.007119436 0.007856686 -0.02593499 -0.0022856886
-0.010626087 -0.017215917 0.012222663 -0.0030846745 -0.0017453699 -0.01628665 -0.02690688 0.013366843
0.00667134 0.0165416 0.007656972 -0.025392529 -0.0017430405 0.014662547 0.0012857364 0.003332146

bias f4 [40]
00000000: 31df a33c 717e fc3c 1590 25bd a17a b1bc
00000010: 02f6 b93a 66d3 813d 1a65 3bbb 2ab1 8cbc
00000020: 33e5 cc39 9eab 67bd 86bc 19bc 2beb aebb
00000030: 4e1f 62bc 4a4b b03b 4c13 09bc db4d 643c
00000040: f38a 313c 50f4 193c 3257 81bb 38ae 36bb
00000050: 6e2d 19bd 17c9 493b 3bbc 7ebb 4fa8 413d
00000060: 82f4 023b 3249 87bd 5643 39bd b707 90ba
00000070: 2c04 4ebc 95b4 5abd a593 76bb 80b0 833c
00000080: d589 12bd d38f c0bc 1a45 77bc f844 8cbc
00000090: 3bd6 0bbc ecc3 3abc d4b0 9dbb 8867 373d
0.020003887 0.03082201 -0.04042061 -0.02166492 0.0014187696 0.06339149 -0.0028594197 -0.017174322
0.0003908068 -0.05656015 -0.009383326 -0.005338093 -0.013801409 0.005380069 -0.008366417 0.013934578
0.010836351 0.009396628 -0.003947162 -0.0027874839 -0.03739684 0.0030790025 -0.0038869518 0.047279652
0.0019982164 -0.06605758 -0.045230232 -0.0010988627 -0.012574237 -0.053394873 -0.0037624624 0.016075373
-0.035775978 -0.02350608 -0.015092159 -0.01712273 -0.008534963 -0.0113992505 -0.0048123393 0.04477647

weight f4 [40, 40, 3]
00000000: 7ab5 d7bd 02d9 c1bd 282c 333e 6592 85bd
00000010: 4a34 33be 983c 51bd 8f9f f93c d329 0e3d
00000020: 4dcc a4bd ce1c 693d 5200 93bd eb9a 643d
00000030: 17cb 503e ab67 263b 0191 8a3d 8781 0b3d
00000040: 9ef3 41be 90ce c5be 74d7 98bd 823c a23c
00000050: 8ff3 bfbd bbad 3fbc ca11 563d f3c4 d43d
00000060: 773f 4b3d 1cab 9e3b b954 353c 22f7 cabc
00000070: 9ee1 c73b bbcf d93d bed8 17bc 1c8c cbbd
00000080: 1e5c 2fbe 0cd1 8e3c ee46 443d e1bc 7a3d
00000090: ce1a 76bd a413 3abd cc4a 563d 0503 b4bc
000000a0: 4209 afbc 307c 043d 78b3 78bd cb5b 95bc
000000b0: 7676 973d 0b15 2f3b 486f c93d 5492 81bc
000000c0: a314 363d b549 9e3d 25a9 813d b680 383d
000000d0: fc9d 8ebc 97e1 2a3e 0c7d d6bd 2884 26bd
000000e0: 5918 a0bd 14df bc3d 93b0 07be 3b61 60bd
000000f0: 27a5 933d e00e 2b3d 86b5 fabc ab1f 3fbc
00000100: 3f57 74bd 97c9 283c b0c6 ef3c 240e 59bc
00000110: 0c71 99bc 500c d73c 3ffe 76bd 7d2c febd
00000120: e7d1 3f3b a7dc 483c 91eb aabd 6d65 733d
00000130: 81dc c2bd 13a0 d03d b859 3abd 0e86 073d
00000140: 39e9 163d e921 0c3d 7196 82bd ec2c 0cbd
00000150: bd22 de3d 371b 083e 0467 473d b431 0abd
00000160: ec29 a63d b0ca 2a3e fec3 f83d 6a5c ec3d
00000170: ff6b 2d3d 7ec4 c33c 4e3e 48bb 4848 ae3c
00000180: 80f1 b03c 0622 c4bc eb77 89be ca04 65bd
00000190: 281c 0bbd dbf3 e3bc d2bb 523d 4ce0 8c3d
000001a0: b2b5 05bd a3dd 65be ade3 0b3d ab85 8c3d
000001b0: 3a4e a93d 99c4 ec3d b632 5ebd ff9a e7bc
000001c0: d535 0ebd 5519 57bd 4d09 063c 0414 d9bc
000001d0: a14a 0a3c 2079 fe3c 4417 963d cc10 80bb
000001e0: 30d7 be3c 0847 2fbd 9d34 95bd a7e4 6e3d
000001f0: 130b 8ebe 3acf 673e 82a4 85ba 3efd b9bd
00000200: bef5 82bd 06dd 653d ffec 1bbb 4c94 babd
00000210: 2878 783c 991e 00be e42b d43d 2f3b b0bd
00000220: 9b81 6fbe 4469 15be 2de9 1f3d 3881 803d
00000230: 22f9 ee3d 45b1 433c eb1d 283d a536 5cbc
00000240: d160 9a3d 3e22 203e 95f8 9f3b e291 403d
00000250: bc50 ce3c cead acbd 0c38 bcbc 027a 63be
00000260: 565a 3bbe 82aa a63d 4533 9b3d ebb8 223e
00000270: 9f04 b23d 69bb 293e f776 553d d5ce ddbb
00000280: d04f b0bd c054 bb3c 8f67 0c3d f334 a83d
00000290: 0193 773d 28c0 6c3d a149 63bd 9965 56bd
000002a0: 39a8 74bd 3ec0 95bd 3a09 19be 43ae 3abd
000002b0: c1be 01bd 3b3e 923d 7a2e 10be 13d4 1e3d
000002c0: 8dbf aabc 3cdf 813c 9aad 05bd 05b9 813d
000002d0: 0316 e53d 15f7 c7bc 3e61 733d 306b 63bd
000002e0: a8c3 d0bc 540a f2bb 1819 c13d 0587 ac3c
000002f0: 706c 04be e65a b3bd 9751 c23d cddb b13c
00000300: 522a 653c 76c1 17be 7bbe a2bd 889e 663d
00000310: 5196 8cbd 9692 613d 40b9 543d 6704 c73c
00000320: 9a65 223d 28cd 11bd 8c0d edbd e757 c3bd
00000330: 6ac7 253d b290 863b 81b7 4b3d 7a9c 01be
00000340: 865f 69bd 94da 893d de94 b1bd 1653 72bd
00000350: 8a43 a2bd a608 be3d f6bd e23c 7be2 2cbe
00000360: 06f1 0bbe 6408 0dbc ed4e 37be 1253 4a3b
00000370: aaa7 b7bd 8451 9c3d b1f7 aabd 85a7 a5bc
00000380: 59ac 57bc 1bf1 413e fe44 8bbc 3dda debc
00000390: e5c4 e2bd 6dca a6bb 6d17 c1bd cb0c 913c
000003a0: 0e80 febd c0b9 3f3c 8179 86bc fd88 4fbc
000003b0: d730 20bd c3f2 463c 8359 8dbd 83fd c8bd
000003c0: a102 61bd 78c1 ccbd 9fd8 63bb 5fab 04bd
000003d0: f3e9 26bd ab87 8fbd 2307 663b 90cb 1abd
000003e0: 7276 033d 3259 abbc 6a17 e13c b138 053e
000003f0: 8c86 27bc 037d ebbc 6c8f 8d3d 3259 12be
-0.10532661 -0.09465219 0.17497313 -0.06522063 -0.17500415 -0.051083177 0.030471591 0.034707855
-0.0804678 0.056912236 -0.071777955 0.055811804 0.20389973 0.002539138 0.067659386 0.034059074
-0.18940589 -0.38634157 -0.074629694 0.019804243 -0.09372627 -0.011699135 0.05226306 0.103891276
0.04962107 0.004842175 0.011067563 -0.024776045 0.0060998937 0.106353246 -0.009267984 -0.09938833
-0.17124984 0.017433666 0.047919206 0.061215285 -0.060084157 -0.045428887 0.052317426 -0.021974096
-0.02136672 0.032344997 -0.06071803 -0.018232247 0.073956415 0.0026715423 0.09835678 -0.015816845
0.044453274 0.07728902 0.0633109 0.045044623 -0.017409317 0.16687618 -0.104730695 -0.040653378
-0.07817144 0.09222236 -0.13250951 -0.054780226 0.07209235 0.041762233 -0.030604135 -0.011665265
-0.059653517 0.010301969 0.029269546 -0.013248 -0.018730663 0.026250988 -0.06030106 -0.12410829
0.0029269399 0.012259639 -0.08345712 0.0594229 -0.09514714 0.10186782 -0.04549572 0.03308683
0.036843512 0.034212027 -0.06376351 -0.03422253 0.108464696 0.13291632 0.048682228 -0.033738807
0.08113465 0.16678882 0.121467575 0.11541064 0.04233932 0.023897406 -0.0030554715 0.0212747
0.021599531 -0.023942005 -0.26849303 -0.05591277 -0.0339624 -0.02782624 0.05144865 0.06878719
-0.03264398 -0.22447829 0.034152675 0.06861433 0.08266874 0.115609355 -0.05424758 -0.02827215
-0.034719307 -0.052514393 0.008180928 -0.026498802 0.0084406445 0.031063616 0.07328656 -0.0039082523
0.023295969 -0.04279235 -0.07285426 0.05832353 -0.27742824 0.22637644 -0.0010196122 -0.09081505
-0.06394528 0.056118988 -0.0023792384 -0.09110317 0.015165366 -0.12511672 0.10359934 -0.086050384
-0.23389284 -0.14590937 0.039040733 0.062746465 0.11668612 0.01194412 0.041044157 -0.013440763
0.075379975 0.15638062 0.004881928 0.047014125 0.025184982 -0.08431588 -0.022975944 -0.22214511
-0.18296179 0.081379905 0.07578138 0.15890853 0.08692288 0.16575398 0.052115407 -0.006769041
-0.08608973 0.02286756 0.03427845 0.08213224 0.06044293 0.057800442 -0.05549014 -0.052342985
-0.059730742 -0.07312058 -0.14944926 -0.045576345 -0.031676058 0.07140776 -0.1408023 0.03877647
-0.020843292 0.015853517 -0.032636262 0.06334118 0.11185839 -0.02440981 0.05941891 -0.055522144
-0.025483921 -0.007386485 0.094286144 0.021060476 -0.1293199 -0.08757572 0.09488218 0.021711254
0.013987141 -0.14819893 -0.079464875 0.05630353 -0.06864608 0.055071436 0.05193448 0.024294091
0.039647676 -0.035596043 -0.115748495 -0.095382504 0.04047338 0.0041066045 0.04973555 -0.12657347
-0.056975864 0.067311436 -0.08670972 -0.05916127 -0.07923038 0.09278993 0.027678471 -0.1688327
-0.13666162 -0.0086079575 -0.17901202 0.0030872268 -0.08967526 0.07632735 -0.08348025 -0.020221481
-0.0131636495 0.1893963 -0.017000671 -0.027203673 -0.11072711 -0.005090049 -0.09428296 0.017706295
-0.12426768 0.011702001 -0.01641536 -0.012666938 -0.039109077 0.01214284 -0.06901839 -0.098139785
-0.054934148 -0.09997839 -0.0034766567 -0.032389995 -0.040750455 -0.070082985 0.0035099469 -0.03779179
0.03209538 -0.020916555 0.027476985 0.13009907 -0.01022495 -0.028746134 0.06912121 -0.14291838

bias f4 [40]
00000000: ef29 c43b 0d7a 903d a54c 2e3b e5d8 0f3d
00000010: 2178 d5bc 02b3 b4bd 40ce 98bc 103e a53b
00000020: 2b95 a2bc 3105 1fbe 5441 693c 6054 c4bd
00000030: c127 01bd ed61 4c3c 2838 dbbd a88e e5bd
00000040: 8487 04be 478a 2d3b 8ca0 273c 4289 1b3c
00000050: 17f7 1c3d e5a4 c93c 2fbe 723d ebb3 d9be
00000060: d37d 263d 8bf8 4e3d 28ef 523d c7dc b13b
00000070: ab26 a93b db79 823d 8fce 8abc fcfc f73c
00000080: d51b 073d d29f afbb 9c3f 02be 3905 c73b
00000090: d6f3 e93c 8773 1abd 7bbd 7e3c 9fcb 563d
0.005986444 0.07054529 0.0026595977 0.035118956 -0.026058258 -0.088232055 -0.018653035 0.005042799
-0.01984652 -0.15529324 0.014236767 -0.09586406 -0.031532053 0.012474519 -0.1070407 -0.1120885
-0.1294232 0.0026480125 0.010231148 0.009493174 0.03832158 0.02461476 0.059263404 -0.4252008
0.04064734 0.050529998 0.05149761 0.00542793 0.0051620803 0.06370898 -0.016944198 0.030272
0.032985527 -0.0053596282 -0.12719578 0.0060736206 0.028558653 -0.03770783 0.015548105 0.052440282

weight f4 [40, 40, 4]
00000000: 76ee 79bd b93a 83bc ac7c 583d 6ce3 f73c
00000010: 3fb8 ed3c 0b0b 4d3d be7e 7fbd c9a1 713d
00000020: d1a9 1c3d 3bdc 90bd a978 ecba 3450 5bbd
00000030: 1d2d 7abd 3124 d7bc 06a5 9fbd f5a8 503c
00000040: 4e9b 93bc 5600 4ebd c580 9abd 5561 48bd
00000050: cf5f 6dbd 0af1 5b3d 74db a3bd d119 713c
00000060: 5d40 d3bb 3a61 5ebd d00e c9ba 6300 1d3c
00000070: cc49 303d 228c fd3c 4c7a dabd 76e4 2b3d
00000080: dada bfbc 3873 b8bd 6432 14bd 4ef8 12bd
00000090: 1283 243c dcbd 3fbd ae78 ee3c 91cb 74bd
000000a0: 941d 56bd 425e b4bc 198a e33c ce36 c2bc
000000b0: e827 783c cfe9 13bd f671 2dbd 87d4 bd3c
000000c0: 9be9 fabc f882 db3b ac74 ad3c c84f 823b
000000d0: d615 c4bd a5ce a93c 272b 073d 36f5 e7ba
000000e0: 1efe e5bb 5ef3 73bd d6fb 37bd e1e5 a4bd
000000f0: 31fd e63c 57f8 9cbd 05cc cb3c a7d7 3fbd
00000100: 743f 1e3d 5373 ba3c 2400 39bd 0cae 87bd
00000110: 2a7d f23c b654 613d c4f2 1f3d 5f48 02bd
00000120: 4faf b7bd a243 3dbd 8adc 7ebd 83a6 38bd
00000130: 2ad4 703c 027f 58bd 5946 1bbd 0be9 c2bd
00000140: cc88 933c 4008 d1bc 2c01 a5bc 1895 5fbd
00000150: 996d 90bd 3100 0ebd 9546 403c b5e1 4bbc
00000160: 09a1 9fbd a99b 3cbd e4f6 193b 8c04 783d
00000170: 290f 803d 8fec 4bbc dbb5 99bd 1c29 f83b
00000180: 1249 99bc f108 263d 1da1 9e3c 0802 4bbd
00000190: 019f 1dbd 2fa6 40bd 3145 18bd 1ca9 0cbd
000001a0: 1bc3 a4bd 9824 0bbd 6cd3 b2bb 7732 743d
000001b0: e88e 66bd e5d9 8c3c f0b0 a63c 7bf3 e43b
000001c0: 77da c3bd eaf9 2cbd 4daf 84bd 4dd4 f9ba
000001d0: 158e 51bd 2e08 8abc 71b3 5c3c ae6d 60bd
000001e0: 2317 54bd d7d7 bc3c 17ff 5e3d add9 4c3d
000001f0: 3905 183d df23 b73b ab85 bbbb 69f9 cdbd
00000200: 9043 8abd 0293 babd 5693 a1bd c676 d0bd
00000210: ba93 5ebd c8b1 f23c b288 dbbc b216 8bbc
00000220: 64e0 ccbc fed3 9ebc f544 c9bc c5f6 86bd
00000230: 79de debd 50bd 92bc a5c3 b9bd e1d0 08bd
00000240: f32e a2bd b04c 38bd 614a a5bb 1ff2 80bc
00000250: c869 52bd 1e02 aabd c368 9bbd c812 85bd
00000260: 54e9 9dbd 1919 8dbc a285 6bbc 6a9a b6bd
00000270: a356 7a3a ea16 7e3d 2118 97bd 6fde 5fbc
00000280: 5a5c b03c 69da 603d 5d83 8f39 05ed 343d
00000290: be2d 253c d77b 1fbc 9f5b dfbc 3720 e13b
000002a0: 6df8 9ebc 5519 ef3c 5d95 b0bd 2bfc 453d
000002b0: 9c08 f83c 697f 2fbd b961 c9bd 2e83 8fbc
000002c0: b677 7d3c f45f 95bc cf7a 8d3b 57da 0dbd
000002d0: 551b 01bc dba7 14bd cc0e 7cbd 3731 18bb
000002e0: ec77 023d dd2a 8cbc 4ed7 95bd 8db5 1fbd
000002f0: 5971 bd3d b49a aa3c bec2 5fbd 4806 11be
00000300: 9197 8bbb d04a 22bd 5f90 38bd ff68 433d
00000310: c55d 8e3d f247 513c 8205 46bd 7108 3cbc
00000320: dd85 ec3c 4e2d 823d 2035 ab3c 4400 163d
00000330: 5199 953d 7451 09be 6881 21bd 4f4c 94bd
00000340: 92d7 053c bc6e 0d3d 882b 3f3d 368a 903d
00000350: 8b7a aa3d 3c9b 9cbd b7e7 b4bd 8575 12bd
00000360: 62c0 a53b 5910 973d f756 ae3c e1b6 15bd
00000370: cdae 2e3d 2157 73bd 3b83 acbd 3456 3cbc
00000380: 8a90 53b9 ae3b eabc e2ba 0a3c 26cc aabc
00000390: 4f0b 593d b521 443d 46d8 b43a 7de1 f9bc
000003a0: d5bd 29bc af6e d3bd 7c09 0abd 2781 2c3c
000003b0: a66c d53c dc85 eabc 0388 54bd d9b6 83bc
000003c0: 3e6e aebc a753 b93b cade 98bd b04f 0ebd
000003d0: 6c5b f83c 93e0 92bd 4fdd 7cbc 42e1 87bc
000003e0: e7b1 8e3c f734 fcbc abbd 05bd ba89 20bd
000003f0: dccd 0f3c a241 db3b 4c29 e7bc 2d90 9fbd
-0.06101843 -0.016019212 0.05285327 0.03025981 0.02901852 0.05005936 -0.06237673 0.05899218
0.038247887 -0.07073256 -0.0018041331 -0.053543285 -0.06107818 -0.026262375 -0.077951476 0.012735595
-0.018018391 -0.05029329 -0.07544092 -0.048920948 -0.0579527 0.05369667 -0.08000842 0.014715628
-0.0064468817 -0.05429194 -0.0015339497 0.009582612 0.04303913 0.03095061 -0.106678575 0.041965924
-0.023419786 -0.09006351 -0.03618087 -0.035881333 0.010041015 -0.046811923 0.029110279 -0.05976445
-0.0522743 -0.022017602 0.027775811 -0.023707774 0.015146233 -0.03611165 -0.04234501 0.02317263
-0.03062897 0.0066989623 0.021173798 0.003976796 -0.095744774 0.020728419 0.033000138 -0.001769698
-0.0070188185 -0.059558265 -0.044917904 -0.080516584 0.028196903 -0.076645546 0.024877558 -0.04683652
0.038634732 0.022760069 -0.04516615 -0.06624994 0.029600699 0.055012427 0.03904988 -0.0318073
-0.08968984 -0.046207078 -0.06222204 -0.045080673 0.014699021 -0.0528555 -0.037908886 -0.09517106
0.018009566 -0.02551663 -0.02014216 -0.054585546 -0.07052154 -0.03466815 0.011735578 -0.0124439495
-0.07794387 -0.046046887 0.0023493106 0.06055121 0.062528916 -0.012446537 -0.07505389 0.00757326
-0.0187116 0.04053587 0.019363934 -0.049562484 -0.038481716 -0.047033485 -0.03717536 -0.034340963
-0.08045026 -0.033970445 -0.0054573324 0.05961844 -0.05628863 0.017193744 0.020348042 0.006987033
-0.09563153 -0.042230524 -0.064787485 -0.0019060463 -0.05116089 -0.016849604 0.013470517 -0.0547921
-0.051779877 0.02305214 0.05444249 0.05001228 0.037114356 0.005588993 -0.0057227216 -0.10057337
-0.06751168 -0.09110071 -0.0788943 -0.10178904 -0.0543401 0.029625788 -0.02679858 -0.016978595
-0.025009342 -0.019388195 -0.024569014 -0.06590036 -0.10882277 -0.017912537 -0.09070519 -0.033402327
-0.07919111 -0.04499501 -0.005044267 -0.015740452 -0.051370412 -0.08301185 -0.07588341 -0.06497723
-0.077105194 -0.017223882 -0.014375122 -0.08916171 0.0009549653 0.06203357 -0.07377649 -0.013663872
0.021528412 0.054895792 0.0002737296 0.044171352 0.010081707 -0.009734116 -0.027265368 0.0068702954
-0.019405568 0.029186884 -0.08622239 0.04833619 0.030277543 -0.042846117 -0.09833092 -0.017518606
0.015470436 -0.01823423 0.0043176184 -0.034632053 -0.007880052 -0.036292892 -0.06153755 -0.0023222694
0.031852648 -0.017110283 -0.07316457 -0.0389915 0.09250135 0.020825721 -0.05462908 -0.14162552
-0.0042600115 -0.039622128 -0.045059558 0.047707554 0.06951479 0.012773501 -0.048345096 -0.011476622
0.028872425 0.063562974 0.020899355 0.036621347 0.073046334 -0.13409978 -0.039430052 -0.07241117
0.008169072 0.034529433 0.046672374 0.07057612 0.083241545 -0.07646796 -0.088332586 -0.035756607
0.005058334 0.07376165 0.021281702 -0.03655136 0.04264717 -0.059409264 -0.08423468 -0.011495162
-0.00020176373 -0.02859291 0.008467408 -0.020849299 0.0529893 0.047883708 0.0013797365 -0.030503029
-0.010360201 -0.103238456 -0.03370045 0.010528839 0.026052784 -0.028628282 -0.051887523 -0.0160784
-0.021292802 0.005655724 -0.07464369 -0.034743965 0.03031703 -0.071717404 -0.015433623 -0.016586903
0.017418815 -0.030786974 -0.032651585 -0.039193846 0.008777108 0.0066911737 -0.028217934 -0.07791171

bias f4 [40]
00000000: 32dc 46bd 3d3e 023d adab 63bc f848 a7bd
00000010: 22f5 d739 89c6 fcbc 1e0f 8cbd 4d07 5e3c
00000020: c30f 453b 62d4 103c e1be 493b 3cdc b93c
00000030: 723e 47bc 383d aa3b 6dc9 cf3b 297f 52bd
00000040: 7b33 d93c 7ecc ea3c 9366 b03d 984a b5bd
00000050: 3157 c23c be53 9f3b bf3d 94bc 290b 5d3c
00000060: f430 bbbd adab 7fbd 43a1 083d 71df f23c
00000070: 9c9a 0f3b cfa4 74bd d71e 3b3c 9f37 273b
00000080: 5aec 80bd 1646 26bd b747 873c 72dd 203d
00000090: a944 4d3c b168 1b3d ccff d13c b017 0cbc
-0.04854984 0.031797636 -0.013895911 -0.081682146 0.00041190634 -0.030856388 -0.06838821 0.013551545
0.003006921 0.0088396985 0.0030783939 0.022688024 -0.012160884 0.005195286 0.0063411505 -0.0513908
0.026513806 0.028661963 0.086133145 -0.08852118 0.023723217 0.004862278 -0.01809585 0.01349143
-0.091401964 -0.062419582 0.033356916 0.02964756 0.0021912223 -0.059727486 0.011420927 0.002551533
-0.062950805 -0.040594183 0.016513688 0.039273687 0.012528577 0.03794164 0.025634669 -0.008550569

weight f4 [40, 40, 3]
00000000: 31a7 15bd 5cb4 163d dcf9 d6bc 1311 823c
00000010: ca9e 723d f937 ce3b e9f2 67bd 72fb b13d
00000020: aeef a83d 47f4 c9bd 8f49 8dbd 6b84 4fbc
00000030: 56a7 25bd 28f0 a0bd 10c8 9ebc 9548 0abc
00000040: 245b 9a3d bafa 93bd 2809 7c3b cb8b d2bc
00000050: 2e35 0a3d 403c b53c 81f9 1cbd 752f 1cbd
00000060: 5872 8bbd 0673 053d c79b a2bd e478 333d
00000070: deac 193c a758 4dbd 760a cabd 5172 30bb
00000080: b9f5 34bd b71d 913d 61f4 3dbd 5b3b a5bd
00000090: a6b9 f9bc 4e0a 2ebc 19be 6dbd fd37 503d
000000a0: c278 4a3d 3426 61bd 46c8 06bc 118c 523c
000000b0: 5def 173d 033f 833d 9f55 fd3c bfaf 84bd
000000c0: f3b9 d1bd 25d0 113d ca84 73bd 5d1f 143d
000000d0: ec9f 55bd 15e2 893d 4200 aebd 4b3d a3bc
000000e0: b30f 70bd ae37 1b3d faae 41bd 6aee 833d
000000f0: c0d6 993c a3dc 893c 8f84 fc3c 319f 233d
00000100: b9ea 533b 5b38 3a3d e5ca 663d e110 e7bb
00000110: 7a3f 8f3d 8eab 8abd 505b debd c965 1bbe
00000120: 24ff c43b 2531 a63c 5ff5 cf3d ac1a 2dbb
00000130: ebd1 af3d f292 b03d 00f4 b83c 06c7 123d
00000140: 7943 d73c 3905 4fbb 7ef0 f8bd df14 9e3d
00000150: 5b79 e33c fd5e 793d 0377 1dbd 80e6 aa3d
00000160: aca0 37bd 4db3 a2bd 3103 debd d0f6 81bd
00000170: cc81 c7bd 10ba 6a3c 49fe 193c a541 1cbd
00000180: 56b9 783d d477 67bd cf8e c5ba dcb1 f1bc
00000190: ea47 98bd b317 873c fd65 f0bc c4be 5c3d
000001a0: a950 393c 77c2 86bd 2574 a0bd 2f03 06bb
000001b0: 7500 b53d c0b5 02bd 3304 f4bc 43fd 93bd
000001c0: b224 87bd b889 9cbc 47d3 c43c 9604 933d
000001d0: 4ba8 6bbd c185 1fbd 3e30 f93c 281e 67bc
000001e0: 1e41 ecbc bcff 143d 377c ad3d c2a0 ac3d
000001f0: 538c ab3d 853d 253d ab17 aa3d 51e4 8b3d
00000200: 1e8c afbd 3ed4 83bd a1b9 54bc 95bc 003d
00000210: 1cbd 533b 7ef7 86bd 6956 af3c 44bf d8bc
00000220: b9c8 adbd b8cf ad3d f388 783d 576a b938
00000230: b5e6 403d e374 27bc d371 95bd b7dc aa3d
00000240: c8ae 96bd 2ab8 88bc f3ab 603d 173e d1bd
00000250: 2b44 34bd 4af8 93bd 13b9 9cbd f444 283d
00000260: 42b1 fc3c 2c2d 743c f8b2 f43c 3dd2 dabc
00000270: fd11 81bd 9baf 65bd 6af2 5bbd eb97 39bc
00000280: 16e4 8a3d 9547 78bd 9b5b 5a3d 21b0 e7bd
00000290: 50fd 8fbd 02a1 103d 029d b33c 60a5 9bbd
000002a0: 900f 0cbc ef62 633d e957 813d cff9 65bd
000002b0: fb90 b9bd a206 92bd 3bb8 a9bb a948 d8bb
000002c0: 572d fa3c 3024 7bbd e9e7 c13c df9f 923d
000002d0: 78e8 de3c e9dd 27bb b96a e3bd dc38 b3bd
000002e0: 914b fc3c d009 d2bc 8c14 313b 2b5b 94bc
000002f0: bc3e 6fbd 6389 afbd 7a81 05b9 ac1e f8ba
00000300: 7dfd 0f3d 2cfa 09bc 4134 f33b a50a babd
00000310: db45 263d 470c 6e3b c9aa 1b3c e29f 62bd
00000320: 7973 bd3c ef39 f43a df42 5c3d 431c 47bd
00000330: 777e 7a3d 0eb4 50bd b716 953c 378f 863d
00000340: 502b b03c 3a1e 943d ce7d fabd a93d 853c
00000350: 9b0a 58bd 8672 553c e312 653c bf04 a0bd
00000360: 4689 a6bd afbf a5bd f36f 413d d267 3bbd
00000370: d693 993c 0f10 c23d 0799 40bd 6a83 963d
00000380: e64e c03c bc1e b13c 689c 033d 369a 4abd
00000390: d46b ac3d 0b67 d03c 6217 643c 4361 39bd
000003a0: 18e7 56bd ddf2 d1bc bfa1 743c c3fc 88bc
000003b0: 1ef3 f1bc bae1 babd 68e3 91bd f11d 243d
000003c0: 390a 583d 24d0 403d 8dee 3cbb c639 273d
000003d0: ca99 853d 3742 c0bc 97a3 50bd 2962 893c
000003e0: ab44 39bc 0e8c afbd 4fca fc3c 05d4 3dbb
000003f0: 4dba 443d 8a2b 163c b129 3d3d 70fe 80bd
-0.0365364 0.036793098 -0.02624219 0.015877282 0.059233464 0.0062932936 -0.05662814 0.086905375
0.0824884 -0.09861045 -0.06898796 -0.012665848 -0.040442787 -0.07858306 -0.019382507 -0.0084401565
0.07536915 -0.07225557 0.0038457606 -0.025701424 0.033742122 0.022123456 -0.038323883 -0.038131196
-0.06808919 0.032580398 -0.079398684 0.043816462 0.009379594 -0.050133374 -0.098652765 -0.0026923607
-0.044179652 0.07085746 -0.046375636 -0.08067962 -0.030484032 -0.010622574 -0.05804262 0.050834645
0.04943157 -0.054968074 -0.00822646 0.012850777 0.03709351 0.06408503 0.030924616 -0.064788334
-0.10240545 0.035598893 -0.05945281 0.036162723 -0.052154467 0.06732575 -0.08496143 -0.019926688
-0.058608722 0.037894897 -0.04728601 0.06441958 0.018779159 0.01682884 0.030824928 0.03994674
0.003233595 0.0454639 0.05634584 -0.0070515727 0.06994529 -0.06771003 -0.1085726 -0.15175547
0.0060118604 0.020287106 0.10154223 -0.0026413603 0.085849606 0.086217776 0.022577286 0.035834335
0.02627729 -0.0031588806 -0.12155245 0.077188246 0.027767828 0.060881604 -0.038443577 0.08344746
-0.044830963 -0.07944355 -0.108404525 -0.06345904 -0.09741554 0.014326587 0.009399005 -0.03814854
0.060723625 -0.05651076 -0.0015072468 -0.029503755 -0.074355915 0.016490793 -0.029345507 0.053892866
0.011310735 -0.0658006 -0.07834653 -0.0020448675 0.08837978 -0.03191161 -0.029787159 -0.0722604
-0.06598796 -0.019108638 0.024026526 0.07178609 -0.057533544 -0.038945917 0.030418511 -0.014106311
-0.028839644 0.0363767 0.08470958 0.084290996 0.08376374 0.040341873 0.083052956 0.06830657
-0.08571647 -0.06436966 -0.0129837105 0.031429846 0.0032308763 -0.06590174 0.021403508 -0.02645839
-0.084855504 0.08486885 0.06067748 8.841295e-05 0.04709502 -0.010220739 -0.07297101 0.08342879
-0.07357556 -0.016689379 0.054851484 -0.10216921 -0.044010323 -0.07225092 -0.076524876 0.041081384
0.030846242 0.014903348 0.029870495 -0.026711578 -0.06302259 -0.056075674 -0.05369798 -0.011327724
0.06781785 -0.06061514 0.053310018 -0.11312891 -0.070307374 0.0353098 0.021925453 -0.07599902
-0.008548632 0.055514272 0.06315596 -0.05614644 -0.09060856 -0.07130171 -0.0051794327 -0.0066004586
0.030539198 -0.061313808 0.023670154 0.07159399 0.02721046 -0.0025614446 -0.1110434 -0.087510794
0.030797752 -0.025639445 0.0027020304 -0.018109879 -0.058409438 -0.08571126 -0.00012732102 -0.0018930039
0.035153855 -0.008421462 0.0074220006 -0.090840615 0.040593963 0.0036323236 0.009501168 -0.055328257
0.02312635 0.0018632988 0.05377471 -0.048610937 0.061155763 -0.050952964 0.018199308 0.06570285
0.021505028 0.07232328 -0.122310266 0.016264753 -0.05274449 0.013027793 0.013981554 -0.07813405
-0.081316516 -0.08093201 0.047225904 -0.045753308 0.018747251 0.09475719 -0.04702094 0.07349284
0.023475122 0.0216211 0.032131582 -0.049463473 0.08419004 0.02543976 0.0139215905 -0.04525877
-0.052466482 -0.025628502 0.014931141 -0.016722089 -0.029534873 -0.09125085 -0.071234524 0.040067617
0.052744124 0.0470735 -0.002882871 0.04082658 0.065234736 -0.023469074 -0.05093726 0.01677044
-0.011307876 -0.08571635 0.030858187 -0.0028965485 0.048029233 0.009165654 0.04618234 -0.0629853

bias f4 [40]
00000000: 34dc 95bd 570a a8bc 5ebc c8bb f05e babc
00000010: d440 043d feec 49bc 509f b1bc e8b2 aebd
00000020: 7e3d 143c ecd6 8c3b 5182 d9ba 5bb9 babd
00000030: f4f0 9fbd ad7a 203d 90be d0bd 22fb 09bd
00000040: f2fa afbd 1734 06be 5354 cabd 9b93 80bd
00000050: c84b 6b3b e609 14be 5b15 5fbe 7497 59bd
00000060: 0120 ebbc 15c1 ae3c 325b 363c 48a9 94bc
00000070: 13ad 00bd a172 eebd 533e 13bd d2ef 24bc
00000080: 6c18 95bd 33ba 03bc 6f11 d0bd d029 3cbd
00000090: f54c a03b b382 8dba 274b 63be 69a3 43bd
-0.07317391 -0.020512743 -0.0061259707 -0.022750348 0.032288387 -0.01232457 -0.021682411 -0.085302174
0.009047864 0.0042980816 -0.0016594623 -0.09117385 -0.0780963 0.039179493 -0.10192597 -0.033686765
-0.08592786 -0.13105808 -0.09879365 -0.062781535 0.0035903323 -0.14456901 -0.2178549 -0.053122953
-0.028701784 0.021332303 0.011130141 -0.018147126 -0.031415056 -0.116429575 -0.03594811 -0.010066943
-0.07280049 -0.008039999 -0.10159575 -0.045938313 0.0048919865 -0.0010796398 -0.22196637 -0.047763262

weight f4 [40, 40, 3]
00000000: e62e bcbd 5505 b5bd a094 c2bd 46c4 90bd
00000010: faf7 9b3d 3c1a 833d 6582 d1bc c08d 6f3d
00000020: 1df7 9cbd ed7f 973c 76ed abbd e2df 37bc
00000030: e33a d8ba 6909 e53b 7dc6 e2bc a95e 113d
00000040: 3a5b 513d cf41 6cbd 0b55 8e3d 3ca4 753d
00000050: b068 e03c cf30 97bd 81bc f73c 3b7d a93d
00000060: eaf1 4b3d ee48 123d 5a3e 80bd 6493 413d
00000070: db1e 29bd 7e1a bfbd 3fb2 c6bc 4c62 9a3b
00000080: 01c0 3ebd 87ea 85bd 00a5 01bc ff3b f33c
00000090: 27e1 93bd 43c7 b5bd a639 763c b6c4 f2bc
000000a0: c39e 1abc d26c 9ebd 7907 4fbd 16e7 96bd
000000b0: fc7f 4e3d 461a 853d 9097 c0bc 3eaa 2dbc
000000c0: 9396 e0bc ae82 d73c be06 a0bc 7e2d 963b
000000d0: c200 3bbd 8bc0 84bd a438 9fbd 9c57 863d
000000e0: 12e8 483d 4da3 fe3c aa7d 253d f3c2 9abd
000000f0: b460 523c b13b a4bd 4cee 73bc cf1d 86bc
00000100: 4adf b4bc 4c13 b7bb ac42 b7bd 8a24 5e3d
00000110: 118b 27bd e6df 9b3c 492f acbd eb9d 98bd
00000120: f68d 0e3d 7c28 193d 28d0 70bc 5b8d 51bd
00000130: 406e 9abd 823d 493d e774 9cbd 66cd 5e3d
00000140: a7d0 7bb9 7c4c 103d 1180 90bd 5bb5 ddbc
00000150: 27a8 a13d b75a 17bc dd3e b33d 6125 42bd
00000160: 6f0a 8f3d 3456 23bd 727a 10bd 3367 a63c
00000170: 92ee 60bc 6000 bdbd 4aba 7cbd 5585 dd3c
00000180: 49f3 e5bc e3dd 3b3d 2707 513d 5590 983d
00000190: 1491 f9bc bf9b 8dbd 2534 80bd db69 e93c
000001a0: 1365 473d c107 733d 7f81 e53c d9d3 12bc
000001b0: 2920 c7bb e906 753d 029b 34bd 1244 1abb
000001c0: 6e63 263d c8a3 79bc 0c42 3cbb aa37 9dbd
000001d0: 5ce5 26bc 14be 32bd d503 afbc a98f 543d
000001e0: e584 a93d 34f0 3c3d 1e52 3a3d 1651 933d
000001f0: 906b fabd 556a 5c3d 5b07 483d f3d2 c43d
00000200: ace6 ba3d ccdd 183d 3e10 853d c0cf 9c3b
00000210: 32e7 873c f6f5 f9bc aef9 193d 70eb ab3c
00000220: 35bc 973d 0a14 37bd bd94 a7bc 2c6a 443d
00000230: 36df 84bd 9f1e 973c bd1f 26be a9d8 113d
00000240: c959 e1bd 58ea 9fbd b4d8 bdbd 4f39 c93b
00000250: cf5d 4fba f1b6 56bd 0bd6 c83d b1cb 673d
00000260: 8de8 cc3c 3484 ecbd 2732 e1bd 7fbb 8ebd
00000270: 91af 4fbd 82c5 43be 4bb7 d43d 03e1 9c3d
00000280: f040 2dbd 7664 8bbd f111 cd3c 7034 bd3c
00000290: ac9a 8a3d 3af4 20bd 1f6f ccbc 09d1 e43c
000002a0: d4c7 423d 9d3e ab3b 3381 7cbd 1927 683c
000002b0: 1894 de3c adf1 dcbd eed1 123e 77a1 a33b
000002c0: 59f5 1abc 02d1 08bd 5250 cf3c 669f f2bc
000002d0: 4700 53b8 f032 d8bd 7bea e8bd 9efe b53c
000002e0: 3f6b 5abd bc89 14be dcdb 803d b499 913d
000002f0: 3eb1 ee3d 6591 9ebd b6d6 7a3c df4d 943d
00000300: 692d 4d3d 7880 8f3d 3158 0e3c 1f58 bdbd
00000310: 482b 123d 164c a63d d486 e3bc 59ef a03c
00000320: cf84 443d f49f 5b3d a93d aebd dffa bebd
00000330: eca8 7d3d eb2e 1b3d d8c6 6f3d 7f78 b0bb
00000340: 9f1a b9bd a539 15bd 056e fa3c 6786 bb3d
00000350: c7c9 ea3d d913 093d 0847 a13e 545b 113f
00000360: bddb 87bc 558b d53c b421 69bd 4f78 a03d
00000370: 9b65 be3e 899b 113e e412 063c 7db9 f63c
00000380: bab4 7e3c f49d 48bd 6a21 15bd f138 c3bd
00000390: a2b9 63bd 94ed 0bbd 015d abbd 9977 4f3d
000003a0: f72c c23c 0949 3dbb 28e2 fcbc 3268 e23c
000003b0: d4e6 56bd 400c 863c 7cb6 b53c d865 d0bd
000003c0: 8bd1 443d bd10 a9bd 9579 933c 7ebb 7b3d
000003d0: f2da bebd 03ba bcbd 9c58 e8bc 36bf 383c
000003e0: 98f8 50bd c9a1 c6bd 5c9e 77bb 3ce1 83bd
000003f0: edb2 0bbd 2b8d 99bd ca47 6b3d a6dd 923d
-0.09188633 -0.08838908 -0.09501004 -0.07068686 0.07615657 0.06401488 -0.025574872 0.058484793
-0.076643206 0.018493617 -0.083949015 -0.011222811 -0.0016497042 0.006989647 -0.027682537 0.035490666
0.05111239 -0.057679947 0.069498144 0.05997108 0.027393669 -0.073823564 0.030241253 0.08275839
0.049791254 0.035714082 -0.062618926 0.047259703 -0.04128919 -0.09331225 -0.024254916 0.004711425
-0.046569828 -0.06538873 -0.007912874 0.029691694 -0.07220679 -0.08875897 0.015028393 -0.029634815
-0.009437266 -0.077355996 -0.050544236 -0.07368295 0.050415024 0.06499152 -0.02350977 -0.010599671
-0.02741555 0.02630743 -0.019534465 0.00458306 -0.04565502 -0.06482037 -0.07774475 0.06559679
0.049049444 0.031083727 0.040403046 -0.07556715 0.012840439 -0.08019198 -0.014888357 -0.016371636
-0.022079129 -0.005587017 -0.089482635 0.054234065 -0.04090411 0.019027662 -0.084074564 -0.074519955
0.034803353 0.037392125 -0.014698066 -0.051160198 -0.0754056 0.049130924 -0.07639485 0.054395102
-0.00024014954 0.03522919 -0.07055677 -0.027064016 0.07893401 -0.009237937 0.087522246 -0.04739893
0.06984412 -0.03987713 -0.035273023 0.020312881 -0.013728755 -0.09228587 -0.061701097 0.027041117
-0.028070109 0.045865905 0.05103221 0.07449404 -0.030464686 -0.06914472 -0.06259946 0.028492859
0.048680376 0.059333567 0.02801585 -0.008961641 -0.006076832 0.059821043 -0.04409314 -0.0023539108
0.040622167 -0.015236802 -0.002872589 -0.07676633 -0.0101865195 -0.043638304 -0.021364132 0.051894818
0.08277301 0.046127513 0.04548847 0.071932 -0.12227547 0.053812344 0.04883514 0.09610548
0.091260284 0.037320897 0.064972386 0.004785508 0.016589735 -0.030512791 0.03759163 0.020986289
0.074089445 -0.044696845 -0.020456666 0.047952816 -0.064878866 0.018447218 -0.16223045 0.035607014
-0.11003453 -0.078083694 -0.092698485 0.006140865 -0.0007910402 -0.05242056 0.098064505 0.05659074
0.025013233 -0.11548653 -0.10995894 -0.06969356 -0.050704543 -0.19118312 0.10386523 0.07660105
-0.042298257 -0.06806271 0.02503297 0.023096293 0.067677826 -0.039295413 -0.02495533 0.027931707
0.047553852 0.00522597 -0.06164665 0.014169478 0.027170226 -0.107882835 0.14337894 0.0049936133
-0.0094579095 -0.03340245 0.025306854 -0.029617023 -5.030658e-05 -0.105565906 -0.113728486 0.022216137
-0.053324934 -0.14505666 0.06291935 0.07109395 0.116549 -0.077425756 0.01530998 0.07241415
0.050092135 0.07006925 0.008688019 -0.092453234 0.035685807 0.08119981 -0.027774252 0.01964538
0.04797822 0.05361934 -0.085078545 -0.093251936 0.061928675 0.03788654 0.05853924 -0.005385458
-0.09038281 -0.036431927 0.03057004 0.091564946 0.11464267 0.033466194 0.31499505 0.5677998
-0.016584272 0.026067415 -0.056916907 0.07835447 0.37186894 0.14219488 0.008183215 0.030117745
0.015546018 -0.04897876 -0.03640882 -0.09532345 -0.055596955 -0.03416212 -0.083673485 0.050651167
0.023703082 -0.0028882644 -0.030869558 0.027637575 -0.05246623 0.016363263 0.022181742 -0.10175675
0.0480514 -0.08255146 0.01800231 0.061458103 -0.09319104 -0.092151664 -0.028362565 0.011276057
-0.051018327 -0.09698827 -0.0037783599 -0.064394444 -0.034106184 -0.07497629 0.05744151 0.07171182

bias f4 [40]
00000000: 9d16 04be 2165 073d 54b9 02bd 8338 073c
00000010: 7ff2 d9bd c470 f1ba 1e73 bdbc 46dc 613c
00000020: bfc5 f6bd c116 2bbd dde3 a63c 210f 21bb
00000030: 86d9 f93c 12fd e8bd 786a 6a3c 08da dabb
00000040: 4afb 013d 73a4 3a3c 51ef e2bd ac1d 20bc
00000050: daf6 413c eacc 0c3d 3c85 523d f87d be3c
00000060: 0d49 cc3b 2cab 50bd 086a 55bc 7501 393d
00000070: c8f0 a63c 23e9 a63c 5aa0 0abe 334d 073d
00000080: cbf4 15bd 3ff2 37be 1b05 e7bc ef55 083d
00000090: 3cf9 743c ee44 9f3c 049c babd c7f3 ccbb
-0.12899251 0.03305543 -0.031915024 0.00825322 -0.106419556 -0.0018420448 -0.023126181 0.013785427
-0.12049436 -0.041769747 0.020372326 -0.0024575668 0.030499231 -0.11376394 0.014307611 -0.0066788234
0.03173379 0.011391747 -0.11080802 -0.009772699 0.011838639 0.03437511 0.051396593 0.023253426
0.0062342943 -0.050944492 -0.013025768 0.045167405 0.020378485 0.02037484 -0.13537732 0.033032607
-0.036610406 -0.17963503 -0.028200677 0.033285078 0.014952 0.019442048 -0.09111789 -0.0062546465

weight f4 [20, 40, 3]
00000000: ef9c 3bbd 8ef2 56bd 627b 5b3d a74b 7fbd
00000010: f370 18bd bb3f 0f3d 577a 03bc b16c 84bd
00000020: 4431 84bd 321b 963d ccbf d4bc 158e adbd
00000030: a548 9b3d 4580 243d 51bc 4c3c 88d9 163d
00000040: 5ec7 933d 1235 103d 6bff 00be a178 95bd
00000050: 49d8 17be 2b37 5a3d 0102 ee3c c529 0cbc
00000060: d6aa b3bb 8efc 6abc 95da 923d 51c5 debd
00000070: 6eac d0bd 639d 34be c3df a7bd 5088 9fbd
00000080: 5501 55ba c4e3 963c 3fbd c0bd 9d84 a73d
00000090: 8158 6e3d be1f 0c3d 233a b7bc f891 273d
000000a0: e555 9dbd 9717 503d d60e 8dbd 0ae5 3abd
000000b0: a6c3 35bd 8a6e 73bc 0ac1 a33c a4b6 9f3d
000000c0: a8ff a4bd de03 153c 57d9 1a3b 0df9 80bc
000000d0: f4c9 9bbd 7b47 a5bd 5be5 4a3d f0fc 863d
000000e0: e3e8 babd de3d 91bc f2aa 393d 9184 f83c
000000f0: 52f5 4c3d 58f2 073d aa28 2cbd 74db 71bd
00000100: cec0 54bc 4ae7 593d 8aa5 6ebd 992c 88bd
00000110: 3f15 253d 9fd5 513c 19ce 863d 6e35 afbd
00000120: e7a8 fa39 5578 973b 0df6 2fbd 89d6 d0bb
00000130: c8a8 273d 8fa5 54bc 1774 a7bd 0a4c 08bd
00000140: ae0a 813c 4aa1 08bd 96a9 acbd 43ff 803d
00000150: 5901 a53c 7066 b3bd e88a b3bd 6368 193d
00000160: 727e c8bd 5c34 bbbd fb8c 93bd feea 1dbe
00000170: 2b8e 673d d1f0 a43c b941 893c 4867 3b3d
00000180: 1826 793d a99a 433d f72e 82bd 7695 46bb
00000190: 7c15 cbbd 85e0 12bd 7f5d 36bd 572d 93bd
000001a0: 14ac 253d 983c 77bd 9333 433d 5f28 bdbd
000001b0: 1f57 22bd f622 80bd dd1f 86bd a4b1 613d
000001c0: bdff 81bd 9e1c 733c bcbd 2d3d d2fc 063d
000001d0: 73dc 90bd c1ad b1bd 1cbd 673d c831 103d
000001e0: 906d b13d ca3c 13bc 1bc3 173d f0f4 23bd
000001f0: 1081 1cbd 11bd 653c 2b9e ac3c 1115 833d
00000200: 2dde 683e 7374 fd3c d977 f5bb c05e 103e
00000210: 703b 753c 5954 aabc 882a 043d 363f 2b3d
00000220: e04b e3bd aec5 5d3c 449c 07bc d3a4 ccbd
00000230: 535e 283e df52 a93c 9dda cb3d 4be9 dc3d
00000240: fa7d e8bb 0bf9 19bc fd68 933d 64cc d8bc
00000250: 691e 36bd e1bb 97bd d7ce 8c3c 4ec5 abbc
00000260: 3808 9d3d 333c 3f3b a274 a9bd 2f30 aabd
00000270: 2f8c 52bd 8311 933d 9a02 af3d 5845 b2bd
00000280: 8865 863c 2aaf 123d 0718 19be 8ba5 0dbd
00000290: bab3 dcbd e4f8 38bd 0e6b 5f3d 2503 e63d
000002a0: c40e b3bd 85fa b93c 8e6e 353e 0df1 bbbd
000002b0: 6e53 b4bc 8c42 afbb c836 a4bd 3520 16bd
000002c0: 8107 c4bd 22e9 49bd 678d 223d cac2 433c
000002d0: 4ead 9d3b 2965 f13a cfa2 05bd 7db7 be3d
000002e0: 7ce2 99bc 96eb 29be 0a36 d3bd 4405 43be
000002f0: 7b8d 5a3d 9737 52bd a0e2 13bd 55c5 c4bc
00000300: 1990 ea3c 3e88 253d c11a 4fbd c5d2 88be
00000310: 0491 273d dddf 81bd ee21 fabd bd61 a33a
00000320: 8df6 bdbd 68ae 8abd 5d49 3d3d 8dcc 0c3d
00000330: 43b8 a53c d33b af3d c59a 1d3d 85a7 623d
00000340: 0a19 8a3b 1b75 4dbc 3efe 0ebe a71f 52bd
00000350: 5411 2d3e 2bc0 febc e688 86bd 9358 75bc
00000360: 1635 4fbc 6487 803e 41e7 47bc 473e 403d
00000370: 16e7 3bbe 1c6a 9b3c 5321 dcbd 150c ca3d
00000380: 78f1 31bd ce1a 2b3d ad45 d83d d475 8ebb
00000390: 3a0a 46bd dea8 39bd fa5d 993c c870 af3d
000003a0: 75a1 bdbb 0879 e13c 7777 e0bd a7fb 49bd
000003b0: 2d27 01be 60f1 edbc 7fa7 0bbd db8d 623d
000003c0: b84d 423c efc6 80bd 6d5f 433d 2b24 c1bc
000003d0: 3bc8 833d 1923 8bbc af54 b23d acfa 093e
000003e0: 7449 283c 8f48 18bd 0735 8f3c 2a07 7cbd
000003f0: 0cc1 a4bc 8786 bd3d 1873 0b3b ac3b 7ebd
-0.04580396 -0.052477412 0.053584464 -0.062328007 -0.03721709 0.034972887 -0.008024774 -0.06466044
-0.06454709 0.07329406 -0.025970362 -0.084743656 0.07582215 0.04016139 0.01249607 0.036828548
0.07215761 0.03520686 -0.12597434 -0.07298399 -0.148286 0.05327527 0.02905369 -0.0085548805
-0.0054830117 -0.01434244 0.071705975 -0.10877479 -0.10189138 -0.17638163 -0.08196976 -0.077896714
-0.00081255037 0.018419154 -0.09411096 0.08179591 0.058189873 0.03420996 -0.022366589 0.04091069
-0.07682399 0.050803747 -0.06887595 -0.045628585 -0.044376038 -0.014857898 0.01998951 0.07798508
-0.08056575 0.00909516 0.002362808 -0.015743757 -0.07606879 -0.080702744 0.049535137 0.06591213
-0.09126451 -0.017729696 0.04532904 0.03033665 0.050038643 0.0331901 -0.042030968 -0.059047177
-0.012985421 0.05319909 -0.05826334 -0.06649131 0.040303465 0.012807279 0.06582279 -0.08555113
0.00047809558 0.004622499 -0.04295926 -0.006373231 0.040932447 -0.012978925 -0.08176439 -0.03327564
0.015752163 -0.033356942 -0.084307835 0.06298687 0.020142244 -0.08759773 -0.08766729 0.037453067
-0.097897425 -0.09140846 -0.07204624 -0.15421674 0.056532066 0.020134361 0.016754972 0.045752794
0.060827345 0.047754917 -0.06356614 -0.0030301488 -0.09916207 -0.03585865 -0.04452276 -0.07186382
0.04044731 -0.06036052 0.047656607 -0.09236216 -0.039633866 -0.06256668 -0.06549046 0.055101052
-0.06347606 0.014838366 0.042417273 0.032955952 -0.07073297 -0.08675719 0.056576833 0.035203725
0.086634755 -0.008986661 0.0370513 -0.040028512 -0.03820902 0.014022128 0.021071514 0.064005025
0.22741003 0.030939316 -0.0074910936 0.14098644 0.014967784 -0.020792173 0.032267123 0.04180833
-0.110984564 0.0135359 -0.008277003 -0.09992375 0.16442232 0.020669399 0.099538065 0.107866846
-0.0070950957 -0.009397755 0.07197759 -0.026464649 -0.044462595 -0.07408882 0.017188473 -0.020968106
0.07667583 0.0029180169 -0.08274199 -0.083099715 -0.05140322 0.071810745 0.08545418 -0.087046325
0.016405836 0.03581158 -0.14950572 -0.034581702 -0.107764676 -0.045159236 0.054545455 0.112310685
-0.08743051 0.022702465 0.17717955 -0.09176836 -0.022012439 -0.005348509 -0.08018261 -0.03665181
-0.09571744 -0.0492946 0.039685633 0.011948297 0.0048119193 0.0018416989 -0.03262597 0.09312341
-0.018784754 -0.16593775 -0.103130415 -0.19044977 0.053357583 -0.051322546 -0.0361048 -0.024019876
0.028633164 0.040413134 -0.050562624 -0.26723304 0.040909782 -0.06341527 -0.12213503 0.0012465041
-0.092755415 -0.067715466 0.046212543 0.034374762 0.020229464 0.085563324 0.038477678 0.05533554
0.0042144107 -0.012540127 -0.13964173 -0.051299717 0.16901141 -0.031097492 -0.0656908 -0.014974731
-0.012646934 0.25103295 -0.012201131 0.046934392 -0.18349871 0.018971495 -0.107485436 0.09865586
-0.043443173 0.04177361 0.105601646 -0.0043475423 -0.048349597 -0.04532706 0.01872157 0.08566433
-0.0057870694 0.027523533 -0.10960286 -0.04931226 -0.126126 -0.02904576 -0.034095284 0.055311065
0.01185935 -0.062879436 0.047698427 -0.023576817 0.06434675 -0.01698451 0.08707558 0.1347453
0.010271419 -0.037178572 0.01748134 -0.06153027 -0.020111583 0.09254175 0.0021278318 -0.062068626

weight f4 [40, 20, 1]
00000000: 2a82 413e b895 1a3e 8c3a 003d 5e4f f43d
00000010: 66bd 1fbb b9c7 0b3d 8499 febb 285a d73c
00000020: f343 e73d de5f f5bd 4b6a 84bd 5e1c bb3d
00000030: b9fb 733d b38c f7bd 5f8d bb3d 04dc 9cbc
00000040: 4016 06be 9afb 313d 5454 33be e8a7 663c
00000050: c671 5a3e fc55 823d bb1b 7ebe 65b0 9dbe
00000060: 75a5 743d cb72 8fbe 9906 dc3d f062 4dbd
00000070: c055 803d 1b7c 073e 1358 b63d 2867 31bd
00000080: 6d36 bd3c f413 12be d7f6 0a3e 5848 d73d
00000090: abac 1f3e 7e93 493d fa8d f53d afe9 27be
000000a0: 322c 19bc a965 243e b2e9 6ebe 4052 5abe
000000b0: 67e9 dfbd 4fc8 62bf 6e12 79bc 717d 94bd
000000c0: cefa 01be 21bc 98bd ce25 533b 08ba 22be
000000d0: 53e3 fe3c 4b73 62be aa33 203e ae5f 7a3e
000000e0: a02b e13d e661 09bd 3fb8 793c 39b2 6c3e
000000f0: d83e c83d 78bd c8bd 9bce f7bc d061 33be
00000100: 8025 47be 1618 2b3e 0706 573d 2d81 ad3d
00000110: 4376 d13b d506 543d 077b d93b 22c3 fcbd
00000120: 98ff 3dbe c0c3 36be fad0 0ebe 41f8 3b3d
00000130: 8943 3cbc 00ad 4f3d cbd7 bcbd 579a ed3d
00000140: 206c 1a3e 6ce4 e1bc 5e26 90bc d1c2 c43d
00000150: abb0 d7bd 1712 04bd 9f24 a13c 1375 ffbd
00000160: a6d3 743c d63a 3bbd 8fe1 f0bd 848e 4bbd
00000170: 32a0 db3d 83a8 b63d 5b1b c5bc 1229 233c
00000180: 65d8 0a3e 10ad 95bd 8171 bd3d d07c 0c3d
00000190: 7abb d63d e702 673e 2945 4fbe 5908 c5bc
000001a0: d428 313d 4e0e 40be 95e3 13bd 981b 3cbe
000001b0: 2e35 2f3e f61b 933d b3fc 413e d947 17be
000001c0: 4606 793d 0fd2 9a3d 0474 aebc 9cdd 033e
000001d0: dc13 4abe 784d 823d 220b bf3c 1b3f fabd
000001e0: 0f62 96bc 5ef8 e13e f80c 973e 7c2c 5c3d
000001f0: 4f0a 243e 29a0 34be 95a6 7abe a461 83be
00000200: 0d5d 07be b40f b7bc abca d8bc 3ce9 be3e
00000210: bf44 48bd 26ea 99be 4565 0b3e 8529 30bd
00000220: 812a 4ebe 4fa5 b43d 2834 82be 4933 febb
00000230: dff5 5bbe 4669 543d 1138 0bbe 66f1 4dbe
00000240: 6156 cfbd 7f1c 07bf a849 5f3c 2a2a 27be
00000250: b5f6 df3d eded 1fbe 45d6 323e ea1d 80be
00000260: 7daf c5bd b1fb 603e 6ace 9ebb d42d 80bd
00000270: 9982 1d3e a727 07be 497a 65bd 3075 1fbc
00000280: d6f5 f1bc 1d30 113e f3a1 bf3d a559 c53d
00000290: 5fc4 f03d 7197 193d 5754 ec3d 4dea 533d
000002a0: 1c67 e43d 82c6 b83d 4484 86bd f029 06be
000002b0: 1e7f 123e bf29 92bd e877 4abe a56d 173e
000002c0: fd3b 05be 1ce3 a3bd c221 f93c 9e79 75bd
000002d0: 7a05 1cbd 216f e23d 5f24 a13d 0438 4dbe
000002e0: 92bb 2cbe 40f8 b73c 15f2 b3bd c962 063e
000002f0: 8f1b 6d3e acd6 0b3e aa0c 77bd f46c 7b3c
00000300: d57b 3cbd e5a6 743c 3e13 43be 3510 31be
00000310: e9c6 673e 0943 a73e b1da 1dbe 4ed5 e7bd
00000320: da81 15be 5b9c 48be a3cf 00be d552 8fbe
00000330: cb54 1f3e aa98 debe 1cb1 3fbe a5cf 3cbc
00000340: a20a f03d 036c c2bd c2fe b73d 7bd5 dbbe
00000350: 95d7 583d 4a29 c0be 2019 8a3d d338 423d
00000360: c7ca 6b3d 6522 443d 85b8 083e 9998 9cbe
00000370: 98bf 0d3e 5688 6bbe 1379 ba3d 0283 db3d
00000380: 087c 4f3e 18f7 063c dd92 503d 6421 8bbe
00000390: bfa6 a53d c193 d7be 330d 9f3d e7f4 633d
000003a0: 75b6 3c3e 9bfa 84be 1b59 50be 4ff6 323e
000003b0: 8ff5 30be caeb 8cbe f67b 013e 42c3 06bd
000003c0: c1fc cbbb c76d 0c3e 0bcc 76be e51d ae3d
000003d0: 3e7f 1d3e 902f c0bd db88 0f3e 0434 d1be
000003e0: db80 373e d571 07bd 5aa4 413e d625 86bd
000003f0: 444b 1b3e 7e85 8fbd 00b3 133e e184 133e
0.1889731 0.15096176 0.031305835 0.119292006 -0.0024374365 0.034126017 -0.0077697653 0.026288107
0.11292257 -0.11981176 -0.06465586 0.0913627 0.059566233 -0.12087383 0.09157824 -0.01914788
-0.13094425 0.043452837 -0.17512637 0.014078118 0.21332464 0.063640565 -0.24815266 -0.3079864
0.059728105 -0.28017268 0.10743446 -0.050143182 0.062663555 0.13230936 0.089035176 -0.043311268
0.023097241 -0.14265424 0.13570724 0.10511845 0.15593211 0.049212925 0.119899705 -0.16397737
-0.009348916 0.16054405 -0.23331335 -0.21320438 -0.1093319 -0.88586897 -0.015202148 -0.072504885
-0.1269333 -0.07457758 0.0032218578 -0.15891278 0.031114256 -0.22114293 0.15644708 0.24450561
0.10994649 -0.03354063 0.015241682 0.23114862 0.097776115 -0.09801763 -0.030249884 -0.17517781
-0.19447899 0.16708407 0.052495982 0.08471904 0.0063922717 0.051764328 0.0066369805 -0.12341906
-0.18554533 -0.1784811 -0.13946906 0.04589105 -0.011490711 0.050702095 -0.09220847 0.116017036
0.15080309 -0.02757474 -0.01759642 0.09607471 -0.105317436 -0.032243814 0.019670783 -0.12473502
0.014943039 -0.045710407 -0.11761772 -0.04969646 0.10723914 0.0891886 -0.024060896 0.009958522
0.1355911 -0.073084 0.09250165 0.034298718 0.10484977 0.22559701 -0.20241226 -0.024051832
0.043251827 -0.18755457 -0.03610571 -0.18369901 0.1711013 0.071830675 0.18944053 -0.14773501
0.060797 0.07559597 -0.021295555 0.12877506 -0.19734138 0.06362432 0.023320738 -0.12219068
-0.018357305 0.44134802 0.29502082 0.05375336 0.16019557 -0.17639221 -0.24477609 -0.2566043
-0.1321909 -0.022346355 -0.026463827 0.3728732 -0.048893686 -0.30061454 0.1361285 -0.043008346
-0.20133401 0.088205926 -0.25430417 -0.0077575785 -0.21480511 0.05185821 -0.13595606 -0.20111617
-0.10123897 -0.52777857 0.013628401 -0.16324678 0.109357275 -0.15618105 0.1746455 -0.25022823
-0.09652612 0.21971013 -0.004846384 -0.06258741 0.1538185 -0.1319872 -0.056024823 -0.0097325295
-0.029536169 0.1417851 0.09357061 0.09636239 0.11756205 0.03749794 0.11539524 0.05173712
0.11152479 0.09022237 -0.065681964 -0.13101935 0.14306304 -0.07136869 -0.19772303 0.1478792
-0.13011165 -0.08002302 0.030411605 -0.059930436 -0.03809116 0.110563524 0.07868265 -0.200409
-0.16868427 0.022457242 -0.08786408 0.13123621 0.23155044 0.1365611 -0.06031481 0.015345801
-0.046016533 0.014932369 -0.19050309 -0.17291339 0.22634472 0.3266833 -0.15415455 -0.113199815
-0.14600316 -0.19590895 -0.12579207 -0.27992883 0.1555969 -0.43475848 -0.18719906 -0.011524116
0.11720778 -0.09493258 0.08984138 -0.4293631 0.05293997 -0.375315 0.067430735 0.047417473
0.05756643 0.047884364 0.13351639 -0.30585173 0.13842618 -0.23001227 0.09105124 0.10718347
0.20262158 0.008237623 0.05092131 -0.27173913 0.08088445 -0.42104915 0.077661894 0.05565348
0.18428977 -0.25972447 -0.20346491 0.17476772 -0.17281173 -0.27523643 0.12644944 -0.032901056
-0.006225199 0.13713752 -0.24101274 0.08501796 0.1538057 -0.09384072 0.1401705 -0.40859997
0.17920248 -0.033067543 0.18910351 -0.065501854 0.1516543 -0.070078835 0.14423752 0.14406158
