models/model_st.pt (torch, 615612 bytes, 47 tensors)

_encoder._conv_1.weight f4 [40, 80, 3]
-0.1865968 0.11267065 0.25302467 0.19620304 0.2279958 0.15648305 -0.26818076 -0.3731456
-0.5027045 -0.45669216 -0.51578975 -0.46532297 -0.21995537 -0.19275118 0.05169914 -0.22890936
-0.13773082 0.028115131 -0.04904676 -0.016790394 -0.08204368 0.0014002342 -0.026011033 -0.10550973
0.11094341 0.069574356 0.12589693 0.0004236433 0.08971135 0.13653947 0.22066101 0.16912717
0.012200833 0.10989149 0.069972694 0.1599563 -0.072602324 -0.094454035 0.029269468 -0.227252
-0.08149368 -0.12617974 -0.028401922 0.14699128 0.0994279 -0.076259844 -0.0639248 -0.011177494
-0.1423188 -0.20774691 -0.15475842 -0.15167771 -0.31100535 -0.20194627 -0.34362584 -0.4112118
-0.15173496 -0.40025038 -0.17865695 -0.06860948 -0.19748357 0.032689884 0.13607271 -0.034857277
0.15685202 0.08141384 0.096022926 0.12961079 0.10134673 0.15042056 0.19269353 0.022631288
0.17208943 0.06956227 0.10961403 0.12976168 0.09716773 0.13928355 0.050812177 0.006364004
0.054412156 0.04610376 0.07782172 0.06363474 0.18341659 0.22626035 0.14959721 0.1575923
0.11654006 0.124087915 0.03286989 -0.02906891 0.05944971 0.07260691 0.11257814 0.1213982
0.051708683 0.13239436 0.005318497 0.08842332 0.16101734 -0.08328753 0.010791074 0.14769053
0.03591697 -0.06764856 -0.0062453453 -0.00944444 0.068365425 0.111517295 0.17891274 0.07984955
0.15259789 0.1594464 0.100920394 0.009660486 0.20997572 -0.13066359 0.073724635 0.2688251
-0.046677813 0.09978368 0.28182745 0.0031893721 -0.028584301 0.14296174 -0.072267964 -0.02271836
0.21120992 -0.06411513 0.016360683 0.08452001 0.006817231 0.023809142 0.03901421 -0.08877654
-0.04443744 0.06271653 -0.11537581 0.035310023 0.08901064 0.018362394 -0.11904335 0.062375944
-0.039202172 -0.0015358428 -0.014027872 -0.17228398 -0.00171555 0.022238623 -0.1277804 -0.07806377
-0.029564848 0.070870675 -0.044897456 0.08691704 -0.0049139606 -0.060478285 0.093944356 0.06600693
0.02381833 0.08798591 0.13409415 -0.1132489 0.040640187 -0.14568906 -0.09443969 0.03819734
-0.06294545 -0.1423169 -0.025718588 -0.036122117 0.068883024 0.09163164 0.014281094 0.11035315
0.29514867 -0.10791943 -0.1305663 0.05522077 -0.011920061 0.042284414 0.23635326 -0.03110742
0.09634316 0.09614999 0.0034970446 0.063625075 0.2656756 -0.028598718 0.05144658 0.117155224
0.13402987 0.021975832 0.10659989 -0.033305686 -0.05325575 0.013942991 -0.121059336 -0.12061258
-0.047378354 -0.0030036054 -0.03468678 -0.0016647361 -0.19328348 -0.18956201 -0.1915811 -0.19324255
-0.15960737 -0.12853797 0.055879056 -0.08531514 0.056858107 -0.21089527 -0.06925108 -0.01578674
-0.07918237 -0.043154195 -0.048512865 -0.10877571 -0.22829784 -0.14315274 -0.03167382 -0.053674858
-0.1314602 0.002620088 -0.05595601 0.095300704 -0.05535558 -0.08676873 -0.027043372 -0.069541946
-0.04280465 -0.0087034 0.08025781 -0.13753553 -0.1153335 0.10225375 -0.02766777 0.09760326
-0.11852395 -0.04335062 0.0069548753 0.35238266 0.2646526 0.109395765 0.15774404 -0.043116044
-0.40315336 -0.026511064 -0.05229341 -0.3813561 -0.03415228 -0.03956729 -0.0057998924 0.10035751
00000000: 3b13 3fbe dfbf e63d 738c 813e 73e9 483e
00000010: bb77 693e 183d 203e fd4e 89be f10c bfbe
00000020: 3eb1 00bf 8ed3 e9be cc0a 04bf d03e eebe
00000030: fb3b 61be 9160 45be 7ac2 533d 3767 6abe
00000040: 4f09 0dbe b451 e63c 41e5 48bd 028c 89bc
00000050: 8406 a8bd 1088 b73a 1715 d5bc 7c15 d8bd
00000060: 4c36 e33d 007d 8e3d 20eb 003e 711c de39
00000070: 96ba b73d 01d1 0b3e f6f4 613e ac2f 2d3e
00000080: 01e6 473c ca0e e13d d84d 8f3d 96cb 233e
00000090: 87b0 94bd 1e71 c1bd 86c6 ef3c c0b4 68be
000000a0: 29e6 a6bd 4335 01be 26ab e8bc e284 163e
000000b0: dba0 cb3d 1f2e 9cbd 01eb 82bd cf21 37bc
000000c0: 05bc 11be 9bbb 54be fe78 1ebe 6751 1bbe
000000d0: 183c 9fbe 01cb 4ebe baef afbe 5a8a d2be
000000e0: 6960 1bbe 9eed ccbe d9f1 36be 2183 8cbd
000000f0: 2239 4abe d4e5 053d a556 0b3e 81c6 0ebd
00000100: d19d 203e 4dbc a63d aba7 c43d b1b8 043e
00000110: e08e cf3d d907 1a3e 7451 453e 4065 b93c
00000120: 3638 303e aa76 8e3d 527d e03d 3fe0 043e
00000130: e0ff c63d 59a0 0e3e 6e20 503d 2389 d03b
00000140: 48df 5e3d 4cd7 3c3d fe60 9f3d ee52 823d
00000150: 8fd1 3b3e cbb0 673e 0330 193e e05f 213e
00000160: 8eac ee3d ce21 fe3d 94a2 063d ec21 eebc
00000170: 8a81 733d eeb2 943d 5e8f e63d 9f9f f83d
00000180: 7ccc 533d 6392 073e c946 ae3b 4917 b53d
00000190: bbe1 243e a792 aabd 0bcd 303c 303c 173e
000001a0: ac1d 133d 548b 8abd c1a5 ccbb dabc 1abc
000001b0: 2c03 8c3d 2e63 e43d e734 373e 2988 a33d
000001c0: 9f42 1c3e eb45 233e 5aaf ce3d 0447 1e3c
000001d0: e003 573e adcc 05be f1fc 963d 72a3 893e
000001e0: 3c31 3fbd 635b cc3d b04b 903e c904 513b
000001f0: a029 eabc 9064 123e 3a01 94bd db1b babc
00000200: 6a47 583e cb4e 83bd d706 863c d418 ad3d
00000210: 1463 df3b 640b c33c 5dcd 1f3d 79d0 b5bd
00000220: 0804 36bd 8671 803d 274a ecbd 3ea1 103d
00000230: 364b b63d bb6c 963c 00cd f3bd eb7d 7f3d
00000240: 7592 20bd 554e c9ba 29d5 65bc 366b 30be
00000250: 4edc e0ba c62d b63c ddd8 02be e6df 9fbd
00000260: fb31 f2bc a524 913d 65e6 37bd 9001 b23d
00000270: 4a05 a1bb 14b8 77bd e665 c03d a42e 873d
00000280: a91e c33c f531 b43d fa4f 093e 0aef e7bd
00000290: 5376 263d 832f 15be 9969 c1bd d074 1c3d
000002a0: 8be9 80bd 85bb 11be caaf d2bc c9f4 13bd
000002b0: 8b12 8d3d 5fa9 bb3d 40fb 693c d500 e23d
000002c0: ba1d 973e dd04 ddbd 2cb3 05be 2d2f 623d
000002d0: 5c4c 43bc 6c32 2d3d 9706 723e fdd4 febc
000002e0: 904f c53d 49ea c43d ac2e 653b dd4d 823d
000002f0: a206 883e dc47 eabc a6b9 523d 14ef ef3d
00000300: 203f 093e a906 b43c 0b51 da3d 8b6b 08bd
00000310: b422 5abd 2571 643c f5ed f7bd ba03 f7bd
00000320: ce0f 42bd 23d8 44bb ba13 0ebd 4633 daba
00000330: 1bec 45be 8b1c 42be d62d 44be 60e1 45be
00000340: 1d70 23be 759f 03be 70e1 643d b4b9 aebd
00000350: 0ce4 683d eef4 57be 83d3 8dbd 3253 81bc
00000360: 5e2a a2bd 74c2 30bd 6db5 46bd cdc5 debd
00000370: e9c6 69be a296 12be 68bc 01bd 2bda 5bbd
00000380: 819d 06be c8b5 2b3b 2132 65bd 042d c33d
00000390: 88bc 62bd ceb3 b1bd 108a ddbc 026c 8ebd
000003a0: ee53 2fbd b598 0ebc 355e a43d 1dd6 0cbe
000003b0: f833 ecbd 6a6a d13d 85a7 e2bc 38e4 c73d
000003c0: afbc f2bd 6b90 31bd b9e5 e33b 806b b43e
000003d0: 8c80 873e e30a e03d a787 213e 739a 30bd
000003e0: 1e6a cebe bb2d d9bc 9d31 56bd 1b41 c3be
000003f0: 43e3 0bbd 5011 22bd 060d bebb 3d88 cd3d

_encoder._conv_1.bias f4 [40]
-0.4252914 0.9370466 1.3073245 -0.46237174 -0.20780388 -1.3506635 -1.5212095 2.028659
-0.3400317 -0.21453127 -0.5057193 -0.2726949 -0.6748348 0.8999417 -0.2107088 -0.25547573
-0.047589928 -1.0033537 -1.2555047 0.35790554 -1.6817884 -1.27656 0.22534531 -1.0630426
-0.31961253 0.394675 -0.61884725 1.0025982 -0.43420103 -0.4793217 -0.80984056 0.86307806
0.14659785 -0.9403802 0.757089 0.4605528 1.9663574 -0.40447664 0.97709996 -0.18096335
00000000: cbbf d9be 49e2 6f3f 6956 a73f fdbb ecbe
00000010: 8aca 54be 8be2 acbf feb6 c2bf 8dd5 0140
00000020: a318 aebe 16ae 5bbe d276 01bf aa9e 8bbe
00000030: f9c1 2cbf 9462 663f 0cc4 57be b7cd 82be
00000040: a8ed 42bd e56d 80bf 61b4 a0bf 653f b73e
00000050: d844 d7bf 5166 a3bf ecc0 663e c811 88bf
00000060: 41a4 a3be d712 ca3e c66c 1ebf 2355 803f
00000070: 994f debe a769 f5be b651 4fbf aff2 5c3f
00000080: bf1d 163e c2bc 70bf 96d0 413f 94cd eb3e
00000090: 99b1 fb3f 9017 cfbe 3923 7a3f 754e 39be

_encoder._residual_stack_1.conv_layers.0.weight f4 [40, 40, 3]
0.012319775 0.002184371 -0.04882229 -0.11958502 0.037064094 -0.24300097 -0.60890967 -0.06692695
0.20191605 -0.3089413 -0.16998176 -0.17862742 0.148567 0.19203374 0.29457986 0.463971
0.12341799 -0.107173786 -0.4954434 -0.30095527 0.05193672 -0.021536758 0.17882477 0.20303668
-0.010460151 0.23132749 0.11992604 0.29901856 0.18288518 0.040449772 -0.29871237 -0.118673235
0.019684987 -0.32832146 -0.29894185 0.1103121 0.5701113 0.21573561 -0.026323887 0.096963786
-0.3709699 -0.29402602 -0.12453464 -0.008128255 -0.030056596 0.8700014 0.6992272 0.42159635
0.2888997 0.16755249 -0.08858743 0.016000304 0.11016061 0.09640921 0.09303706 0.110077925
-0.024148114 -0.0764671 0.10534444 0.43124726 0.08209461 0.17528214 0.14138907 -0.23036748
0.012616774 0.008820293 -0.25036037 -0.31648257 -0.19545875 0.2781677 0.3227068 0.55938005
0.08634684 -0.008364503 0.0948851 -0.10777446 0.22728312 0.45859393 0.05811225 -0.13502902
-0.12993686 -0.48967394 -0.29528978 0.0738751 -0.0061280536 -0.010120021 -0.15993407 0.2848524
0.28078353 0.21246445 0.40343508 0.15173429 0.10786953 -0.052302543 -0.014565647 0.25755018
0.10750107 0.12440979 0.30096257 0.16044201 0.29099882 -0.0807404 0.16276424 0.10699838
-0.04757681 0.1464036 -0.10372429 -0.107938804 -0.19300507 -0.24841069 -0.39729574 -0.057264417
-0.22335055 0.06357401 0.037137624 -0.14194159 -0.10890617 -0.21312359 0.027526848 0.10077195
0.35014424 0.2869425 0.31837237 -0.1822647 -0.06330388 -0.28509197 0.1450911 0.009921207
-0.073778525 0.07834603 0.03911891 -0.19067149 0.3362576 0.19826692 -0.023786943 0.12177558
-0.022490177 -0.0472412 0.37204516 0.4770708 0.57061785 0.082719825 -0.09409135 -0.046608612
0.18617275 0.0590243 0.1296359 0.15454869 -0.02854467 -0.12709081 0.029321013 -0.07985898
-0.23552099 0.21759945 0.13134047 -0.019235231 0.01723063 0.12337804 -0.05420123 0.011607778
0.18401438 -0.14118306 -0.0037729354 -0.046176728 -0.10523161 0.39456555 0.44715607 0.3188807
0.28138193 0.16311687 0.39547324 -0.101053596 -0.077882394 0.067257375 0.14670452 0.057069328
0.06736354 0.1361939 -0.07346274 0.057315513 0.081108674 0.22565188 -0.2690667 0.032584675
0.34870636 -0.23621465 -0.18918237 -0.3140703 -0.281164 0.12903431 0.1932535 0.15607159
0.10516397 0.19443373 0.16348496 0.35845333 0.18843773 0.3258066 0.14896305 0.09123992
-0.202554 0.05035012 0.0057003875 0.16205692 -0.20862462 0.0447809 -0.11470376 -0.05107543
0.07198624 0.1322319 0.13986003 0.25191706 0.19054347 0.2489757 0.004949661 -0.14468853
0.5996766 0.31299382 0.35649845 -0.17323025 0.02557264 0.20787816 -0.43484667 -0.11487133
0.13331024 -0.19467302 0.13611253 0.25509042 -0.10230526 0.0076663783 0.14368317 0.2689038
0.01250525 -0.30330938 -0.1624328 -0.15855539 -0.059250947 0.08727052 -0.04765645 -0.019388348
-0.004045854 0.021729048 0.06957647 0.03063076 -0.03357081 -0.10038468 0.1997505 -0.28216738
-0.045023825 0.07734473 0.093180336 0.13060758 0.049960833 -0.07335176 -0.11030497 -0.26467744
00000000: e2d8 493c aa27 0f3b e2f9 47bd fee8 f4bd
00000010: 85d0 173d 3fd5 78be 81e1 1bbf ff10 89bd
00000020: 15c3 4e3e 8e2d 9ebe b30f 2ebe 1bea 36be
00000030: f321 183e 7ea4 443e 2cd3 963e 9b8d ed3e
00000040: 92c2 fc3d ee7d dbbd c2aa fdbe cf16 9abe
00000050: 99bb 543d db6d b0bc d71d 373e d9e8 4f3e
00000060: 0e61 2bbc 1de1 6c3e c99b f53d f618 993e
00000070: 4146 3b3e a9ae 253d d4f0 98be f40a f3bd
00000080: 6942 a13c c019 a8be e80e 99be 4feb e13d
00000090: d0f2 113f cce9 5c3e 31a5 d7bc f394 c63d
000000a0: c4ef bdbe 948a 96be 040c ffbd 5f2c 05bc
000000b0: 4039 f6bc 69b8 5e3f 8e00 333f 7adb d73e
000000c0: a9ea 933e e192 2b3e 546d b5bd 1213 833c
000000d0: e39b e13d 3172 c53d 378a be3d 8970 e13d
000000e0: 44d2 c5bc c89a 9cbd d3be d73d 71cc dc3e
000000f0: 3821 a83d 297d 333e 4cc8 103e 74e5 6bbe
00000100: 96b6 4e3c fd82 103c 3c2f 80be 010a a2be
00000110: 5726 48be ff6b 8e3e d339 a53e 8833 0f3f
00000120: 9dd6 b03d 450b 09bc 1f53 c23d dbb8 dcbd
00000130: e8bc 683e d3cc ea3e 1c07 6e3d 0c45 0abe
00000140: 2b0e 05be 8bb6 fabe 3930 97be d44b 973d
00000150: d7cd c8bb 72ce 25bc c2c5 23be 2cd8 913e
00000160: dcc2 8f3e 4890 593e 0b8f ce3e 3c60 1b3e
00000170: b3ea dc3d 313b 56bd c0a4 6ebc 9edd 833e
00000180: 8529 dc3d 8fca fe3d c417 9a3e e94a 243e
00000190: ccfd 943e 395b a5bd abab 263e f721 db3d
000001a0: e7df 42bd d3ea 153e 676d d4bd 050f ddbd
000001b0: 1fa3 45be 5f5f 7ebe 596a cbbe 188e 6abd
000001c0: 02b6 64be 1733 823d 9f1d 183d 2359 11be
000001d0: 330a dfbd 123d 5abe fc7f e13c 8661 ce3d
000001e0: 1b46 b33e 21ea 923e b401 a33e 99a3 3abe
000001f0: 77a5 81bd 93f7 91be c392 143e 8f8c 223c
00000200: 3219 97bd e273 a03d 263b 203d 633f 43be
00000210: f529 ac3e 7c06 4b3e d6dc c2bc 7a65 f93d
00000220: 523d b8bc fd7f 41bd b47c be3e a042 f43e
00000230: 0314 123f 0369 a93d f7b2 c0bd ace8 3ebd
00000240: 12a4 3e3e 77c3 713d 46bf 043e 0342 1e3e
00000250: 83d6 e9bc 1824 02be 9f32 f03c 1b8d a3bd
00000260: 6a2c 71be 64d2 5e3e 1e7e 063e 3493 9dbc
00000270: 4027 8d3c a0ad fc3d 1c02 5ebd 8d2e 3e3c
00000280: 446e 3c3e 4b92 10be 5a43 77bb cf23 3dbd
00000290: ac83 d7bd 7f04 ca3e a4f1 e43e 5544 a33e
000002a0: 4b11 903e 1c08 273e 787b ca3e 30f5 cebd
000002b0: ce80 9fbd 3cbe 893d b639 163e 87c1 693d
000002c0: e5f5 893d 6a76 0b3e a273 96bd acc3 6a3d
000002d0: 4e1c a63d 4911 673e 1cc3 89be 8277 053d
000002e0: a489 b23e 41e2 71be 06b9 41be d3cd a0be
000002f0: baf4 8fbe 9221 043e 3fe4 453e 3bd1 1f3e
00000300: 3560 d73d a319 473e 9a68 273e 3287 b73e
00000310: d2f5 403e 1fd0 a63e c589 183e ffdb ba3d
00000320: 516a 4fbe ed3b 4e3d 51ca ba3b 40f2 253e
00000330: b1a1 55be 2d6c 373d cee9 eabd 7834 51bd
00000340: 866d 933d cd67 073e 7837 0f3e 46fb 803e
00000350: d41d 433e 7cf3 7e3e c430 a23b 3b29 14be
00000360: 6884 193f ba40 a03e f786 b63e 4563 31be
00000370: b77d d13c 03de 543e 39a4 debe a941 ebbd
00000380: 7b82 083e 5d58 47be 1561 0b3e 369b 823e
00000390: 6c85 d1bd 3e36 fb3b ae21 133e c2ad 893e
000003a0: d2e2 4c3c 5e4b 9bbe c954 26be 585c 22be
000003b0: 1fb1 72bd e3ba b23d 6933 43bd 50d4 9ebc
000003c0: 1593 84bb 1e01 b23c 1c7e 8e3d 5ced fa3c
000003d0: 8c81 09bd 7c96 cdbd 658b 4c3e 3e78 90be
000003e0: e76a 38bd ea66 9e3d 55d5 be3d febd 053e
000003f0: bba3 4c3d 7339 96bd 92e7 e1bd cd83 87be

_encoder._residual_stack_1.conv_layers.0.bias f4 [40]
-0.97201943 -2.2602131 -0.8713651 -1.9734334 -1.1401323 -0.13157149 -0.9486493 -0.65513784
-0.9270893 -1.0961204 -3.5818133 -1.3475676 -1.3922025 -1.5221113 0.408343 0.5212921
-0.8488852 -1.2484182 -1.5210801 -0.7500002 0.21223828 -0.7141901 -1.4907767 -1.122929
-0.40259117 -1.3537786 -1.1921805 -1.6840968 -0.29464915 -1.2544991 -1.1200399 -0.5719992
-0.5820943 0.49104267 -0.81406224 -0.12928021 -1.1051489 -1.2190789 -1.1791902 -0.92237824
00000000: 44d6 78bf 55a7 10c0 c811 5fbf 7799 fcbf
00000010: dbef 91bf adba 06be aeda 72bf 1db7 27bf
00000020: b955 6dbf ac4d 8cbf 6e3c 65c0 187d acbf
00000030: b133 b2bf 8bd4 c2bf 5512 d13e 6673 053f
00000040: 8a50 59bf 2bcc 9fbf c1b2 c2bf 0300 40bf
00000050: fe54 593e 2ad5 36bf c5d1 bebf 23bc 8fbf
00000060: 6e20 cebe 9e48 adbf 5f99 98bf 7c90 d7bf
00000070: 41dc 96be 6d93 a0bf 785d 8fbf 8a6e 12bf
00000080: 2204 15bf f269 fb3e 6266 50bf 0862 04be
00000090: 8575 8dbf c70a 9cbf b4ef 96bf fb20 6cbf

_encoder._residual_stack_1.conv_layers.1.weight f4 [40, 40, 3]
-0.11698269 -0.11375959 -0.07612111 -0.030471036 -0.10756747 -0.13169649 -0.117467165 -0.19920449
-0.024118701 -0.072253995 -0.023287348 -0.11068566 0.07211492 -0.16947834 -0.109695986 -0.18129998
-0.10060463 -0.117436685 -0.1254226 0.029327944 -0.045741454 -0.07917622 -0.09086033 0.06968901
-0.054686572 0.011546649 -0.009078381 -0.3293066 -0.09758527 -0.06894781 -0.16030139 -0.016762504
-0.004670576 -0.0175746 -0.022705058 -0.096924484 -0.16388026 -0.29418182 -0.36964995 0.04638428
-0.053239234 -0.11892756 -0.24058087 -0.16109675 -0.24243914 0.032644942 -0.13637924 -0.22589111
-0.14362486 -0.00705309 -0.0033723433 -0.18899319 0.02589728 -0.141316 -0.19177511 -0.05302153
-0.041902732 -0.107943416 0.027832279 0.053051263 -0.17244363 -0.037966687 -0.038178533 -0.06436077
-0.052291 -0.051095325 -0.20260678 -0.1132777 -0.22846465 0.049417306 0.03505107 0.02108437
-0.0464844 -0.055864323 -0.14990807 0.11732271 -0.18891896 -0.15549065 -0.06348454 -0.100668706
-0.10610318 -0.21635374 -0.18271428 -0.14376661 -0.23183666 -0.10443713 0.05712434 -0.084375896
-0.29958642 -0.30875206 -0.022905348 -0.15483174 -0.06596454 -0.14667036 -0.25964993 -0.13522731
-0.05124432 -0.057887115 -0.029204257 -0.31925753 -0.08717811 -0.121648945 0.110293806 0.025028184
0.037721556 -0.16001269 -0.024640167 -0.05255041 -0.15262029 -0.038674146 -0.055925798 -0.09685046
-0.0011256943 0.065921195 -0.05041445 -0.052170925 -0.13325661 0.02082764 -0.18793584 -0.1833466
-0.21311377 -0.10099647 -0.020430895 -0.17125325 -0.15094969 -0.26028645 -0.38917536 -0.16525888
0.054206017 0.11712902 0.08208571 0.115003034 -0.14307326 -0.26371124 -0.4894683 -0.35371998
-0.36961663 -0.62265956 -0.060235918 -0.00960093 0.11563149 -0.060097214 0.083687745 -0.17927521
-0.12731895 -0.08509569 -0.09047212 -0.11156487 0.022440238 -0.23366399 0.079884484 0.087210245
0.027252281 -0.16069864 -0.26376018 -0.32778674 -0.26332924 -0.564347 -0.714337 -0.09618589
-0.28731444 0.015414377 -0.4109472 -0.5715535 -0.4316565 -0.18144394 -0.16195805 -0.1738454
-0.1623509 -0.11067621 -0.41943157 0.08829001 0.10737018 -0.16217549 0.07667587 -0.008298097
-0.25671864 -0.32955232 -0.12215128 -0.08975194 0.256788 0.08378087 0.0037645951 0.02881956
-0.067577355 0.034775563 0.012523558 -0.051061068 -0.10976904 -0.088015996 0.18612745 0.028320549
-0.18202718 -0.20654297 -0.08763105 -0.122345634 -0.11832843 -0.10131452 -0.119985536 -0.34129143
-0.3068999 -0.00074634596 -0.06067047 0.015781913 0.13337317 0.022177082 -0.017604329 0.16291615
-0.11430511 -0.39705014 -0.19922629 -0.22973906 -0.0394389 -0.070500754 -0.12018679 -0.3713839
-0.054076713 -0.016080057 -0.12388855 0.029230833 -0.08039828 -0.30889913 -0.1844761 -0.0039350013
0.11272532 -0.0077287224 -0.025765978 -0.021108037 0.017610233 0.0792241 0.011915345 -0.15834594
-0.08867573 0.020455532 -0.2930125 -0.2981772 -0.34356314 -0.11828772 -0.30549535 0.080215715
0.022370806 -0.0014192698 -0.087209724 -0.121755354 0.2584805 -0.05903693 -0.04111371 -0.14817928
-0.19862008 0.07672979 0.041863672 -0.13604409 0.037575837 0.14304592 0.062807396 0.19467856
00000000: 9f94 efbd cafa e8bd 62e5 9bbd 659e f9bc
00000010: 554c dcbd 72db 06be a092 f0bd 43fc 4bbe
00000020: 9594 c5bc e7f9 93bd 1cc5 bebc 2aaf e2bd
00000030: fdb0 933d bb8b 2dbe 4aa8 e0bd b4a6 39be
00000040: cd09 cebd a582 f0bd c86e 00be 2841 f03c
00000050: 645b 3bbd 2427 a2bd fb14 babd 1db9 8e3d
00000060: 07ff 5fbd 282e 3d3c 7dbd 14bc e09a a8be
00000070: c9da c7bd 8234 8dbd 0c26 24be 8551 89bc
00000080: a20b 99bb 9cf8 8fbc f5ff b9bc 5880 c6bd
00000090: 3ad0 27be 009f 96be c242 bdbe 71fd 3d3d
000000a0: 6211 5abd 4b90 f3bd d55a 76be 8cf6 24be
000000b0: f741 78be b4b6 053d 00a7 0bbe 0050 67be
000000c0: 6512 13be 9b1d e7bb 8802 5dbb 6e87 41be
000000d0: 8826 d43c 24b5 10be b260 44be 1b2d 59bd
000000e0: 33a2 2bbd 7011 ddbd 8500 e43c 484c 593d
000000f0: 1095 30be f582 1bbd 1861 1cbd 94cf 83bd
00000100: 162f 56bd 5549 51bd 2778 4fbe 24fe e7bd
00000110: a3f2 69be cd69 4a3d b691 0f3d 21b9 ac3c
00000120: 6d66 3ebd fdd1 64bd 8081 19be e446 f03d
00000130: f973 41be f138 1fbe 2f04 82bd 652b cebd
00000140: a04c d9bd d68b 5dbe 7419 3bbe 8e37 13be
00000150: 9766 6dbe 22e3 d5bd 36fb 693d 45cd acbd
00000160: 6463 99be c014 9ebe ffa3 bbbc 368c 1ebe
00000170: 6b18 87bd c130 16be d6f0 84be 0779 0abe
00000180: 90e5 51bd 0a1b 6dbd c43d efbc b975 a3be
00000190: 708a b2bd 1523 f9bd b8e1 e13d e807 cd3c
000001a0: eb81 1a3d 5eda 23be 2dda c9bc 193f 57bd
000001b0: 7e48 1cbe c868 1ebd 7312 65bd 8959 c6bd
000001c0: 088c 93ba b101 873d 627f 4ebd 2eb1 55bd
000001d0: 6c74 08be ba9e aa3c 4172 40be 36bf 3bbe
000001e0: 7f3a 5abe 3dd7 cebd b15e a7bc 035d 2fbe
000001f0: 8e92 1abe 4444 85be fe41 c7be a039 29be
00000200: 2107 5e3d 57e1 ef3d 8d1c a83d b686 eb3d
00000210: cc81 12be 2905 87be 979b fabe c91a b5be
00000220: 643e bdbe 9e66 1fbf f0b9 76bd 384d 1dbc
00000230: 34d0 ec3d 7f28 76bd 7b64 ab3d ec93 37be
00000240: e65f 02be a646 aebd 7249 b9bd 1f7c e4bd
00000250: 97d4 b73c 9d45 6fbe 7a9a a33d 499b b23d
00000260: 2d40 df3c 2f8e 24be 930b 87be aad3 a7be
00000270: 17d3 86be 0c79 10bf cade 36bf 1cfd c4bd
00000280: e11a 93be 958c 7c3c ac67 d2be 5551 12bf
00000290: 1502 ddbe 71cc 39be 55d8 25be 8704 32be
000002a0: 503f 26be 35aa e2bd bcbf d6be 65d1 b43d
000002b0: e6e4 db3d 5511 26be 3d08 9d3d bef4 07bc
000002c0: a070 83be 15bb a8be 732a fabd ddcf b7bd
000002d0: b779 833e 4e95 ab3d 6db7 763b ff16 ec3c
000002e0: ff65 8abd d270 0e3d 9c2f 4d3c 6925 51bd
000002f0: 97ce e0bd bb41 b4bd 3298 3e3e 7f00 e83c
00000300: 5565 3abe 0080 53be e877 b3bd 5990 fabd
00000310: 2d56 f2bd fd7d cfbd faba f5bd c0bd aebe
00000320: fc21 9dbe 6ea6 43ba 9981 78bd 1249 813c
00000330: fa92 083e b6ac b53c f436 90bc 7ed3 263e
00000340: cc18 eabd 284a cbbe fa01 4cbe b740 6bbe
00000350: af8a 21bd b362 90bd 7e24 f6bd 0826 bebe
00000360: 8b7f 5dbd 53ba 83bc 48b9 fdbd 8075 ef3c
00000370: daa7 a4bd 0728 9ebe 4ee7 3cbe 2ff1 80bb
00000380: 88dc e63d 3941 fdbb 2c13 d3bc c3ea acbc
00000390: 5643 903c 3f40 a23d 9438 433c 7025 22be
000003a0: 9f9b b5bd 5c92 a73c bc05 96be afaa 98be
000003b0: 82e7 afbe d540 f2bd e369 9cbe 2348 a43d
000003c0: fb42 b73c cb06 baba 039b b2bd df5a f9bd
000003d0: 8e57 843e b5d0 71bd d966 28bd 4fbc 17be
000003e0: 1063 4bbe 8224 9d3d 3e79 2b3d 244f 0bbe
000003f0: 1fe9 193d a17a 123e 2aa1 803d d159 473e

_encoder._residual_stack_1.conv_layers.1.bias f4 [40]
-0.3061777 -0.8490676 -0.32157037 -0.8044544 -1.0067985 -1.1258181 -0.23833731 -0.20113398
-0.15608953 -1.9325325 -0.6898998 -0.39805692 -0.60575235 -0.683604 -0.39477846 -0.33184698
-0.8491474 -0.6675206 -0.94736105 -0.38211563 -0.805151 -0.12924732 -0.59052956 0.15290272
-0.75053805 -1.3135309 -0.16235574 -0.301055 -0.1636619 -0.59628046 -0.7688859 -0.62327635
-0.6910218 -0.23092788 -0.65782815 -0.046982262 -0.5032124 -0.7539924 -0.68763524 -0.748443
00000000: 53c3 9cbe 7f5c 59bf dfa4 a4be b9f0 4dbf
00000010: c6de 80bf cf1a 90bf b20e 74be 11f6 4dbe
00000020: efd5 1fbe 3a5d f7bf 469d 30bf 1ece cbbe
00000030: 9612 1bbf ac00 2fbf 6720 cabe d9e7 a9be
00000040: b961 59bf a1e2 2abf 4186 72bf a9a4 c3be
00000050: 601e 4ebf 6959 04be f22c 17bf 8892 1c3e
00000060: 4323 40bf c821 a8bf 9540 26be e223 9abe
00000070: fc96 27be d6a5 18bf b5d5 44bf 0a8f 1fbf
00000080: cee6 30bf 5c78 6cbe 6d67 28bf 7970 40bd
00000090: 87d2 00bf a505 41bf dd08 30bf f699 3fbf

_encoder._residual_stack_1.conv_layers.2.weight f4 [40, 40, 3]
-0.2121804 -0.21972384 -0.15694265 -0.03658608 -0.26479074 0.002487804 0.047766082 -0.2946511
0.20913912 0.15292007 -0.050749954 -0.0015452778 -0.011525705 -0.01189148 0.04125476 -0.14963162
0.09591728 -0.028725881 0.08736302 -0.013452864 -0.26271373 -0.087405056 -0.14617318 -0.050431974
0.023127975 0.07784821 -0.13492054 -0.06001376 -0.115079045 -0.03903795 0.14196622 -0.19415142
-0.09516433 0.099451385 -0.019542605 -0.03807488 -0.25803712 -0.0056984485 0.19733678 0.056052778
0.013827902 -0.11070894 -0.058715317 0.0389764 0.12093102 0.37204614 0.28893986 0.08073704
0.016874842 0.33163846 0.27565816 0.045406207 0.11821796 0.18438677 0.019252518 0.16458027
-0.09210138 -0.38888118 -0.14385302 -0.13485739 -0.16344866 0.24605095 -0.1039736 0.118273616
0.05956584 -0.10373031 0.0040025976 -0.0557712 -0.110795446 0.11175344 0.045923278 -0.14156166
-0.014270585 -0.17868295 0.2785174 -0.020676304 0.029339936 -0.06449919 0.027646601 0.034556277
-0.03807024 -0.0052774735 0.02528966 -0.11440041 -0.098536946 0.08626965 -0.10653543 0.17231263
0.13346598 -0.063909546 0.05806871 0.00022071294 0.12593034 0.07018835 -0.025731403 -0.11885382
-0.11285306 -0.25857353 -0.3129663 -0.070226416 -0.026753113 0.4232681 -0.100578934 0.05905262
0.049125034 -0.14030364 0.16243997 0.12252736 0.043964185 -0.050238293 -0.056943744 -0.09234059
0.10375378 -0.027248606 -0.050991975 -0.00038498497 0.12669761 -0.2618002 -0.24453571 -0.09617237
0.020169906 0.0011275635 -0.065097384 -0.17434758 -0.09829888 0.045964662 -0.35634556 -0.03269705
-0.10927998 -0.18584514 -0.13086641 0.20848855 0.05176624 -0.19176596 -0.3921344 -0.116581775
-0.0901909 -0.13280776 -0.32842985 -0.10765178 -0.042823814 -0.18954545 -0.22080094 -0.06286657
-0.09633384 -0.053755283 0.01811569 0.050582852 0.06314295 -0.38247496 -0.10078297 -0.04621743
0.06585675 0.028010838 -0.055224594 -0.014438335 -0.021885099 0.030082652 0.04241263 0.10160682
-0.06796247 0.10913698 -0.24798782 -0.37669843 -0.22564687 0.18483692 -0.03959798 -0.29363602
-0.11186922 0.16852199 -0.13181224 -0.071851596 -0.054041196 -0.13970268 -0.1609003 0.22455056
0.07506077 0.08368068 0.12601459 0.21700129 -0.2819938 -0.35395005 0.03754299 -0.114085525
-0.12976156 -0.08183191 -0.2655164 -0.11649864 -0.1578641 -0.26159438 -0.20127074 -0.41520348
-0.0715297 0.24655089 0.025100902 -0.15229845 -0.54045504 -0.022136917 0.040523827 0.06459162
-0.038374573 0.23630892 -0.32431102 -0.17800799 -0.0057202447 -0.42473254 -0.06795004 0.06604966
0.04233237 -0.06818815 0.062423658 -0.0816842 0.01046338 0.06117587 -0.0047185514 0.12707603
-0.082559615 -0.039086096 0.15365182 0.04484478 0.09414271 0.34250894 -0.08723085 -0.13253498
0.22924295 0.78403974 -0.098532036 -0.077116825 -0.10921806 -0.014114068 -0.026198851 0.29225338
0.11765311 0.13950063 0.2298841 -0.3183388 -0.54896903 0.12570915 -0.085847415 -0.09378136
-0.10870137 0.09979914 0.04911975 -0.10307306 -0.04412557 0.08900164 -0.32734162 -0.37735155
-0.3013749 -0.12715499 -0.4011069 -0.16929023 -0.057692215 -0.04943192 -0.1788777 0.017624108
00000000: d245 59be 49ff 60be 93b5 20be 49db 15bd
00000010: a792 87be 6d0a 233b 5ea6 433d 82dc 96be
00000020: 9128 563e 1497 1c3e 2fdf 4fbd eb8a caba
00000030: 50d6 3cbc 7bd4 42bc c0fa 283d 0839 19be
00000040: 4770 c43d 8a52 ebbc 62eb b23d 6769 5cbc
00000050: 6a82 86be 6c01 b3bd 6cae 15be c291 4ebd
00000060: e176 bd3c e26e 9f3d 9c28 0abe fdd0 75bd
00000070: 90ae ebbd 42e6 1fbd 985f 113e a1cf 46be
00000080: 84e5 c2bd 2bad cb3d d017 a0bc 68f4 1bbd
00000090: 711d 84be 0dba babb a712 4a3e 9997 653d
000000a0: 6d8e 623c 5ebb e2bd 797f 70bd b8a5 1f3d
000000b0: afaa f73d d57c be3e edef 933e 7659 a53d
000000c0: 1c3d 8a3c 84cc a93e 1123 8d3e dcfb 393d
000000d0: 421c f23d e3cf 3c3e 75b7 9d3c bb87 283e
000000e0: a69f bcbd 6f1b c7be 354e 13be 0e18 0abe
000000f0: 165f 27be c8f4 7b3e 1cf0 d4bd 7039 f23d
00000100: 4ffb 733d 8f70 d4bd 3928 833b 5870 64bd
00000110: b9e8 e2bd fdde e43d 0c1a 3c3d 8af5 10be
00000120: 2ccf 69bc aaf8 36be d599 8e3e 5a61 a9bc
00000130: 4e5a f03c 2718 84bd 207b e23c e28a 0d3d
00000140: 8aef 1bbd a8ee acbb 432c cf3c c34a eabd
00000150: bdcd c9bd 24ae b03d 3f2f dabd b972 303e
00000160: 4eab 083e 02e3 82bd 75d9 6d3d 2e6f 6739
00000170: e2f3 003e e9be 8f3d aaca d2bc a269 f3bd
00000180: 811f e7bd c063 84be 1e3d a0be ded2 8fbd
00000190: 5829 dbbc 99b6 d83e 54fc cdbd 29e1 713d
000001a0: 5537 493d c2ab 0fbe aa56 263e a0ef fa3d
000001b0: ca13 343d abc6 4dbd d83d 69bd 101d bdbd
000001c0: dd7c d43d 7838 dfbc f6dc 50bd cfd7 c9b9
000001d0: 05bd 013e ad0a 86be 9267 7abe 05f6 c4bd
000001e0: 5c3b a53c c1ca 933a c751 85bd 2c88 32be
000001f0: ec50 c9bd 7145 3c3d ed72 b6be 58ed 05bd
00000200: 2fce dfbd 304e 3ebe d801 06be 067e 553e
00000210: d608 543d 4c5e 44be d7c5 c8be 6dc2 eebd
00000220: 02b6 b8bd c2fe 07be f527 a8be 8978 dcbd
00000230: 0668 2fbd 3418 42be a419 62be 30c0 80bd
00000240: ad4a c5bd 802e 5cbd 5b67 943c f72f 4f3d
00000250: 1751 813d c2d3 c3be 4d67 cebd 7d4e 3dbd
00000260: e7df 863d fc76 e53c 2f33 62bd c48e 6cbc
00000270: 6148 b3bc e56f f63c deb8 2d3d 3d17 d03d
00000280: e82f 8bbd 3583 df3d 85f0 7dbe 9ede c0be
00000290: f90f 67be e445 3d3e 7e31 22bd 7657 96be
000002a0: b11b e5bd 0791 2c3e caf9 06be ee26 93bd
000002b0: 4d5a 5dbd 380e 0fbe 0cc3 24be 95f0 653e
000002c0: 76b9 993d c760 ab3d f809 013e 9635 5e3e
000002d0: 7e61 90be f138 b5be aec6 193d aca5 e9bd
000002e0: 37e0 04be 7d97 a7bd c4f1 87be d796 eebd
000002f0: 20a7 21be b3ef 85be eb19 4ebe 8d95 d4be
00000300: 2a7e 92bd d677 7c3e 68a0 cd3c 20f4 1bbe
00000310: 435b 0abf 7b58 b5bc 50fc 253d 9c48 843d
00000320: a82e 1dbd f7fa 713e 180c a6be ba47 36be
00000330: e470 bbbb 8b76 d9be 6429 8bbd 0b45 873d
00000340: b564 2d3d 3ba6 8bbd f3af 7f3d 0c4a a7bd
00000350: 996e 2b3c 8d93 7a3d 149e 9abb 3820 023e
00000360: 0415 a9bd be18 20bd e756 1d3e 29af 373d
00000370: e5cd c03d 555d af3e 16a6 b2bd 40b7 07be
00000380: aabe 6a3e d4b6 483f 2acb c9bd 6def 9dbd
00000390: b8ad dfbd b13e 67bc f99e d6bc 3ca2 953e
000003a0: 1df4 f03d 41d9 0e3e bd66 6b3e 4efd a2be
000003b0: 3c89 0cbf e6b9 003e c5d0 afbd 7110 c0bd
000003c0: d39e debd 7e63 cc3d ca31 493d f817 d3bd
000003d0: 04bd 34bd 7e46 b63d 5299 a7be 3934 c1be
000003e0: d04d 9abe eb34 02be e25d cdbe 6b5a 2dbe
000003f0: ac4e 6cbd 2079 4abd b72b 37be 6f60 903c

_encoder._residual_stack_1.conv_layers.2.bias f4 [40]
-0.36325592 0.7479431 -1.4378277 -0.45274886 -0.4438762 -0.7988719 -1.2215102 -0.23616809
-0.77936053 0.64417636 -0.47154 -0.041394096 -0.8349545 0.5905807 0.34692925 0.71127695
0.007323116 0.3656049 -0.7382157 -0.5431745 -0.88268703 -0.46062532 0.33208683 -0.74426615
-0.16372484 -0.9480024 0.0058007534 -0.13165823 -0.16746017 -1.1534047 -0.9668556 -0.5254785
-0.45508182 0.14930111 -0.65228987 -0.43189445 -0.43724164 -1.3992041 -0.65543056 -0.30396613
00000000: aefc b9be 3379 3f3f bd0a b8bf b3ce e7be
00000010: be43 e3be de82 4cbf 725a 9cbf 0cd6 71be
00000020: 2c84 47bf bee8 243f b16d f1be db8c 29bd
00000030: 94bf 55bf 4c30 173f b6a0 b13e 3f16 363f
00000040: c0f6 ef3b 9130 bb3e b4fb 3cbf 7c0d 0bbf
00000050: c7f7 61bf 15d7 ebbe 4907 aa3e 3a88 3ebf
00000060: 7ca7 27be 49b0 72bf 3f14 be3b 6ad1 06be
00000070: ae7a 2bbe c4a2 93bf d983 77bf c285 06bf
00000080: 7c00 e9be 64e2 183e 78fc 26bf 4521 ddbe
00000090: 23de dfbe 1f19 b3bf 4cca 27bf 73a1 9bbe

_encoder._residual_stack_1.conv_layers.3.weight f4 [40, 40, 3]
-0.66270494 -0.35497466 -0.18883358 -0.13350922 0.534045 0.030685814 0.20483807 0.06597209
0.118638575 -1.0330019 -0.17900074 -0.0108539555 0.0035427816 -0.14241947 -0.0013736039 0.12163455
-0.22592357 -0.4435029 0.18736804 -0.0141029935 0.04885304 -0.4610275 -9.720359e-05 0.11100296
-0.0031875013 -0.18067282 -0.21299896 -0.51701236 0.32170025 0.027006969 -0.14171329 0.013174216
-0.008447838 -0.18028641 -0.1482114 0.07446016 -0.13778378 0.015257644 0.039959468 -0.7008461
0.24629131 -0.32533175 -0.365244 -0.82393706 -0.1768479 -0.5881433 -0.25027776 -0.7747804
-0.5522916 0.032889992 -0.30513266 -0.66825247 0.11890386 -0.1482788 -0.29345497 -0.013819646
0.08075228 -0.46345362 -0.2447808 -0.11565821 -0.2873114 -0.10445708 0.05971512 -0.14692582
-0.17475666 -0.18257737 -0.73818547 -0.067093864 0.15269434 -0.231111 0.1570202 0.08830604
-0.16347592 -0.3459401 0.0292637 0.27190807 0.18303305 0.11371633 0.052610468 -0.0013786105
-0.09282425 0.028956199 -0.15690169 -0.3090525 -0.0010859119 -0.0019456154 0.005476555 -0.27401695
-0.04925694 -0.084198594 -0.23419882 -0.3907518 -0.4698969 -0.01054824 0.035006035 0.10860321
-0.24456938 -0.12968434 -0.50454414 -0.4285125 -0.21089046 0.07120872 0.12565602 -0.41573414
0.21021394 -0.017512655 -0.19090903 0.09497112 0.35678142 -0.024806306 -0.1471129 -0.593867
-0.24838737 -0.21146463 -0.33815026 -0.62637335 -0.15539521 -0.5166136 -0.39595172 0.18365453
-0.29359996 -0.6210218 -0.0045026876 -0.21694571 -0.50042343 -0.19537193 0.41629985 -0.23618406
-0.41009685 -0.05873261 -0.06777127 0.1080683 -0.7232308 -0.39166504 -0.014813683 -0.29431623
-0.25239292 -0.2739181 0.23259166 0.028444434 -0.060410835 -0.0918521 -0.017109718 -0.27707222
-0.039548665 -0.0974337 0.16758583 -0.016469834 -0.17823523 0.020926367 -0.09875882 -0.007840741
-0.08137142 -0.07179918 -0.13638343 0.035851024 0.12962407 -0.099591956 -0.13238169 0.23362954
-0.90262395 0.11089524 0.08444605 -0.5635219 -0.56594276 -0.012084432 0.005851232 -0.2309017
0.06635863 0.069849364 -0.44657072 -0.12623903 0.25077707 -0.24626142 -0.20138313 -0.18157834
-0.21786822 -0.12529661 0.12659246 0.22204198 -0.2789854 -0.20181164 -0.27069306 0.3834713
0.36950913 -0.07465961 -0.071443014 -0.37679836 0.28420728 0.18480767 0.18163092 0.1525974
-0.32198623 -0.15005174 -0.22243187 -0.045190975 0.031327177 0.084941186 0.116212726 0.053481333
-0.5120262 -0.003090558 -0.19320014 0.20960465 0.012518955 -0.09617547 -0.16875169 -0.12212615
0.002761712 0.2355128 0.110909656 0.0071662143 0.009698821 -0.12763247 -0.04427019 0.09829565
0.1593391 -0.14924926 0.08578383 0.031941414 -0.17587705 0.12220757 0.3860673 -0.15858611
-0.15669398 -0.12377961 0.27128926 0.20739993 0.20810154 0.25143057 0.0573576 -0.12902468
-0.100618765 -0.09252758 -0.005436003 0.09205962 0.03621534 -0.1398315 0.026434869 0.12949827
-0.03847945 -0.24359018 -0.022440627 -0.16767427 -0.2474783 -0.056905966 -0.3431408 -0.32763535
-0.1991739 0.027430382 0.023166278 0.050900754 -0.26707223 -0.31812468 -0.08805922 -0.13390125
00000000: 08a7 29bf 3dbf b5be 975d 41be a4b6 08be
00000010: 2cb7 083f d160 fb3c 12c1 513e 601c 873d
00000020: c8f8 f23d 6839 84bf f84b 37be cad4 31bc
00000030: 032e 683b 69d6 11be 800a b4ba 891b f93d
00000040: 8258 67be d012 e3be 68dd 3f3e 3e10 67bc
00000050: 201a 483d cc0b ecbe c8d9 cbb8 8555 e33d
00000060: 66e5 50bb 4c02 39be 661c 5abe ec5a 04bf
00000070: e5b5 a43e b83d dd3c 4a1d 11be abd8 573c
00000080: cd68 0abc 009d 38be bbc4 17be 927e 983d
00000090: 3117 0dbe 32fb 793c 8aac 233d a66a 33bf
000000a0: ca33 7c3e e291 a6be 4301 bbbe 8aed 52bf
000000b0: 9e17 35be 8f90 16bf 6824 80be 0258 46bf
000000c0: fb62 0dbf a8b7 063d 593a 9cbe 9812 2bbf
000000d0: de83 f33d 66d6 17be bb3f 96be cc6b 62bc
000000e0: 7461 a53d cb49 edbe d1a7 7abe 36de ecbd
000000f0: 7b1a 93be 98ed d5bd d797 743d b973 16be
00000100: 69f3 32be 90f5 3abe b9f9 3cbf 8268 89bd
00000110: e85b 1c3e 5da8 6cbe e7c9 203e ccd9 b43d
00000120: 3b66 27be 101f b1be 6dba ef3c 8937 8b3e
00000130: 046d 3b3e 1be4 e83d 137e 573d 7eb2 b4ba
00000140: a41a bebd 8d35 ed3c d6aa 20be 213c 9ebe
00000150: 2855 8eba 0504 ffba ac74 b33b f34b 8cbe
00000160: a5c1 49bd 5070 acbd d1d1 6fbe 9f10 c8be
00000170: 5496 f0be 86d2 2cbc 7d62 0f3d 5c6b de3d
00000180: 6570 7abe f9cb 04be ce29 01bf fe65 dbbe
00000190: abf3 57be e1d5 913d f9ab 003e 1bdb d4be
000001a0: 5342 573e b376 8fbc a87d 43be 3880 c23d
000001b0: 0eac b63e 9836 cbbc c4a4 16be ab07 18bf
000001c0: 4259 7ebe 2f8a 58be 0822 adbe 015a 20bf
000001d0: ec1f 1fbe ca40 04bf 2fba cabe ef0f 3c3e
000001e0: bc52 96be 49fb 1ebf 488b 93bb 0427 5ebe
000001f0: c01b 00bf 940f 48be 4125 d53e 3cda 71be
00000200: 37f8 d1be 9b91 70bd aacb 8abd ea52 dd3d
00000210: a725 39bf 5288 c8be 17b5 72bc 9eb0 96be
00000220: a539 81be fe3e 8cbe 822c 6e3e 4d04 e93c
00000230: 5a71 77bd f41c bcbd ae29 8cbc 69dc 8dbe
00000240: c8fd 21bd 528b c7bd 9f9b 2b3e bfeb 86bc
00000250: 4c83 36be c66d ab3c 1042 cabd 7476 00bc
00000260: 0fa6 a6bd 730b 93bd 19a8 0bbe 86d8 123d
00000270: 2cbc 043e def6 cbbd 118f 07be 953c 6f3e
00000280: 5d12 67bf 0b1d e33d 0df2 ac3d f942 10bf
00000290: a0e1 10bf c8fd 45bc b1bb bf3b 7f71 6cbe
000002a0: 09e7 873d 2f0d 8f3d eba4 e4be ce44 01be
000002b0: da65 803e f42b 7cbe 6137 4ebe acef 39be
000002c0: d918 5fbe c14d 00be 74a1 013e f95e 633e
000002d0: 2dd7 8ebe b6a7 4ebe 4898 8abe 5a56 c43e
000002e0: 4d30 bd3e 23e7 98bd b750 92bd b7eb c0be
000002f0: 9e83 913e 393e 3d3e 75fd 393e 7e42 1c3e
00000300: 61db a4be 2aa7 19be 2ec5 63be 2c1a 39bd
00000310: ed50 003d a5f5 ad3d f000 ee3d 3e0f 5b3d
00000320: 2614 03bf f68a 4abb 42d6 45be 9aa2 563e
00000330: 4e1c 4d3c a5f7 c4bd 3ecd 2cbe 461d fabd
00000340: d7fd 343b 442a 713e 9a24 e33d 90d2 ea3b
00000350: cee7 1e3c 16b2 02be a954 35bd 3b4f c93d
00000360: ca29 233e ccd4 18be 6faf af3d 00d5 023d
00000370: 1d19 34be f647 fa3d 9daa c53e 6664 22be
00000380: 6374 20be 2a80 fdbd 6de6 8a3e a660 543e
00000390: 9218 553e 82bb 803e ceef 6a3d 0c1f 04be
000003a0: 3611 cebd 1a7f bdbd 8020 b2bb c189 bc3d
000003b0: 8956 143d fd2f 0fbe f08d d83c 329b 043e
000003c0: a19c 1dbd b46f 79be 68d5 b7bc ceb2 2bbe
000003d0: f46a 7dbe 3b16 69bd 27b0 afbe d2bf a7be
000003e0: 3ef4 4bbe aeb5 e03c 35c7 bd3c 4f7d 503d
000003f0: b1bd 88be 3de1 a2be 6458 b4bd 691d 09be

_encoder._residual_stack_1.conv_layers.3.bias f4 [40]
-0.5366243 -1.1333364 -0.6185406 -1.6089144 0.14574836 1.086979 -1.5224495 0.2028535
-0.7420015 -0.5675109 -0.10835888 -0.65674365 -1.2118286 -0.87821 0.032368727 -0.5338984
-0.75642246 0.3125482 -0.47263703 -0.69144726 -0.28073213 -1.3777193 -0.20148733 -0.41915578
-0.15579969 -0.5390931 -0.69091135 0.054630112 0.402774 0.42456812 -0.8111032 -0.34724268
-0.4045518 0.24130252 -0.28512198 -0.748648 -0.46735322 -0.89105415 0.109783456 -0.5592279
00000000: 3660 09bf 2b11 91bf ad58 1ebf e8f0 cdbf
00000010: 0f3f 153e 2122 8b3f a0df c2bf d4b8 4f3e
00000020: cff3 3dbf 6548 11bf 43eb ddbd 5a20 28bf
00000030: 331d 9bbf 5fd2 60bf 1295 043d 91ad 08bf
00000040: e7a4 41bf 5106 a03e 7bfd f1be b002 31bf
00000050: 1fbc 8fbe 1b59 b0bf b252 4ebe 969b d6be
00000060: f489 1fbe 0102 0abf 91df 30bf d3c3 5f3d
00000070: 6538 ce3e fe60 d93e 76a4 4fbf cbc9 b1be
00000080: 6a21 cfbe 0218 773e 82fb 91be 65a7 3fbf
00000090: ec48 efbe 201c 64bf 26d6 e03d 8f29 0fbf

_encoder._residual_stack_1.conv_layers.4.weight f4 [40, 40, 3]
-0.53764164 -0.122331545 -0.40795046 -0.12947561 -0.5475846 -0.54341525 0.08880667 -0.07379324
-0.031296708 -0.06846505 0.036860302 -0.18268448 -0.33876082 -0.23923591 -0.23757392 -0.46927905
-0.2062266 -0.10588689 -0.47506994 -0.32181606 -0.13940398 -0.05654194 -0.16752648 -0.5371039
0.38066003 -0.30860648 -0.47475296 0.09489537 0.07973964 -0.15796724 -0.1930529 -0.122696646
0.15035732 -0.7279934 -0.23999439 -0.10624919 -0.09881325 -0.121492155 -0.24007887 0.059851713
0.18631116 0.3414554 -0.5963883 -0.30503723 -0.08596268 0.15726662 -0.041200723 -0.19930528
0.29556268 -0.12230775 -0.4741583 -0.32453182 -0.37581143 -0.14332344 -0.1400212 0.048650306
-0.10751746 -0.10991089 -0.19694331 -0.09062269 -0.16359131 0.11348433 0.01755389 -0.1714612
-0.32375303 -0.22715765 -0.15721048 0.042237185 0.060966544 -0.30132765 -0.24491602 0.019225141
-0.19081937 -0.023125382 0.1234952 -0.56446534 0.019016946 0.049553704 0.20518127 -0.031548034
-0.19571613 0.09980922 -0.19224115 0.026072294 -0.74939823 -0.4625657 -0.19751258 -0.75435084
-0.6677861 -0.658311 0.024003692 -0.34649324 0.09830068 -0.1500212 -0.16164212 -0.029955411
0.11789539 -0.042389695 -0.101785205 -0.40953016 -0.35714427 -0.42697793 0.021461956 -0.06019558
-0.053898953 -0.44223967 -0.12238325 0.082628354 -0.12903169 0.024287587 -0.023341946 -0.0020187236
0.0064763688 -0.10541928 -1.1479056 -0.1914987 0.013623783 0.44958946 -0.10145634 -0.3510474
0.13553835 -0.58087355 -0.42443392 -0.28410763 -0.4136648 -0.06202997 -0.13653462 -0.20131473
-0.6658068 -0.24325268 0.15920323 0.049161077 0.08715696 -0.36873367 0.09743201 0.10316448
0.12705451 -0.022352938 -0.06221556 -0.21335496 -0.048197847 -0.100206025 -0.39628378 0.020885577
0.20914014 -0.01017548 -0.25362402 -0.16530605 0.25699252 0.19793536 -0.022572141 0.033243183
0.089709856 -0.056430418 0.038479604 -0.0140019385 0.10128149 -0.2884414 0.124982655 0.36833906
-0.25468594 -0.20641676 0.02685146 0.06696068 0.18641704 0.24264975 0.1804906 -0.33213228
-0.45660624 0.35616997 0.025193075 -0.189603 -0.2902013 0.16371349 0.13573267 -0.216454
0.11175037 0.32404092 0.032407068 -0.39459932 0.016530814 0.30286524 0.043208193 0.042173546
0.22587495 -0.09173473 0.33080974 0.1513 -0.47134554 -0.03392504 -0.38621372 -0.28129113
-0.07716623 -0.1824104 -0.064827204 -0.08131587 -0.060320824 0.054622933 0.071793176 -0.046489857
-0.06408842 0.1655135 -0.7372362 -0.82254356 0.023185479 -0.02694696 0.28005743 0.059630584
0.24201109 -0.03867309 -0.20993394 0.13233536 -0.08251396 -0.16663855 -0.06382569 0.043007236
-0.018796127 0.23645082 0.24582084 0.013728543 -0.6401549 -0.48723236 -0.7708791 -0.12122439
0.013286307 -0.76488596 -0.68960583 -0.04719347 0.10896007 0.49861795 0.113854915 0.1226074
-0.06959994 -0.027392948 0.16641586 -0.39227992 0.007197065 -0.011427693 -0.17195515 -0.11721497
-0.23872177 -0.23511331 0.23395032 -0.033426438 -0.291302 0.47762755 -0.1221526 -0.3235471
-0.22217166 -0.25347987 0.14131041 -0.3034695 -0.38911623 -0.3397704 -0.25073022 -0.073797435
00000000: e2a2 09bf f688 fabd e2de d0be 4195 04be
00000010: 812e 0cbf 431d 0bbf 45e0 b53d e920 97bd
00000020: fa30 00bd 6737 8cbd d4fa 163d a411 3bbe
00000030: 0f72 adbe 42fa 74be 9446 73be 5845 f0be
00000040: 112d 53be 3adb d8bd 5e3c f3be 13c5 a4be
00000050: ebbf 0ebe 8598 67bd 108c 2bbe a47f 09bf
00000060: dfe5 c23e ab01 9ebe d212 f3be 8158 c23d
00000070: 894e a33d 2ac2 21be a9af 45be 6148 fbbd
00000080: 45f7 193e c75d 3abf 17c1 75be 2d99 d9bd
00000090: 9a5e cabd e1d0 f8bd 3cd7 75be 1227 753d
000000a0: 5ac8 3e3e 3ed3 ae3e e7ac 18bf d72d 9cbe
000000b0: 340d b0bd 800a 213e 17c2 28bd af16 4cbe
000000c0: fe53 973e 7c7c fabd e0c4 f2be 0929 a6be
000000d0: 5b6a c0be 61c3 12be b861 0fbe 8b45 473d
000000e0: 1d32 dcbd f618 e1bd 82ab 49be 6498 b9bd
000000f0: 7b84 27be 796a e83d 2dcd 8f3c 8693 2fbe
00000100: f5c2 a5be 049c 68be c9fb 20be e600 2d3d
00000110: 0eb8 793d 9e47 9abe 44cb 7abe 0b7e 9d3c
00000120: 2766 43be 7171 bdbc 0deb fc3d cd80 10bf
00000130: 6dc9 9b3c d3f8 4a3d 0a1b 523e 8338 01bd
00000140: cf69 48be c768 cc3d ddda 44be 9095 d53c
00000150: 90d8 3fbf 69d5 ecbe bd40 4abe 231d 41bf
00000160: 08f4 2abf 1287 28bf 64a3 c43c 9067 b1be
00000170: de51 c93d 289f 19be 8385 25be 0d65 f5bc
00000180: 2373 f13d d1a0 2dbd c374 d0bd f0ad d1be
00000190: 9ddb b6be da9c dabe fcd0 af3c a48f 76bd
000001a0: 26c5 5cbd 3d6d e2be 12a4 fabd 0e39 a93d
000001b0: e220 04be c3f6 c63c 9c37 bfbc 904c 04bb
000001c0: b837 d43b 10e6 d7bd 92ee 92bf 3c18 44be
000001d0: 4a36 5f3c 9730 e63e 57c8 cfbd 7cbc b3be
000001e0: 91ca 0a3e 21b4 14bf 674f d9be 8e76 91be
000001f0: dfcb d3be 2313 7ebd bbcf 0bbe 7325 4ebe
00000200: 5072 2abf 3b17 79be 2c06 233e 205d 493d
00000210: 597f b23d a9ca bcbe 6f8a c73d e647 d33d
00000220: 941a 023e 821d b7bc bed5 7ebd b979 5abe
00000230: 1b6b 45bd d138 cdbd b5e5 cabe 3b18 ab3c
00000240: d528 563e 0eb7 26bc 02db 81be fd45 29be
00000250: 8694 833e 91af 4a3e 36e9 b8bc 012a 083d
00000260: cdb9 b73d 9523 67bd ca9c 1d3d 6368 65bc
00000270: ab6c cf3d 97ae 93be e8f6 ff3d f096 bc3e
00000280: 3266 82be ea5e 53be 98f7 db3c ae22 893d
00000290: 1ce4 3e3e 2d79 783e 87d2 383e 3e0d aabe
000002a0: 4bc8 e9be e95b b63e b561 ce3c 4a27 42be
000002b0: 4495 94be 82a4 273e 81fd 0a3e 1ea6 5dbe
000002c0: 61dd e43d b1e8 a53e 46bd 043d ec08 cabe
000002d0: a16b 873c 2711 9b3e 13fb 303d 2bbe 2c3d
000002e0: c34b 673e 6bdf bbbd e55f a93e 63ee 1a3e
000002f0: 3454 f1be fcf4 0abd cebd c5be 6405 90be
00000300: 5409 9ebd cbc9 3abe 20c4 84bd ef88 a6bd
00000310: f812 77bd 4cbc 5f3d 4d08 933d 266c 3ebd
00000320: ca40 83bd 5f7c 293e 83bb 3cbf 3792 52bf
00000330: 79ef bd3c dfbf dcbc b063 8f3e 333f 743d
00000340: c1d1 773e ad67 1ebd ecf8 56be ec82 073e
00000350: 14fd a8bd 4ca3 2abe 0bb7 82bd 5b28 303d
00000360: 56fa 99bc 2a20 723e 75b8 7b3e afed 603c
00000370: 31e1 23bf 8576 f9be 5558 45bf 7e44 f8bd
00000380: d0ae 593c 91cf 43bf 028a 30bf f14d 41bd
00000390: 7526 df3d da4a ff3e c42c e93d 9719 fb3d
000003a0: 6a8a 8ebd 2d67 e0bc eb68 2a3e ead8 c8be
000003b0: 5bd5 eb3b 383b 3bbc 0315 30be 670e f0bd
000003c0: 7b73 74be 8bc1 70be ac90 6f3e 29ea 08bd
000003d0: 8925 95be 998b f43e 242b fabd f7a7 a5be
000003e0: f880 63be 1dc8 81be adb3 103e 5b60 9bbe
000003f0: 3e3a c7be 63f6 adbe b65f 80be 1c23 97bd

_encoder._residual_stack_1.conv_layers.4.bias f4 [40]
-1.2544353 0.5358822 -0.71684784 -0.59680724 -0.009151863 -0.74793404 -1.5791185 -0.6175682
-0.42119208 -0.18733782 0.15976363 -0.5536727 -0.21165651 -0.5230648 -0.41846856 -1.1290017
-1.0913986 0.15793326 -0.5504545 -0.9791259 -0.2018279 -0.9698445 0.16364239 -0.8696817
-0.7123497 -0.043028705 -0.4464502 -0.32115504 -0.40425315 -0.20770703 -1.3353729 -0.47453532
-0.361952 0.09446044 -0.99051166 -0.5887475 -0.23135263 -0.49975342 -0.67967814 0.040481396
00000000: 5691 a0bf 932f 093f 5783 37bf 5cc8 18bf
00000010: b2f1 15bc 9b78 3fbf 8e20 cabf f318 1ebf
00000020: 7da6 d7be 7cd5 3fbe 1499 233e 7ebd 0dbf
00000030: 7cbc 58be 93e7 05bf 8341 d6be 2183 90bf
00000040: f3b2 8bbf 42b9 213e 96ea 0cbf ffa7 7abf
00000050: f9ab 4ebe bb47 78bf df91 273e 76a3 5ebf
00000060: 8d5c 36bf de3e 30bd 1f95 e4be 6f6e a4be
00000070: 45fa cebe 27b1 54be 80ed aabf 4bf6 f2be
00000080: c651 b9be 7a74 c13d 2c92 7dbf 28b8 16bf
00000090: b4e7 6cbe aedf ffbe 63ff 2dbf d2cf 253d

_encoder._residual_stack_1.conv_layers.5.weight f4 [40, 40, 3]
-0.08777048 0.035453945 0.03967292 -0.3577834 -0.09098752 -0.13497333 -0.16245697 -0.25663885
0.0038525113 -0.17775072 -0.2025952 -0.082664646 -0.30806777 -0.020544043 -0.24676552 0.006296536
-0.048995163 -0.1174023 -0.06403335 -0.115000926 -0.15031075 -0.109024756 -0.23590642 -0.10158573
0.16114129 0.06940258 0.009168614 -0.56790346 -0.038812313 -0.1634099 -0.13591857 0.015401109
-0.07075592 0.038643185 0.07873629 0.1402569 0.032022864 -0.014586077 -0.11683716 -0.0549136
-0.06519703 -0.115240164 -0.12367008 -0.22050165 0.08813732 -0.10976685 -0.18853553 -0.1612065
-0.38371313 0.032485068 -0.14903963 -0.3487255 -0.21804261 -0.009421413 0.09514431 -0.120029286
-0.05916525 -0.105589695 -0.1685243 -0.12341711 -0.07531329 0.024768842 0.013852463 0.042758886
0.019312697 -0.2367806 -0.009933937 -0.3823941 -0.2706943 -0.108080015 -0.24164678 -0.18889701
-0.07680947 0.0206727 0.07553233 -0.13156246 -0.05026546 -0.26619488 -0.031485997 -0.12555331
-0.055488832 -0.03449511 -0.27721137 -0.5876081 -0.19710134 -0.11644975 -0.12707692 -0.3160647
-0.35989317 -0.05353261 0.12143161 -0.1822765 -0.05920423 -0.0930648 -0.18913853 0.02551163
-0.0008854338 0.049585536 -0.17453994 -0.4339336 -0.5318704 -0.119289085 -0.18651755 0.04609225
-0.015587039 -0.07359157 -0.17062272 -0.34180924 -0.14816314 -0.40216464 -0.12176926 -0.00011550168
-0.03304391 -0.056530956 0.12436173 0.13611397 0.049305897 -0.26572418 -0.14616537 0.11418993
-0.28168416 0.025548032 0.2579493 -0.15304108 -0.38531646 -0.67330426 0.06685697 -0.14439744
0.19555765 0.07277182 -0.1808106 0.07057793 -0.49549618 -0.66661805 -0.31489518 -0.062138
-0.36245012 0.056139566 -0.2834875 0.023494555 0.013783442 -0.12586921 -0.3471314 -0.020479655
-0.04119633 -0.3039079 -0.20650592 -0.24873015 -0.15472844 0.02750324 -0.3601223 -0.3459433
-0.25874367 0.043210212 -0.14040115 0.065738894 -0.06578527 0.014146018 -0.28583872 -0.046404492
-0.014228124 0.073606394 -0.0273741 -0.12225433 -0.28893226 0.09222664 -0.32369792 -0.027782323
-0.005115604 0.1398703 -0.18877707 -0.53295547 0.17506665 -0.08180265 0.08075924 0.037656933
-0.1734075 -0.07310015 -0.1739646 0.14292671 -0.103677586 0.04287589 0.010883504 -0.192955
-0.06508426 -0.09000282 -0.30456898 0.11295705 -0.22198667 -0.20025401 0.037487417 0.1777992
-1.2957103e-05 0.02295285 -0.38033304 -0.4226967 -0.62301165 -0.12336826 0.13978253 0.0013675635
-0.11822903 0.009760069 -0.20054041 -0.11127929 -0.31354776 -0.64706767 -0.29508266 0.003136542
-0.5138434 -0.06724826 -0.17440602 0.35886016 -0.2191265 -0.014673563 0.047687706 -0.08823735
-0.40937692 -0.25787702 -0.4465073 -0.3647726 -0.069681786 -0.1919397 -0.20681053 0.3336341
0.08099544 -0.08142086 0.21236756 -0.07264489 -0.44985914 -0.14232333 -0.03372952 -0.056627374
-0.06672056 -0.12243748 -0.07922885 0.0042885356 0.21614054 -0.05959456 -0.38438532 -0.46899387
0.4627767 0.09706928 -0.09452409 -0.13723505 -0.29331154 -0.028437475 0.023362616 -0.14438236
0.059747048 -0.15204938 -0.01140501 -0.17827596 -0.02641677 -0.23672283 -0.52229875 -0.044493467
00000000: 02c1 b3bd 2838 113d 1280 223d 632f b7be
00000010: aa57 babd 7336 0abe 1f5b 26be 2b66 83be
00000020: 6a7a 7c3b 4904 36be 1e75 4fbe 154c a9bd
00000030: 0fbb 9dbe fb4b a8bc 1ab0 7cbe 2c53 ce3b
00000040: 27af 48bd 9e70 f0bd eb23 83bd 9b85 ebbd
00000050: 10eb 19be 5f48 dfbd 7491 71be 2e0c d0bd
00000060: 3902 253e f122 8e3d f437 163c 1f62 11bf
00000070: a9f9 1ebd ed54 27be 3d2e 0bbe ef54 7c3c
00000080: 7be8 90bd 5148 1e3d 7e40 a13d 819f 0f3e
00000090: 682a 033d 71fa 6ebc 5248 efbd 15ed 60bd
000000a0: 0586 85bd 0903 ecbd bd46 fdbd 2fcb 61be
000000b0: 5781 b43d 71cd e0bd 750f 41be 5113 25be
000000c0: 0c76 c4be 100f 053d d89d 18be 268c b2be
000000d0: 9046 5fbe 455c 1abc 05db c23d ead1 f5bd
000000e0: 4357 72bd 693f d8bd a291 2cbe 1cc2 fcbd
000000f0: db3d 9abd 07e8 ca3c 71f5 623c f123 2f3d
00000100: a935 9e3c 9d76 72be f4c1 22bc 29c9 c3be
00000110: 7198 8abe 0e59 ddbd 4172 77be 386e 41be
00000120: 494e 9dbd cb59 a93c b2b0 9a3d 4fb8 06be
00000130: 28e3 4dbd b24a 88be 76f7 00bd 0c91 00be
00000140: 4248 63bd bf4a 0dbd a6ee 8dbe 7c6d 16bf
00000150: efd4 49be 357d eebd 7420 02be 3bd3 a1be
00000160: eb43 b8be 0345 5bbd 23b1 f83d b1a6 3abe
00000170: 2280 72bd c298 bebd 88ad 41be c4fd d03c
00000180: 751c 68ba 341a 4b3d 99ba 32be 8b2c debe
00000190: a928 08bf d64d f4bd 75fe 3ebe 3acb 3c3d
000001a0: c860 7fbc 2db7 96bd b9b7 2ebe 9f01 afbe
000001b0: 14b8 17be 86e8 cdbe 2962 f9bd 7e39 f2b8
000001c0: 0d59 07bd 018d 67bd 5db1 fe3d 7661 0b3e
000001d0: fbf4 493d 000d 88be 60ac 15be 69dc e93d
000001e0: e838 90be 1b4a d13c ee11 843e cdb6 1cbe
000001f0: 3348 c5be ab5d 2cbf 4fec 883d ecdc 13be
00000200: 4440 483e 6409 953d 6a26 39be 298b 903d
00000210: adb1 fdbe 7ba7 2abf f139 a1be 6a84 7ebd
00000220: 1093 b9be 9af2 653d 4625 91be a777 c03c
00000230: f2d3 613c dce3 00be 35bb b1be f3c4 a7bc
00000240: 7cbd 28bd d199 9bbe 4a76 53be 1eb3 7ebe
00000250: 2271 1ebe 7a4e e13c f361 b8be 7b1f b1be
00000260: 0d7a 84be 31fd 303d 52c5 0fbe 1da2 863d
00000270: 6dba 86bd b3c4 673c 7459 92be a312 3ebd
00000280: 141d 69bc f3be 963d a63f e0bc 7a60 fabd
00000290: eeee 93be 52e1 bc3d bcbb a5be c197 e3bc
000002a0: cca0 a7bb 293a 0f3e c74e 41be c56f 08bf
000002b0: ac44 333e 2688 a7bd 1a65 a53d 283e 1a3d
000002c0: bc91 31be 88b5 95bd c723 32be 615b 123e
000002d0: ea54 d4bd a19e 2f3d b950 323c ff95 45be
000002e0: e64a 85bd 6653 b8bd 77f0 9bbe 0756 e73d
000002f0: 7950 63be 630f 4dbe 688c 193d fe10 363e
00000300: 5562 59b7 9e07 bc3c 03bb c2be b46b d8be
00000310: b17d 1fbf 80a8 fcbd 2723 0f3e d13f b33a
00000320: 1022 f2bd b2e8 1f3c 775a 4dbe 65e6 e3bd
00000330: 5589 a0be 3aa6 25bf 1315 97be 718e 4d3b
00000340: 3e8b 03bf 75b9 89bd 7e97 32be 85bc b73e
00000350: b262 60be 6269 70bc 2f54 433d c9b5 b4bd
00000360: da99 d1be 7508 84be 9b9c e4be 79c3 babe
00000370: 53b5 8ebd d78b 44be 24c6 53be 17d2 aa3e
00000380: f0e0 a53d fbbf a6bd e276 593e d8c6 94bd
00000390: f053 e6be 35bd 11be f727 0abd 1bf2 67bd
000003a0: caa4 88bd 80c0 fabd bc42 a2bd d886 8c3b
000003b0: f253 5d3e 6d19 74bd 27ce c4be f71f f0be
000003c0: 11f1 ec3e 42cc c63d d995 c1bd 5887 0cbe
000003d0: ee2c 96be b5f5 e8bc f562 bf3c f8d8 13be
000003e0: 52b9 743d d5b2 1bbe 14dc 3abc f98d 36be
000003f0: fb67 d8bc 7867 72be 5fb5 05bf c83e 36bd
