models/model_speech.pt (torch, 530780 bytes, 25 tensors)

weight f4 [40, 201, 3]
000000 67 a7 fd bb 66 7e 36 3d 65 af ae bc 79 e5 ad bc
       -0.007740903 0.044554137 -0.021323869 -0.021227585
000010 32 55 19 3c f3 7d 0c bd 7b c3 28 bc 58 9d 32 bc
       0.009358691 -0.034299802 -0.010300512 -0.0109017715
000020 27 2b 44 3c d3 20 80 ba 70 68 da ba 6d 15 86 3d
       0.011973179 -0.0009775407 -0.0016663205 0.065470554
000030 69 c4 4d 3b 74 10 b8 bb 15 a9 ba bc 89 17 e5 ba
       0.0031397587 -0.0056171957 -0.022785703 -0.0017478327
000040 8a d2 9e 3b e1 e3 bd bb 89 b9 22 bc 06 88 9b ba
       0.0048468756 -0.0057949875 -0.00993193 -0.00118661
000050 1b 11 f0 3c 61 90 e7 bb 42 d9 95 bc 27 d1 2a bc
       0.029305032 -0.007066772 -0.018292073 -0.010425842
000060 ae cf 69 bb 5c bb de bc 86 c9 cf 3b a2 ff 64 3c
       -0.0035676765 -0.02718895 0.006341162 0.013976963
000070 68 3e 37 3c 3a aa b4 3c e8 10 a9 3c d0 27 85 bc
       0.011184312 0.022053827 0.020637944 -0.016254336
000080 87 4b a9 bc af 6b 37 3c 48 65 35 bc 80 6d 91 bb
       -0.020665897 0.011195107 -0.011071511 -0.0044381022
000090 47 f3 d5 3c 99 32 bd bc 34 45 c4 3c e4 b4 c6 3c
       0.02611698 -0.023095416 0.02395878 0.024256177
0000a0 ad a2 94 3b f4 af e0 bc 83 db 73 3c 3f af 8e 3c
       0.004535994 -0.027427651 0.014883879 0.017417548
0000b0 b1 98 e5 bc 58 25 88 bc 6d 0c dc 3b 4c d9 84 3d
       -0.02802691 -0.01661937 0.0067153485 0.064867586
0000c0 1f 22 62 3c 2e dc a0 bc 9a 03 79 3d 66 b4 05 3d
       0.01380208 -0.01963624 0.06079445 0.032642744
0000d0 cc ab e5 bc 42 ea 70 bc e7 c5 4d bb ec e4 f8 bc
       -0.02803602 -0.014704289 -0.0031398477 -0.030382596
0000e0 ae 38 af bc 6c 41 cc ba dd 08 3c bc 84 8c 23 bd
       -0.021389332 -0.0015583462 -0.011476723 -0.039928928
0000f0 05 1d 1f 3c 07 9e 63 bc 7f 48 83 bd e9 f2 5e 3c
       0.009711509 -0.013892657 -0.06410312 0.013607719
000100 b9 06 e7 bc 46 7f 2b bd 01 5f 2b 3c 5f ee ab 3b
       -0.028201448 -0.041869424 0.010459662 0.005246922
000110 ec b0 6b bc eb 0a c4 3b a3 4b 9a 3c 95 3d 21 3b
       -0.014385443 0.005982747 0.018834895 0.0024603356
000120 d9 74 5a 3c ca e3 11 3d 46 cd cb 3b 1b 02 e5 3c
       0.013333523 0.035617627 0.006219539 0.027955106
000130 2e 52 14 3d b7 4d 0d 3d b4 c2 c0 3b d7 24 28 3d
       0.036211185 0.034497943 0.0058825854 0.04105076
000140 b3 f5 85 3d 9c 7f 14 3c ad 05 36 3d ef 10 87 3d
       0.06541004 0.009063628 0.044439007 0.06595027
000150 5d 81 be 3c c7 5f 81 3d a8 f1 ac 3d a1 27 06 3d
       0.023255045 0.06317096 0.0844453 0.032752637
000160 f9 dd 59 3d 47 e1 e2 3d 6a d3 c2 3c f2 5d 2d 3d
       0.053190205 0.110781245 0.02378245 0.04232592
000170 fc 90 f0 3d 7a 79 52 3c 89 cc 2b 3d 67 13 02 3e
       0.117464036 0.012846345 0.041943107 0.12702714
000180 39 f4 9a ba 43 5d 7f 3d 55 59 f4 3d ae b3 54 3c
       -0.0011822052 0.0623448 0.11931101 0.012982292
000190 af d7 19 3d 63 b2 aa 3d 09 df 8b 3c 85 d0 11 3d
       0.037559208 0.08334806 0.017074125 0.03559925
0001a0 0f e3 89 3d 39 3f a3 3c 99 db b3 3c 30 da 5c 3d
       0.06732761 0.019927608 0.021955298 0.053919017
0001b0 c0 85 ff 3c 91 6e 80 bc bc 6f 32 3d 7c 31 dc 3c
       0.031191707 -0.015677722 0.04356359 0.026879065
0001c0 33 65 0a bd 5f 2b 8e 3c 74 9a 21 3d 81 e1 35 bd
       -0.033787917 0.017354665 0.03945394 -0.04440451
0001d0 80 b5 87 bb ae a7 2f 3d a9 73 34 bd 14 a3 fd bc
       -0.0041415095 0.04288452 -0.044055615 -0.03096155
0001e0 d7 9c 6a 3d 4d eb 9d bd 29 11 6d bd 3e a9 18 3d
       0.05727848 -0.07710896 -0.057877693 0.037270777
0001f0 fc 38 81 bd 73 dc 6b bd e8 7b 26 3d c6 de 9d bd
       -0.06309697 -0.057583284 0.04064551 -0.07708506
000200 46 38 91 bd c0 f3 22 3d 4e d2 7e bd 69 c3 96 bd
       -0.070908114 0.03978324 -0.06221228 -0.0736149
000210 e5 78 03 3c 85 24 1c bd ea 6d ac bd ed e8 ed ba
       0.008024429 -0.038120765 -0.08419402 -0.0018151082
000220 67 45 26 bd a5 e4 73 bd 61 87 41 bc 0e f6 bc bc
       -0.04059353 -0.059544224 -0.011812062 -0.023066547
000230 c0 a3 a4 bd 7f 48 06 bd 9d 4f 5f bb ca 74 88 bd
       -0.08039045 -0.03278398 -0.0034074553 -0.06662901
000240 b4 0a db bc 55 4c e7 3b 95 cd 8d bd 45 03 12 bd
       -0.026738502 0.00705866 -0.06923977 -0.03564765
000250 70 47 77 3c 48 69 8b bd d7 aa 47 bd 34 bb a0 3c
       0.015092716 -0.0680719 -0.04874691 0.019620515
000260 28 77 3e bd 63 ef ab bc 9f 6f c2 3c 48 d5 82 bd
       -0.046500355 -0.020988172 0.023734866 -0.063883364
000270 61 b8 03 bd f0 92 31 3c 4d 3a 60 bd 91 6a 29 bd
       -0.03215826 0.010838255 -0.0547431 -0.041361395
000280 02 b0 0d 3d 1e e7 83 bd 4e c4 26 bd fa 5c e2 ba
       0.034591682 -0.064405665 -0.040714554 -0.0017270141
000290 fc 0d 2c bd 0e 3d a8 bc da 97 7e 3c 4d 67 73 bd
       -0.042005524 -0.020536926 0.015539134 -0.059424687
0002a0 26 85 eb bc 2f b4 79 3c 76 5b 17 bd b6 de 1b bd
       -0.028750014 0.015240713 -0.03695246 -0.03805419
0002b0 7c 97 04 3d 71 e5 51 bd ca 35 f4 bc 39 9e a8 3c
       0.03237103 -0.051244203 -0.029810805 0.020583259
0002c0 a2 3a 2f bd a9 ae 62 bc 27 97 72 3b de 11 11 bd
       -0.042780526 -0.013835588 0.0037016363 -0.03541743
0002d0 f0 af c7 bc 67 97 98 3c 02 41 4c bd e4 94 cc bc
       -0.024375886 0.018626882 -0.049866684 -0.02497334
0002e0 84 56 72 3c 33 33 38 bd 62 ad 1f bd 17 8b da 3c
       0.014791135 -0.044970702 -0.03898371 0.026677651
0002f0 6b 5a 43 bd 85 71 cd bc d4 8e 19 3c 43 33 0a bd
       -0.04769365 -0.025078544 0.009372432 -0.033740293
000300 e1 bd 22 bd 10 9b ba 3c 5b 07 50 bd 42 6b e7 bc
       -0.039731864 0.022779018 -0.050788265 -0.028249387
000310 29 d1 bf 3c 41 00 e5 bc 34 11 eb bc 3d 08 0b 3d
       0.023415165 -0.027954223 -0.028694727 0.033943404
000320 a3 26 18 bd 0c 4e a7 bc ac 59 1e 3c 7f 83 2e bd
       -0.03714622 -0.020422958 0.009664934 -0.042605873
000330 77 5b 04 bd de 41 83 3c 01 b8 57 bd 11 68 19 bd
       -0.03231379 0.016022619 -0.052665714 -0.03745276
000340 81 ab e6 3c 3a b6 ec bc e8 0c d1 bc bc 66 2f 3c
       0.028157951 -0.028895486 -0.02551885 0.010705646
000350 e8 a4 28 bd fa d5 b0 bc 07 12 41 bb fd a5 ef bc
       -0.04117289 -0.021586407 -0.0029460208 -0.029253954
000360 89 03 2b bd e0 bb ae 3c 1e a9 5d bd e7 03 86 bc
       -0.04175142 0.02132982 -0.05411636 -0.016359283
000370 a5 80 70 3b 18 c7 35 bd 31 16 09 bd 0b 19 14 3c
       0.0036697772 -0.044379324 -0.03346843 0.009039174
000380 a2 36 1a bd ba a9 0f bd d3 c9 b2 3a 32 e3 38 bd
       -0.03764976 -0.035073973 0.001364047 -0.045138545
000390 60 38 2d bc 1d 0d 8b 3c 6b d0 60 bd 75 85 b1 bc
       -0.010572523 0.016974026 -0.054886263 -0.021670083
0003a0 23 cc cf 3b 7b b6 47 bd 9f 1d a4 bb da 74 93 3c
       0.0063414737 -0.04875801 -0.005008414 0.018000055
0003b0 03 61 45 bd 22 2d 6e bc 4a 59 8b 3b ec 08 cd bc
       -0.04818822 -0.014537128 0.0042525874 -0.025028668
0003c0 77 cb a7 bc 87 17 d5 3c 44 77 58 bd 11 3d b6 bb
       -0.020482762 0.026012195 -0.052848116 -0.005561479
0003d0 a3 b0 c9 bc 5d ba 08 bd bd ab 87 bc 27 36 e2 3c
       -0.02462036 -0.033380855 -0.016561383 0.027613712
0003e0 7e 87 2e bd da 0b 46 3c 39 1b 32 3c a4 3f b2 bc
       -0.042609684 0.012087787 0.010870748 -0.021758862
0003f0 4b d6 bb bb af 89 d1 39 b1 c6 03 bd bc 3d 24 bc
       -0.005732333 0.0003996617 -0.03217191 -0.010024484

bias f4 [40]
000000 50 32 78 3e c6 10 59 be f8 4c 53 3e be dc 11 be
       0.24237943 -0.21197805 0.2063483 -0.14244363
000010 3e 25 8f be 61 60 03 be d4 17 21 be 58 26 da be
       -0.279581 -0.12829734 -0.15731746 -0.4260738
000020 76 6c ce 3d 8f 78 59 be 3c d7 4e bc a4 15 05 3e
       0.10079281 -0.21237396 -0.012624558 0.12996536
000030 40 21 30 3f 95 32 c1 bc 6f a6 66 bd 01 11 48 bf
       0.68800735 -0.02358369 -0.056311067 -0.78150946
000040 54 d1 d8 3e 74 bb 75 3e b1 e5 02 3f 43 2a 49 bc
       0.42347205 0.23997289 0.5113173 -0.012278142
000050 73 89 d3 3c cf a1 1a 3e 4f 38 06 3f be 6d 96 bc
       0.025822377 0.15100788 0.5242967 -0.018362876
000060 07 bc 93 3e db 64 39 be 57 30 30 bd 7c ea 41 3e
       0.2885439 -0.1810488 -0.04301485 0.18937105
000070 5c 74 ff 3d 36 f3 3c 3e 4f 3f 0c 3e a0 bb bb 3e
       0.12473366 0.18452153 0.13696025 0.36666584
000080 11 6c 60 3d 32 fb 5f 3e a2 28 03 3d 00 63 b9 bb
       0.05479056 0.21873167 0.032021172 -0.0056575537
000090 c8 36 87 3c 28 fc 1b 3e 8d 36 ba 3e f7 c4 a6 3e
       0.016505614 0.15232909 0.36369744 0.32572147

weight f4 [40, 40, 3]
000000 1f 87 6d 3b e1 4e 57 be eb d5 51 bd f3 69 8b 3d
       0.0036243869 -0.21026184 -0.0512294 0.068073176
000010 72 ee ea ba 0d 7c 0a 3e 99 5c 3d bd a9 d4 43 3c
       -0.0017923845 0.13523884 -0.046230886 0.011952558
000020 31 52 1e bc ed 81 2f 3d 23 97 87 bd 60 f5 bb bd
       -0.009663151 0.042848516 -0.06620624 -0.09177661
000030 13 52 22 be 23 98 f5 3d a7 c0 87 bd 8d ed 9f 3c
       -0.15851621 0.119919084 -0.066285424 0.019522453
000040 ca 99 27 bd eb 30 2e bd 54 73 52 3d f9 5a 50 3c
       -0.04091815 -0.04252712 0.051379517 0.012717002
000050 ac 46 be bd f8 dc 12 3e 36 d2 c0 bd 42 e0 62 3c
       -0.09290823 0.14342105 -0.094150946 0.013847413
000060 0a 94 07 bd ab 21 b7 bc 6b b5 ca bd d0 da 03 3d
       -0.033100165 -0.022354921 -0.09897884 0.032191098
000070 8d 69 8d 3d 06 f2 8d 3d b2 e0 0a 3d e2 00 b2 bd
       0.06904898 0.06930928 0.033905692 -0.08691575
000080 28 0c 9a 3c 0a cc 23 bd 7a 9e a1 bc 99 f1 33 bd
       0.018804625 -0.03998951 -0.019728888 -0.043931577
000090 55 7e c7 3d c1 42 8f bd d5 ed b6 3d 35 49 8d bc
       0.09740893 -0.06995154 0.089320816 -0.017246822
0000a0 02 1e ae 3d f4 6a 38 bd b4 2f 2c 3d c1 74 87 bc
       0.08501817 -0.045023873 0.04203768 -0.016535165
0000b0 6d b9 84 3d 08 83 84 3d e6 65 0e bc dd 3d e3 3d
       0.0648068 0.06470305 -0.008691287 0.11095784
0000c0 ae 06 83 3d ff 30 1d 3c 67 ba b5 bd ce 89 4c bb
       0.063977584 0.009594201 -0.08873444 -0.0031210068
0000d0 f0 7e 0a bd 56 4b ba bc 38 36 9f bd ca 1d 64 3d
       -0.033812463 -0.022741001 -0.07774013 0.05569247
0000e0 25 e6 55 be c9 e2 af bb e4 f9 3a bc 19 78 c2 3d
       -0.20888574 -0.005367611 -0.011412118 0.09495563
0000f0 c3 f0 4a 3d 91 f2 56 3d 9c d2 23 bc d8 8a a8 3d
       0.049546015 0.052477423 -0.009998944 0.08229607
000100 20 ea 30 3d 94 4f 25 3d 33 ee 21 3e 1d 65 f8 bd
       0.04319203 0.040359095 0.15813522 -0.12128661
000110 7f 41 e0 bc 09 95 c0 3d 3d 04 65 bc cb 43 f4 3c
       -0.027374981 0.09403426 -0.013978061 0.029817482
000120 64 19 68 bd f7 75 8f 3d af cb 8f 3d a0 80 4f bd
       -0.05666484 0.07004922 0.070212714 -0.050659776
000130 72 8f 63 3c 7b ac cc 3b 97 03 d4 3d 1f 43 e8 bb
       0.0138891805 0.006246147 0.10352247 -0.0070880796
000140 53 2b 87 bd 5c f6 59 be c9 7f 38 3e db 78 21 bc
       -0.0660006 -0.21285385 0.18017496 -0.009855474
000150 b0 3a a6 bc 70 5e 0f bd d5 1f 37 be b5 7f ed 3c
       -0.020291656 -0.035002172 -0.17883237 0.02899156
000160 a1 37 bc 3d 52 0d 47 3d c1 81 d5 bc b7 40 56 bc
       0.09190298 0.048596688 -0.026062848 -0.013076953
000170 69 d6 89 bd ec c1 18 be e2 35 50 be c2 16 9f be
       -0.067303486 -0.14917725 -0.20333055 -0.3107205
000180 bd 58 a9 3d 97 37 d7 3d 63 87 b4 3d 87 cb aa bd
       0.082688786 0.1050865 0.088148855 -0.08339601
000190 6b 2d f8 bc ad a4 72 bd d6 8b 29 3b 76 00 9f 3c
       -0.030295094 -0.05923908 0.0025870702 0.0194094
0001a0 54 79 fd bd e3 e3 65 bd c2 af 90 3d e2 21 b7 3d
       -0.12376657 -0.056125533 0.07064773 0.089420095
0001b0 a6 00 e9 3c 89 ae a8 3c 32 09 c2 bc f4 26 ad 3d
       0.028442692 0.020591037 -0.023686025 0.08454695
0001c0 48 97 13 3c bb a6 ff 3a d2 9c d4 bd 0b 40 44 3c
       0.009008236 0.0019504646 -0.103814736 0.01197816
0001d0 a8 4a f3 bc 9f 7c e0 bd 2e ff 73 3d ef 7a 97 bd
       -0.029698685 -0.109612696 0.05956953 -0.073964946
0001e0 4f 47 52 bd 75 ae ce 3d 95 b7 65 3c 5d bb d3 3d
       -0.051337536 0.10091869 0.01402082 0.10338471
0001f0 61 51 6d bd 62 4d f4 3d 8d eb 4b 3b a1 56 dd 3c
       -0.057938937 0.11928822 0.003111574 0.027018847
000200 e6 0a 4a ba 4e 03 21 3d d8 83 96 bc da 89 d2 3c
       -0.00077073125 0.039309792 -0.018373415 0.025700498
000210 d5 67 43 ba 92 81 2e 3e 71 51 47 bc 04 50 f2 bd
       -0.0007454132 0.17041615 -0.012165413 -0.11831668
000220 b7 c4 5a 3d 69 4a c9 3c 69 78 ab 3c 23 02 95 3d
       0.05341026 0.024571614 0.02093144 0.07275798
000230 29 45 96 3b 79 42 3f bd 0a ce b4 bd 4a 30 91 bb
       0.0045858813 -0.046694253 -0.08828361 -0.0044308053
000240 e0 ab b3 3d de 96 c8 3c 36 07 1e 3d c1 30 c5 bc
       0.08773017 0.024486002 0.038581096 -0.0240711
000250 54 bc 9b bd 1a 84 ac 3d d5 f5 c1 bd 9b 4d 88 bd
       -0.0760428 0.08423634 -0.09470717 -0.06655427
000260 d8 5b a4 bc 8d 99 83 bc bd 36 8d 3d 1d 23 c5 bc
       -0.020063326 -0.01606443 0.06895206 -0.024064595
000270 d9 34 c3 bd 35 47 ca bd 39 60 e0 3c 02 b8 f0 bd
       -0.09531564 -0.09876863 0.027389633 -0.11753847
000280 4b 80 1a 3e ac bd fb bd a3 63 13 bc d1 c2 e0 bd
       0.15088002 -0.122920364 -0.008995923 -0.10974658
000290 a5 ae 98 3d fa 2b 91 be 27 68 b7 bc 0a 53 91 be
       0.07455186 -0.28353864 -0.02238853 -0.28383666
0002a0 79 70 e7 bd da 36 ab bd 57 ec d9 bd 60 18 1f 3d
       -0.11300749 -0.083600715 -0.106407814 0.038841605
0002b0 49 a6 58 3c 11 f2 ce bc 3b d5 d0 3d 00 8d 2d bd
       0.013223239 -0.02526191 0.101969205 -0.042370796
0002c0 75 34 a1 bc 26 53 75 bd a5 91 2d be 81 85 5a be
       -0.019678334 -0.05989375 -0.1695009 -0.2133999
0002d0 45 ca 1a 3e c6 94 5f 3e 90 64 da 3d 2c 1c b7 b9
       0.15116222 0.21834096 0.10663712 -0.0003492547
0002e0 54 5a 95 bd 3c d5 d0 bc f4 96 2b be e9 38 9c be
       -0.07292619 -0.025492303 -0.16756803 -0.3051217
0002f0 5d 93 23 be 81 f3 c8 3d 73 05 b4 3d 9a db d5 3d
       -0.15974183 0.0981207 0.08790102 0.10442276
000300 dd 70 5e ba c0 c1 10 bc ef 7b ff 3c 12 5d 11 bd
       -0.0008485446 -0.008835256 0.031187026 -0.03548915
000310 52 41 82 be 0d 83 8f bd 09 4b d6 3c 3b 4a d5 bc
       -0.2544046 -0.07007418 0.026158826 -0.026036372
000320 ea af d8 3d e1 b7 86 3c 63 88 72 bd 1b 98 13 3d
       0.10580428 0.016445102 -0.0592121 0.03603373
000330 be 2b 28 be c4 2e b1 bd 60 c7 1c be 5c d5 09 bd
       -0.16422936 -0.08651498 -0.1531043 -0.03365074
000340 ec 9f 81 3d ce 5f 0b bc 0a e9 b3 3d 84 4b 88 bc
       0.06329331 -0.008506728 0.08784683 -0.016637571
000350 8e a2 10 be 17 fb 7f bd ac 61 1d 3e 5f fb a4 3d
       -0.1412451 -0.062495317 0.1536929 0.08055758
000360 01 52 c3 bb 67 65 21 bc 42 0c 9a bd c2 1a d2 3c
       -0.0059607034 -0.009850836 -0.07521869 0.025647525
000370 54 b2 66 bd 8b 3d 4f bc 7d 0c d1 bc 48 ab b0 3d
       -0.05632241 -0.01264895 -0.02551865 0.08626419
000380 aa 3b 46 3d e8 fa 18 3d 7f 29 0c 3e d3 18 cc 3c
       0.048396744 0.037348658 0.13687705 0.02491418
000390 a8 d4 83 bd ab 1d 31 3b be c0 69 3c 72 83 9e 3d
       -0.06437045 0.002702574 0.014267145 0.07739915
0003a0 a7 ae 3a 3d 31 b8 59 bc 33 e3 b3 bc 3f 0e 48 be
       0.045576718 -0.013288544 -0.021958923 -0.19536684
0003b0 a1 46 df 3b 94 6e 23 3d 5a 81 0f bd 1d da ea 3c
       0.0068138395 0.039900377 -0.03503547 0.028668458
0003c0 b8 ba 5a 3d 3e f0 b0 3c 26 84 53 3e 9d c2 82 bc
       0.053400725 0.021598931 0.2065588 -0.01596194
0003d0 e5 da 7a bd cb 96 c9 3d 5e a5 37 bd 7f 09 6a be
       -0.06124391 0.098432146 -0.04483544 -0.22855185
0003e0 64 0b 3f 3d b8 fe 88 3d dd c0 5e bd 87 2a 81 3d
       0.046641722 0.06689209 -0.054383148 0.063069396
0003f0 26 45 1b bc 09 0f df 3d bd 75 73 3c c7 46 dd 3d
       -0.0094769355 0.108915396 0.014859614 0.10804515

bias f4 [40]
000000 f6 37 28 3c 33 9b 40 3e 45 3e 85 3b 85 52 9e bd
       0.010267248 0.18809204 0.004066261 -0.07730583
000010 52 dc ab 3d 59 b5 d1 3d eb 28 6a 3e 13 1f 85 3e
       0.08391632 0.102396674 0.22867171 0.2600027
000020 6a 7a 37 3e ee 62 47 bc 86 e3 12 be 3b 03 08 be
       0.17917791 -0.012169583 -0.14344606 -0.13282482
000030 bb c9 60 3e ef 6f d9 3d ca 5c 19 3e 23 4d 88 3e
       0.21951954 0.10617053 0.14976802 0.2662135
000040 a0 b4 e2 3d 50 54 97 3c d9 93 05 3e 90 e5 b5 3c
       0.11069608 0.01847282 0.1304468 0.02220419
000050 d7 59 5d 3e 8f 3d 75 3e ca b6 0d 3e e7 59 2a 3d
       0.21616302 0.23949264 0.1383926 0.041589644
000060 d3 ae d2 3c f0 a7 b0 3d 97 dc c5 3c ae 70 13 3f
       0.025718128 0.086257815 0.024153037 0.5759381
000070 38 4d 1a 3e d5 d6 d4 3d 16 b0 26 bd 1e 3d 91 3e
       0.15068519 0.103925385 -0.040695272 0.2836694
000080 2c 43 72 bc 7e 25 8c bd 1f c9 18 3e 16 c1 fb bc
       -0.014786523 -0.068430886 0.14920472 -0.030731719
000090 74 41 59 3d 84 f1 71 3e 98 51 63 bd ed 59 6e 3e
       0.053040937 0.23627287 -0.055497736 0.23276491

weight f4 [40, 40, 4]
000000 5a 9d 2d 3d 8b 96 72 bd 4b 7f d0 3c 4c f9 21 bd
       0.04238639 -0.0592256 0.025451323 -0.03954439
000010 18 94 9e bd c6 97 93 bd 68 42 75 bd 9d cd 04 be
       -0.077430904 -0.07206683 -0.059877783 -0.1296906
000020 67 29 30 3d 90 62 b5 3b bd cd 11 be 21 da dc bd
       0.043008234 0.005535431 -0.14238639 -0.10783792
000030 b5 d3 7c 3a 98 25 ca bc 63 7b b1 bd 33 a4 00 3d
       0.0009644584 -0.02467613 -0.08666112 0.031406593
000040 19 20 f5 bb a0 35 09 bd 22 23 83 bd ac e6 bc bd
       -0.007480633 -0.033498406 -0.064031854 -0.09223685
000050 c6 17 35 3c 14 bf eb bb bc 9e cd 3c 7f 34 06 3d
       0.011053031 -0.007194409 0.025100105 0.032764908
000060 ac 96 94 bd 17 08 3e 3d c9 b3 49 bd 6e 42 9b bd
       -0.07255301 0.046394434 -0.049243722 -0.0758103
000070 aa 8e 1c bc 6b 44 83 bd e3 e3 43 bc 0f 74 8c bd
       -0.009555498 -0.06409534 -0.011956188 -0.06858074
000080 52 e9 97 3c ef 50 6c bd f6 f5 80 3c 35 8c 29 bc
       0.018543873 -0.05769437 0.015742283 -0.010348369
000090 64 3f c0 bd 39 19 a6 bd b6 8b 62 3d 12 99 86 bd
       -0.09387091 -0.081102796 0.05530902 -0.065721646
0000a0 85 b3 03 3d 70 2b 66 bd ac 3f 80 bd c0 a6 e4 3c
       0.032153625 -0.05619377 -0.062621444 0.027911544
0000b0 da d9 4d 3d 49 9b 30 bd aa e4 8c bd 8b 19 49 bd
       0.050256588 -0.04311684 -0.06879552 -0.049096625
0000c0 57 04 85 bc a0 03 7d bd 6e eb a2 bd c3 70 8b bd
       -0.016237421 -0.061771035 -0.07955061 -0.06808617
0000d0 08 01 b8 bd a7 1f 9e bc 52 51 93 bd 23 70 df bd
       -0.08984572 -0.019302202 -0.07193245 -0.1091006
0000e0 17 10 87 3b e5 bd 1b bc c4 7e b2 bd 13 e2 37 3d
       0.004121791 -0.009505724 -0.08715585 0.044893336
0000f0 45 42 06 bd 42 7c c0 3b b1 21 04 bc d1 b6 8e 3d
       -0.032778043 0.0058741877 -0.008064673 0.06968463
000100 41 35 7d bc 63 44 74 3d f6 45 1a bd 44 e6 b9 bc
       -0.015454591 0.05963553 -0.037664376 -0.022692807
000110 c6 37 a1 bd e3 8a 9d bd 90 85 53 bc a2 cc 92 3d
       -0.07871966 -0.07692506 -0.012910262 0.07167937
000120 fe 52 6e 3c 2e 49 0c bd 88 64 51 3d 93 be 4e 3d
       0.014546154 -0.034249477 0.051121265 0.050474714
000130 a9 52 8a bd dd 9e 03 bd b3 68 fb 3c 8a 55 3b 3d
       -0.067540474 -0.032133926 0.030689573 0.045735873
000140 75 97 f5 3c fc d4 67 bc 60 2c 07 bc 7a 8a 8d bd
       0.029979447 -0.0141499005 -0.008250326 -0.06911178
000150 ff 45 27 bd 2f c8 bf bc af b6 f7 3c ec 47 d2 3c
       -0.040838238 -0.023410885 0.030238478 0.02566906
000160 fd c1 af bd 95 d4 2d bd 5a de 94 bd cf c8 30 3d
       -0.08581922 -0.042439062 -0.07268973 0.043160256
000170 4c 67 79 bc 91 3d 83 3a 6a f2 dc bd 5d 49 ef bc
       -0.015222382 0.0010012855 -0.10788424 -0.029209787
000180 e6 d8 0e 3d 42 a7 6f bd 6b 46 50 3d 3a 0e c0 3c
       0.03487482 -0.05850912 0.050848406 0.023444284
000190 d2 79 12 3d 28 44 1c bc 7c 2d c5 bd 87 6c 1f 3a
       0.03576071 -0.009537734 -0.09627816 0.00060815405
0001a0 88 3c 83 3c 42 17 60 3d 99 aa c8 bd 4a 4f 1d bd
       0.016020074 0.05470968 -0.09798164 -0.038405694
0001b0 ab 17 63 bd 4b 51 a5 bd 61 9a a8 bc 45 3f 1a bd
       -0.055442493 -0.08072146 -0.020581426 -0.037657995
0001c0 9d e7 16 3d cf 3e 45 3d 99 d7 73 3d d8 74 a1 bd
       0.036841977 0.048155602 0.05953178 -0.07883614
0001d0 09 a5 0b bd f4 78 9e bc c7 89 02 be 5e e8 ab bd
       -0.034092937 -0.019344784 -0.1274787 -0.0839393
0001e0 78 bb aa bd 73 2c 45 bd 19 25 29 bd 43 be f0 3c
       -0.08336538 -0.048138093 -0.041295145 0.029387599
0001f0 7d 4e 5c bd 34 38 1b bd d6 b8 2c 3d 41 b2 6d 3d
       -0.05378579 -0.037895396 0.04216846 0.058031324
000200 86 21 48 3d 73 2a 69 bc 6b 8a 98 bd 6d e6 02 bd
       0.048860095 -0.014231312 -0.07448276 -0.031958032
000210 04 d7 36 bd 78 91 39 bd 7a 1c 89 3d 71 30 28 bd
       -0.04463865 -0.045304745 0.066948846 -0.041061822
000220 bb c3 2e bc d3 da e1 3c 70 9f 01 be 87 f5 d9 bd
       -0.010666783 0.027570164 -0.12658477 -0.10642534
000230 42 a5 52 bd f1 77 83 b9 2b 33 57 3b 96 35 db bc
       -0.051427133 -0.0002507563 0.0032836895 -0.02675895
000240 6d de b0 bc 7e f7 01 bd a7 2a f5 3c d8 a0 50 bd
       -0.021590436 -0.031730168 0.029927565 -0.050934643
000250 c9 ac 2f bb 52 4f 4c bd cc 6f c9 bd 48 b9 c3 bc
       -0.002680587 -0.049880333 -0.09835777 -0.02389206
000260 86 71 98 bd b0 64 58 bd ba 88 57 bd 04 22 7d 3c
       -0.07443528 -0.052830398 -0.052620627 0.0154500045
000270 e0 c5 a8 bd 2e 5d a7 bc fe 03 01 bd 27 7d 25 bd
       -0.08240867 -0.020430174 -0.031497948 -0.040402558
000280 4c 08 5e 3c 3b e8 bd 3c cd da 15 3d 83 27 13 3d
       0.013551783 0.023182025 0.036585618 0.035926353
000290 aa 21 37 bd 82 97 94 bd b2 b0 1e 3d c0 b4 1b bc
       -0.04470984 -0.0725546 0.03874273 -0.009503543
0002a0 89 a5 b6 bd d3 c7 d9 bd d1 78 17 bd a9 40 12 3d
       -0.08918292 -0.106338166 -0.036980454 0.035706196
0002b0 ef 31 1a bd 91 3a 3a ba cd fd 4d 3d 37 ab 39 bc
       -0.037645277 -0.0007104064 0.05029087 -0.011332325
0002c0 0d 06 ca 3c 9e 81 50 bd 0b 54 97 3d e0 c4 cc bd
       0.024661088 -0.050904863 0.07389077 -0.099984884
0002d0 34 0d 95 bd d6 b9 ae bc 88 26 90 3c 0a 21 a2 3d
       -0.07277909 -0.021328848 0.017596498 0.07916458
0002e0 df bf a3 bc d9 9c 7d bd 96 bc 11 3d ba 84 cd bc
       -0.019988952 -0.06191716 0.03558024 -0.025087703
0002f0 0a cf a3 bd 4e 19 81 bd 5f 80 22 bd b8 0a 76 bd
       -0.07998474 -0.063036546 -0.039673205 -0.060068816
000300 ac 83 a4 bd 2c fa 15 be cc 05 b6 bd ea 6d ff 3d
       -0.08032927 -0.14646214 -0.088878244 0.12472136
000310 b5 93 b9 bd 6f b0 8a bd f5 31 0a be d2 54 14 3d
       -0.09061376 -0.06771933 -0.1349562 0.036213703
000320 27 95 be 3c 98 53 88 bd 56 16 93 bd 2b fc 1c 3d
       0.02326448 -0.06656569 -0.071819946 0.038326424
000330 06 66 5e bd 11 a0 5d bc fa 0e c9 3d ec 08 1c bd
       -0.054296516 -0.013526932 0.0981731 -0.038094446
000340 22 19 eb bd 50 f9 df 3c 23 f1 00 bb f2 e3 25 3d
       -0.11479403 0.027340561 -0.0019674979 0.04050059
000350 ad 62 43 bd 30 43 02 3d 99 35 e8 3b 58 ab 4d bd
       -0.047701526 0.031802356 0.0070864675 -0.050212234
000360 d2 4e c2 bd 98 2c f7 3b c0 31 31 bc d4 84 05 3d
       -0.0948769 0.007543158 -0.010815084 0.032597378
000370 01 91 b3 bd 7a 13 b2 bd 44 f4 0d 3c a4 08 c8 3d
       -0.08767892 -0.08695121 0.0086641945 0.09767273
000380 45 a5 0f 3d 58 a4 d8 bd 0b 23 58 bc 8b ff f8 bc
       0.035069723 -0.10578221 -0.013191949 -0.03039529
000390 70 88 97 bd 57 1b e0 bd 0a 9c 0d 3d 00 69 96 3a
       -0.0739907 -0.10942715 0.03457264 0.0011475384
0003a0 26 39 a7 bd df 2f b4 bd 0a 3d 70 3d 50 00 16 3c
       -0.08165197 -0.08798193 0.05865196 0.009155348
0003b0 a2 20 2c bd f0 a5 1a bb 50 25 8a bc 37 77 d4 3d
       -0.04202331 -0.0023597442 -0.016863495 0.10374301
0003c0 83 15 c3 3c d8 cb b7 bd 9d 23 e0 3a 0f 55 ad bc
       0.023813969 -0.08974427 0.0017100457 -0.021158723
0003d0 13 fb ea bd cc e6 ec bd 5d 27 de 3d 92 2e 3c bd
       -0.1147367 -0.115674585 0.10847352 -0.04594285
0003e0 6d 3c a5 bd 99 70 22 bd 61 7d cf bd ba 1a 9d bc
       -0.08068166 -0.039658163 -0.10131336 -0.019177783
0003f0 25 05 63 bd 36 d9 2b bd 87 f8 dc 3b 67 c2 35 bd
       -0.055424828 -0.041955195 0.006743494 -0.04437485

bias f4 [40]
000000 5f 8b 85 bd e9 3f 25 3d 75 83 e1 3d 92 a9 e1 3c
       -0.065207236 0.040344153 0.110114016 0.027546678
000010 ba e7 06 bd 9e 57 54 3d ac 71 fd bd 0c 37 a5 bc
       -0.032935835 0.05184137 -0.12375197 -0.02016785
000020 66 fb 20 3e aa 55 2f 3d 74 b3 58 bd c8 50 e3 bc
       0.15720901 0.042806305 -0.052905515 -0.02774848
000030 d3 f4 30 bd e5 3a ed 3d d9 70 83 3e a5 ce db 3d
       -0.043202233 0.11583499 0.25672033 0.10732774
000040 34 04 35 3e a9 06 98 bc af 53 cc 3d 4f b4 86 3d
       0.17677385 -0.018557863 0.09976899 0.0657736
000050 55 40 d6 3c fe c2 33 3d 32 26 17 3e 08 50 69 3e
       0.026153723 0.04388713 0.14760664 0.22784436
000060 f7 1a 6d bd 4a 3d 8c 3b 18 28 cd 3c 15 af 85 3e
       -0.057887044 0.004279767 0.025043532 0.2611014
000070 4b 99 af bd 70 73 a6 bd e3 ac f3 bc b3 de 20 bd
       -0.0857416 -0.08127487 -0.029745525 -0.039274883
000080 ea 2e 60 3e e7 46 23 3e 6d d7 bb 3d 3b 86 75 3e
       0.21892896 0.15945016 0.091719486 0.23976986
000090 92 e3 33 3e a8 5a 82 3c 51 35 a7 bd b0 9e da 3e
       0.1756728 0.015912369 -0.08164466 0.42699194

weight f4 [40, 40, 3]
000000 4c 6e f0 3d 02 9f 26 bd 71 52 8f 3d 92 be 73 3d
       0.117397875 -0.040678985 0.06998146 0.059507914
000010 ff a9 1c 3e a9 3a 64 bc aa d0 90 3d 3a 75 87 bd
       0.15299223 -0.013930001 0.070710495 -0.06614156
000020 fa b4 50 3d 77 3e 2e 3d 78 8d 5e be b6 95 c5 bd
       0.050953843 0.04254004 -0.21733654 -0.09647696
000030 22 29 71 bd 72 cd c3 bc f4 80 b3 bd 08 08 6d bc
       -0.058877118 -0.023901675 -0.0876483 -0.014467247
000040 e5 1f 50 bd c5 f6 3a be 3f e4 22 3e 9d 66 ee 3c
       -0.050811667 -0.18258198 0.15907381 0.029101664
000050 76 4d 06 be a1 aa c1 bc 2a 23 29 3d 1c 88 94 3d
       -0.13115487 -0.023640933 0.0412933 0.07252523
000060 55 39 69 3d 3b c4 57 bb 8c c4 1c 3e 9a c7 13 3e
       0.05693944 -0.003292336 0.15309352 0.1443161
000070 e5 1a 79 3d 54 0c b8 bd 6c cd cd 3c a0 7a cb bd
       0.060816664 -0.089867264 0.025122367 -0.09935498
000080 d0 f5 cf bd 78 71 84 3d b1 7e 77 bd 5f 54 0e be
       -0.10154307 0.06466955 -0.060423557 -0.13899373
000090 b8 f7 43 bc 32 93 39 bd 9a a0 93 bc 0e ef bc bc
       -0.011960916 -0.045306392 -0.018020917 -0.023063209
0000a0 76 f4 d6 3d 1d ab 9c bd 77 e4 b2 bb e0 bc 86 3c
       0.10495846 -0.07649825 -0.005459364 0.016447484
0000b0 a1 12 ca bd dc 74 67 bd 1a d4 fa 3d cb 20 f9 bd
       -0.098668344 -0.05650793 0.122474864 -0.12164458
0000c0 c9 22 af 3d 64 c4 9c 3d da 5c 3e be 91 68 42 3d
       0.085515566 0.07654646 -0.18590108 0.047463004
0000d0 5c 23 35 3c 7a 90 1f 3e bd a0 99 3d d8 32 c5 3d
       0.011055794 0.15582457 0.075013615 0.09628838
0000e0 9c f1 ef 3d a4 d3 bd 3b c0 c2 30 3e 4a ca e9 bd
       0.11716005 0.005793052 0.17261791 -0.11415537
0000f0 fc 63 02 bc 78 6b 1f 3b 27 e0 ad 3c 94 56 e0 bd
       -0.007958408 0.002432553 0.021225048 -0.109540135
000100 2e 24 11 3e be 0b a6 3c f8 69 63 3d a6 8b 20 3d
       0.14173958 0.020269271 0.05552098 0.03919568
000110 8c ff 2d bc b7 fd 59 3e 8f fd 80 3e 1f 69 a2 3d
       -0.010620009 0.21288191 0.2519345 0.079302065
000120 0d 17 3b bd 9f 1f 19 bd b8 de 32 3d 0e d8 8b 3d
       -0.04567628 -0.03738367 0.043669432 0.068283185
000130 fb 7c ec bb 6c 0a ed be e4 99 3e bd f6 03 72 3e
       -0.0072170473 -0.46297014 -0.04653348 0.23634323
000140 ad de 8a 3c 95 50 2a 3a d0 7b 05 bd 35 41 1d 3c
       0.016951883 0.0006496993 -0.03258878 0.009598066
000150 0f 30 71 bc 79 a9 ad 3d b7 18 8b bb dd db aa 3d
       -0.014720931 0.0847959 -0.0042448896 0.08342717
000160 59 6a 32 bd 2c ae 88 bc 08 53 c4 3d cf 21 13 bd
       -0.043558452 -0.016684614 0.095861495 -0.035920914
000170 f2 4b c2 3d e6 cd d8 ba cb 7b dc bd f3 90 2f bc
       0.09487142 -0.0016540855 -0.10765799 -0.010715711
000180 7b ee 06 3e f9 fe fa bb f3 76 75 be 1d ed a7 3b
       0.1317691 -0.0076597896 -0.23971157 0.0051247017
000190 c0 51 c0 bd 92 62 04 3e f0 4e ca 3d 4c c0 23 3d
       -0.093905926 0.12928227 0.098783374 0.03997831
0001a0 37 61 38 be 7c 02 7b 3d f8 ee 3b 3d f1 cc 2f 3d
       -0.18005835 0.061281666 0.045882195 0.042920057
0001b0 dd a8 cc 3d 2a ba 86 3d bb 4a 21 3c 97 9a ba ba
       0.099931456 0.06578477 0.009844477 -0.0014236745
0001c0 e0 9b 5e bd e3 bb a5 3c a2 1a 8d bd 48 1b 66 bc
       -0.054347873 0.020231193 -0.068898454 -0.01404459
0001d0 be 1f a6 3d 92 f2 0e 3e 28 b5 f7 bc 2d 9e d3 3d
       0.08111523 0.1395972 -0.03023775 0.10332904
0001e0 bc 54 5e bd f8 35 31 3d 4b af 45 bd 27 92 21 3d
       -0.054280028 0.04326436 -0.048262876 0.039446022
0001f0 26 8e 63 3d 47 6d c8 bc 97 e3 f5 bc 1d f6 30 3e
       0.055555485 -0.02446617 -0.03001575 0.17281385
000200 28 d9 ec bd cf 3b ea bd 69 ef 1e 3e 14 68 71 bd
       -0.11564857 -0.11437189 0.15521015 -0.058937147
000210 e7 d8 93 bc bc 48 48 bd c9 45 6e bc e2 75 68 3e
       -0.018047763 -0.04889749 -0.014543005 0.22701219
000220 4b 90 9c bd a9 07 9f be 97 3b 5d bd 2f 7a bb bd
       -0.07644709 -0.31060532 -0.054011907 -0.09154164
000230 cf 2b 06 be b9 54 22 bd 10 b3 0f 3e 21 12 54 bd
       -0.13102649 -0.03963158 0.1403315 -0.0517751
000240 02 aa 50 3d 60 b4 d2 bd be 69 02 be 57 bf 4f be
       0.050943382 -0.1028831 -0.1273565 -0.20287834
000250 12 93 b5 3d 89 44 b0 bd 80 e7 00 bc 92 80 a9 bd
       0.08865942 -0.08606822 -0.007867694 -0.08276476
000260 fd 10 97 3d 0c 68 91 bc db 3a 8f 3c cd 4c ae 3d
       0.07376287 -0.017749809 0.01748412 0.08510742
000270 90 b3 d8 3d 28 2a 67 bd 9c a9 d0 3c a3 c1 0d be
       0.10581124 -0.056436688 0.025471501 -0.13843398
000280 83 a2 7f 3d 4a 3e 7c 3d f5 de 17 3d ef 80 70 3d
       0.062410843 0.06158284 0.037077863 0.05871671
000290 35 3a f4 3c 0e 5a cb bd da 57 48 3d f0 a3 11 be
       0.029812912 -0.09929286 0.048911907 -0.14222693
0002a0 8b b6 7d bc 2b a4 1f 3d 65 a7 02 be 67 01 9c bc
       -0.015485416 0.038974922 -0.12759168 -0.019043637
0002b0 24 ca ac bd c1 72 85 bd e7 e7 24 3e f8 81 b9 3d
       -0.08436993 -0.06516028 0.16104089 0.09057993
0002c0 a3 85 dd bd fd 82 11 3d 4d fa 8e 3c 3b ab cb 3b
       -0.10816505 0.03552531 0.017453337 0.0062154806
0002d0 a1 5d de 3d a5 d9 18 bd 1f 9d a2 be 6b 5f ba bd
       0.10857702 -0.037316937 -0.317605 -0.09100231
0002e0 e0 d7 2d bd e6 fd 5f bd 0f 80 bd bc 4f b0 65 3d
       -0.042442203 -0.054685496 -0.023132352 0.056076344
0002f0 7f 98 25 be 3a c2 91 bd 50 a4 88 3d ec e6 51 bd
       -0.16171454 -0.07117124 0.06671965 -0.051245615
000300 d7 42 6f 3d 1a 2e 35 3d 06 22 24 bd eb ff 1d bd
       0.058413353 0.04423342 -0.04007151 -0.03857414
000310 9f 7d 2c 3e 95 2f 37 3b 98 72 55 bd 44 8e a5 3b
       0.16844796 0.0027951945 -0.05211124 0.00505236
000320 ce de 61 3d e1 34 08 ba 23 18 8b 3d 7b 45 15 bd
       0.055144124 -0.0005195868 0.06791713 -0.036443215
000330 dd a4 0e be e2 42 00 be 23 92 89 be ee 63 2f 3d
       -0.13930078 -0.12525514 -0.26869306 0.04281991
000340 e9 77 52 3c 7a 50 b6 3d 25 77 9d 3d f5 07 26 bb
       0.012845972 0.089020684 0.07688741 -0.0025334333
000350 c6 9d a6 3c 3c 3d 9a bd c4 79 73 bd 5d 20 87 bd
       0.020338904 -0.07531211 -0.059442297 -0.0659797
000360 f5 dc 2a bd 65 d7 37 3e 2e f5 cd 3d d0 d9 88 3d
       -0.041714627 0.1795326 0.1005653 0.066821694
000370 7d ab 6f 3d e5 b4 35 bc 54 88 4c be 85 eb 8c bd
       0.058513153 -0.011090492 -0.1997388 -0.06880859
000380 ea d1 69 3e ef 35 96 bd 3b 6c 12 3c a2 a3 37 3d
       0.22833982 -0.07334506 0.008936937 0.044833787
000390 da 85 00 bd 86 79 e6 3c c5 58 ca 3d 9a d9 96 3d
       -0.03137765 0.028134119 0.09880213 0.07365723
0003a0 86 f1 de bd 54 1a 9b be 38 d5 48 bd 8d 08 58 bd
       -0.10885911 -0.30293524 -0.049031466 -0.05274253
0003b0 72 27 10 3b 39 bd 23 3e a3 fd 46 3e e2 90 31 bd
       0.0021996167 0.15990151 0.19432692 -0.04335106
0003c0 f6 60 29 bd 9d 78 5e 3c 8c 30 b7 bd cf 94 a5 3d
       -0.041352235 0.013578561 -0.089448065 0.080850236
0003d0 65 43 3c 3d 39 ac 39 3c a6 ee 07 bd c1 e8 90 be
       0.04596271 0.011332565 -0.033186577 -0.28302577
0003e0 4f 9e ab 3e 6f d0 a4 3d 4e c5 38 3d 52 63 bd bd
       0.33519217 0.08047568 0.04511004 -0.092474595
0003f0 cb 47 b8 bd a9 a8 1b bd 7a f9 54 bd 13 49 17 bd
       -0.089980684 -0.038002644 -0.051995732 -0.036934923

bias f4 [40]
000000 59 2f e1 3d 35 71 7d 3d 22 13 16 be 00 3d 99 3d
       0.10995359 0.06187554 -0.14655736 0.07482338
000010 f4 d3 82 bd 21 11 f9 bb a8 04 ba bd bb d4 05 be
       -0.06388083 -0.007600919 -0.09082919 -0.13069431
000020 c0 27 02 3d 8f e0 ec 3d 1e 8d 42 bd 74 a1 3c 3d
       0.03177619 0.11566269 -0.04749786 0.04605241
000030 1d 6e 64 be 13 7c 79 3d 70 90 a5 3d 5e d3 a5 3c
       -0.2230763 0.060909342 0.0808419 0.02024239
000040 80 e7 09 3e 71 ae cb 3d 04 a1 03 3e fa f4 49 3d
       0.13467216 0.099453814 0.12854391 0.049305893
000050 dd 20 31 bd fb 7a 0e 3d 01 f0 d4 3d a6 2c 12 be
       -0.04324423 0.034785252 0.103973396 -0.14274845
000060 ea 0c a4 bd cf f6 7e bd 72 86 2f bc 45 cf 92 3d
       -0.08010276 -0.062247094 -0.010713207 0.0716844
000070 0e 74 09 3d a6 69 38 bc 7f 93 81 3d 70 ad 06 be
       0.033557944 -0.011255657 0.06326961 -0.13152099
000080 11 b2 82 3d ce 43 c8 3d 32 70 2d 3e a0 8c 05 3d
       0.0638162 0.09778558 0.1693733 0.032604814
000090 82 df 87 bd 5d 66 9f 3d e0 b6 4a 3e 4f ce 25 3e
       -0.066344276 0.07783196 0.19796324 0.16191982

weight f4 [40, 40, 3]
000000 a3 28 3a 3b 92 25 2e 3c 21 94 8f bd 4e 6e 83 3d
       0.002840557 0.010629075 -0.07010675 0.06417523
000010 3e 60 a4 bd 21 83 82 3d 0b b3 ad bd dc 27 62 3d
       -0.08026169 0.06372667 -0.08481415 0.055213794
000020 17 f9 df 3c d8 ab 2a bd d9 fc 91 bd 70 d0 ce 3c
       0.027340455 -0.04166779 -0.07128305 0.025245875
000030 a3 bc b2 bd f9 80 83 bb eb c3 9f 3d 01 5f 85 bc
       -0.08727386 -0.0040131775 0.0780104 -0.016280653
000040 aa 4b c1 bd da 14 d5 bc 96 3c 84 bd 3f 01 63 bd
       -0.0943826 -0.02601092 -0.06456868 -0.05542111
000050 b0 f4 2a bd ea c0 81 bd 55 a9 44 bd 2a 22 9d bd
       -0.04173726 -0.063356236 -0.04801305 -0.07672532
000060 96 ca 2f bd 45 f6 4a 3d cf 79 e0 bd 7d a3 c7 bc
       -0.04291781 0.049551267 -0.10960733 -0.02436995
000070 a3 d1 67 bb d5 e2 8d 3c c4 e5 56 3d fb e0 b6 3c
       -0.0035372756 0.017320076 0.052465215 0.022324076
000080 53 f4 54 bc 1e 5f c1 bd b6 0a cd bd 8d 5e d7 bd
       -0.012997705 -0.0944197 -0.100118086 -0.10516081
000090 c2 27 4f 3d 3a 56 9d 3d 19 e6 98 3d a5 a3 9e 3c
       0.050575025 0.07682462 0.07465763 0.019365141
0000a0 f5 21 5a bd fc d1 83 bd 03 e0 82 3d 46 fa 64 3d
       -0.05325504 -0.06436536 0.06390383 0.05590274
0000b0 91 93 2a bd 4c 37 91 bd b3 5d ef 3c 3f 2c ee 3c
       -0.041644637 -0.07090625 0.029219484 0.029073833
0000c0 16 12 29 bd cd 99 2e bd 33 b4 b5 bd 48 20 24 3d
       -0.041277014 -0.042627145 -0.08872261 0.04006985
0000d0 cc 90 87 3c ac ea 7c bd d0 b9 9c 3c 0b 21 5a 3d
       0.016548537 -0.061747238 0.019131571 0.05325417
0000e0 3e 60 cd bd 08 fb c0 bd 6b 5c f8 bd d3 1b b7 bd
       -0.10028122 -0.094228804 -0.12127002 -0.08940854
0000f0 b1 c2 89 bc 46 23 97 bd 77 f1 37 3d 7b 2e a9 bd
       -0.016816469 -0.07379775 0.044908013 -0.082608186
000100 bd 4c e1 bd 8b 12 73 bb b8 70 0f bd 1b a7 90 bd
       -0.11000965 -0.003708991 -0.035019606 -0.07063123
000110 9c 2b 94 bd 9e 03 35 bd 14 8d b3 bd 65 5f 8a 3d
       -0.0723488 -0.044192903 -0.08767143 0.06756476
000120 fa 8d 61 3d d1 56 bf bd 6c e4 5d 3b bb 39 a0 3d
       0.05506704 -0.09342731 0.0033858074 0.07823511
000130 8a 92 8d bd 38 12 90 ba 3f 09 26 bd 78 a5 8c bc
       -0.06912716 -0.0010991758 -0.04053616 -0.017168745
000140 9e f0 50 3c 4a 53 af 3d 83 58 47 bb 81 d9 a9 3c
       0.01275268 0.08560808 -0.0030417747 0.020733597
000150 70 e4 5b 3d 56 e8 8f bd 1e 8b d5 bc 9d e8 76 bd
       0.05368465 -0.070267364 -0.026067313 -0.06028043
000160 e3 ce 70 bd a9 68 11 bd f7 de ab 3d 3b e3 8d 3d
       -0.058791053 -0.035500202 0.083921365 0.069281064
000170 d5 b7 43 3d a4 92 7b 3d 43 5b ba bd a1 71 7a 3d
       0.047782738 0.061419144 -0.09099438 0.06114352
000180 6c 02 85 3d fd cd 72 bc 3c e4 e3 bc e0 5f 97 bd
       0.064946026 -0.014819619 -0.027818792 -0.073913336
000190 8c 01 a7 bd d8 9c a9 bd 53 0e d4 3c f2 39 87 3d
       -0.08154592 -0.08281869 0.025885737 0.06602849
0001a0 7b c9 38 bd 79 d3 46 bd 47 bb 44 bd e9 c7 06 bd
       -0.04511402 -0.04854152 -0.048030164 -0.032905493
0001b0 d2 15 c7 bd 8d 53 b3 bc cb 78 1e bc 4a 58 19 bd
       -0.09720959 -0.021890426 -0.009672354 -0.037437715
0001c0 52 ad 49 3c a7 cd d9 b9 d4 29 47 bd 06 fc 94 bc
       0.012309389 -0.00041542688 -0.048623875 -0.01818658
0001d0 e6 1d 3e bd 62 61 1a 3d 79 e6 bc bd 73 09 4f bd
       -0.046415232 0.037690528 -0.09223647 -0.05054612
0001e0 ce 50 cf bd ca 0d 47 3d 7f 3e 4a 3d df 59 85 3e
       -0.10122834 0.048597135 0.049376007 0.2604513
0001f0 aa e9 9d be 07 79 45 3e 21 c1 d3 3d ef 32 3b be
       -0.30842334 0.1928445 0.10339571 -0.18281148
000200 38 ac f5 bd 04 ad ce 3d 36 66 d4 3c 29 eb 65 bd
       -0.11995739 0.10091594 0.025927644 -0.05613247
000210 44 1b b6 3c c3 88 e7 3d 76 47 3c 3a e8 b5 85 3d
       0.022229798 0.11305382 0.00071822794 0.065288365
000220 df f4 7b bd de a5 f6 3c b1 03 80 bc 14 a9 c0 3d
       -0.061512824 0.030108389 -0.01562676 0.09407249
000230 d0 7f 2f be e8 f8 bd bd fa 48 20 bc e4 82 46 3d
       -0.171386 -0.09275991 -0.009783024 0.04846467
000240 15 1f e0 bc e8 0a e3 3c d4 15 a9 3c dc 26 07 bc
       -0.027358571 0.027715161 0.020640291 -0.008249011
000250 fc 2a d3 3d ba 9b 94 bc 57 22 c0 3d f7 c7 9a bd
       0.10310933 -0.018140662 0.0938155 -0.075576715
000260 59 24 75 3e 41 ab 32 3c 47 08 aa bd 29 45 01 3e
       0.23939647 0.010905088 -0.0830236 0.12624039
000270 ec 68 be bc 9b d2 00 3c 5b de 58 3d 3f 2b ae bd
       -0.02324339 0.007862712 0.05294643 -0.08504342
000280 a4 9d 9a 3c fb 25 fa 3b fa 4a e4 bc 2f d9 fc bb
       0.018873997 0.007633922 -0.027867783 -0.00771632
000290 da 1d 95 bb 5e ad 89 3d e7 7d 26 bd 36 02 58 bd
       -0.0045506777 0.0672252 -0.040647414 -0.052736484
0002a0 ef b3 07 3d a0 3a aa 3d 3a 77 38 bd 7e 38 b3 3b
       0.033130582 0.08311963 -0.04503558 0.005469381
0002b0 8d 7b 30 3d b9 a8 71 bd f6 bb 2f 3d 92 7c 88 3d
       0.043086577 -0.058998797 0.042903863 0.06664385
0002c0 a0 ec 20 bd cf 1e cb 3d 99 f3 ac 3e 86 32 c5 3d
       -0.039288163 0.09917986 0.337796 0.09628777
0002d0 7a db 67 3d 7b 59 44 bd 73 8d 39 3d 24 94 bb 3d
       0.056605794 -0.047936898 0.045300912 0.09159115
0002e0 55 df a9 bd 9b dc 6c bd 09 58 96 bc a8 ea 7c bd
       -0.0829455 -0.057827573 -0.018352525 -0.061747223
0002f0 7a 36 cc 3c bd 84 0e 3d cc 65 80 3d 44 db f3 bd
       0.02492832 0.034794558 0.06269416 -0.11907056
000300 b8 bd 58 bc 1a ae 0f 3e 4c 8e a3 3c db 4f ae bd
       -0.013228826 0.14031258 0.019965313 -0.08511325
000310 b0 21 1a be cf b9 f4 bd 93 85 8c bd 92 de f3 3b
       -0.15051913 -0.11949503 -0.06861415 0.007442304
000320 83 50 09 be 12 d4 ac bd f6 ed 43 3d 40 d9 8f bd
       -0.13409619 -0.08438887 0.04783436 -0.07023859
000330 06 45 8d 3d 27 65 a0 bc 41 3b 3e 3d 44 6d 5b bd
       0.06897931 -0.019579483 0.046443228 -0.053571
000340 8e 22 1f 3c d8 be ae 3d 2c 45 a0 3d 1a cf a3 3d
       0.009712828 0.08532494 0.078256935 0.07998486
000350 d0 e5 81 bd 1a ad 88 3d 04 e6 8e 3d 98 c7 6d be
       -0.063426614 0.066736415 0.06977466 -0.2322067
000360 cf 2f 57 bd ec bd b1 bc 3c cd 32 3d 6a fd f0 bc
       -0.05253583 -0.021697007 0.043652758 -0.029417712
000370 50 ce 4c 3d 13 bb 76 bb 84 f0 6d bd e0 86 b9 3c
       0.050001442 -0.0037648126 -0.0580907 0.022647321
000380 31 63 8c 3d 82 53 5b 3c 53 ac ec 3c 4d 96 a9 3c
       0.06854857 0.013386609 0.028890764 0.020701552
000390 bd 1b a8 bd 12 4d 1e bb 7e 26 bf 3b d4 1c 86 3d
       -0.08208416 -0.0024154824 0.005833446 0.06548467
0003a0 96 e7 7b 3d 8f 9d 30 3d 10 e4 05 3e e6 6d 8e 3d
       0.061500154 0.04311901 0.1307528 0.06954555
0003b0 c4 0b 80 be cd af 51 be 2e d2 93 3c 1e 89 4c 3c
       -0.25008976 -0.20477219 0.018044557 0.012483863
0003c0 e7 60 3d 3a 63 4c b1 bd 5b be 35 bc 6a fa 5b 3d
       0.00072242174 -0.08657148 -0.011092748 0.05370561
0003d0 fd f5 82 bd ba 67 88 bd 28 63 94 bd 75 d0 80 bd
       -0.06394575 -0.06660409 -0.07245475 -0.0628976
0003e0 ab 40 37 bd 9c df 48 bc 73 22 56 bd 2b 8b 9c 3c
       -0.044739407 -0.012260344 -0.052278947 0.01910933
0003f0 69 f7 3d 3d 05 3b f5 bc 2c 53 a8 3c 1d 5c db bd
       0.046378527 -0.02993537 0.020547472 -0.107109286

bias f4 [40]
000000 8e 0c ba bd 74 10 08 bc 8d 34 b5 bd a9 21 36 bd
       -0.09084426 -0.008304704 -0.08847914 -0.044465695
000010 9b f4 f3 3d 1e a8 30 bd 89 87 31 bd c3 91 63 bd
       0.11911889 -0.04312908 -0.043342147 -0.05555893
000020 78 53 6f 3d 50 50 d9 3d 3c 62 09 3d 80 c6 30 bc
       0.05842921 0.106110215 0.03354095 -0.010789514
000030 38 e3 17 be aa 35 a6 bb 3a d1 8e 3d d1 9f c6 bc
       -0.14832771 -0.005072315 0.069735005 -0.024246128
000040 bc 62 c2 3d ee dd e1 3d 2f 53 07 3d 3e f8 60 3d
       0.09491488 0.11028658 0.033038314 0.054924242
000050 dd 06 ad bc f2 3a d4 3d d0 42 29 3d 44 be b3 3c
       -0.021121437 0.103628054 0.041323483 0.021941312
000060 7e ce 34 bd 12 dd c7 bd c5 d3 88 3d 76 cb b6 3d
       -0.04414224 -0.09758963 0.06681017 0.08925526
000070 f7 7e 59 3d 3e 83 0d bd fd 68 8f bd 26 35 a2 bd
       0.0530996 -0.03454899 -0.07002447 -0.079202935
000080 cf e0 6f 3d 90 20 fb 3c 2a e8 b1 3b 83 05 55 3e
       0.058564004 0.030655175 0.0054292874 0.20802884
000090 0e 15 22 be db ac 08 3d 84 28 fc 3d c4 59 c3 3d
       -0.15828344 0.033367973 0.12312415 0.09538606

weight f4 [20, 40, 3]
000000 1c f2 a1 be 7c 98 68 be bd 6b 28 be ef 60 9a 3d
       -0.31630027 -0.22714418 -0.16447349 0.0753802
000010 8f eb 53 bd 64 57 b1 3c 55 73 b3 3d 2f 62 e7 3d
       -0.051738318 0.021648116 0.08762232 0.11298024
000020 29 61 80 bd a7 01 da ba d9 dd b1 3c 7c 22 9e bc
       -0.06268532 -0.0016632573 0.02171223 -0.019303553
000030 6e 4e 38 3d c8 ad 1f 3d fe b6 ae 3c 7a 88 61 3c
       0.04499667 0.03898409 0.021327492 0.013765449
000040 d4 19 9b bc 58 0e 9a bd a5 22 ac bd 1a a0 b5 bd
       -0.018933214 -0.07522267 -0.084050454 -0.088684276
000050 25 7d 4a 3e 66 9d cd bc 50 f4 90 bd 1a c6 5e 3d
       0.19774301 -0.025099467 -0.07077849 0.054388143
000060 f4 8f 90 bc 42 38 84 3d fd 8e 0c 3e b1 a6 27 bd
       -0.017646767 0.06456043 0.1372642 -0.040930454
000070 7c b6 87 bb 88 15 50 3d ae 06 7b 3b d2 8b 2b 3e
       -0.004141627 0.050801784 0.0038303542 0.16752556
000080 58 38 bf bc fc 85 31 3c d2 d2 5e 3d 1c 7a cc bd
       -0.023342296 0.010835167 0.054400273 -0.09984228
000090 cc 0e 8f bd 63 0f ec bc 1e 0d 5c bc 96 57 ef bc
       -0.06985244 -0.02881593 -0.013430862 -0.029216569
0000a0 9e 9b 96 3d 0c ea ba 3c 86 a0 64 bc 41 ee 37 3e
       0.073539004 0.02281668 -0.013954287 0.1796198
0000b0 cd df 26 bc 1b 64 23 bd 5a d3 3c 3c fc f6 ae 3c
       -0.010185194 -0.03989039 0.0115249995 0.021358006
0000c0 23 71 cd bc 35 bd 12 3c 03 58 07 bc 5e b6 85 ba
       -0.025078362 0.008956243 -0.00826073 -0.0010201444
0000d0 ef c4 70 3b ec 76 d5 bd 3c 88 56 3c 47 47 ac 3d
       0.0036738475 -0.10423073 0.013094004 0.084120326
0000e0 8d eb 01 3d df e4 6c 3d fa d5 90 3c 49 ab e2 bd
       0.03171878 0.057835456 0.017680157 -0.11067826
0000f0 3f 06 39 3c 01 c3 a9 3b 0a 92 6b bd 2e 4e e6 3b
       0.011292993 0.005180717 -0.05751232 0.0070283627
000100 19 f4 fd 3c 38 31 b4 bc 10 7d 99 3d 16 e8 dc 3d
       0.031000184 -0.021996126 0.07494557 0.107864544
000110 b2 48 33 bd 35 e6 a6 3c 8f 13 2f bc 13 1d 78 ba
       -0.0437705 0.020373443 -0.0106858155 -0.00094647816
000120 d4 ef d4 bd 60 62 20 bd 92 a5 1c 3e 16 a2 3c bc
       -0.10397306 -0.039156318 0.15297535 -0.011513254
000130 ce ee 8e bd 66 11 3a bd c9 7b c5 3d 10 d8 25 be
       -0.06979142 -0.04542675 0.09642751 -0.16195703
000140 24 52 2d be e7 15 09 bd de e7 a1 3d 0d 48 67 bd
       -0.16925865 -0.033468153 0.07905553 -0.056465197
000150 8b 5e c5 bb 66 a9 81 bd 0a 05 af bc e3 45 3c bd
       -0.0060232333 -0.06331138 -0.021364707 -0.045965087
000160 04 af 1d be 3a 69 93 3d 30 85 0c 3e fc cd 6b 3d
       -0.15398794 0.07197805 0.13722682 0.05756949
000170 33 1b 2d be 5e 7f 57 bc 0c 32 3a bc a6 3a 85 bd
       -0.16904907 -0.013152925 -0.011364471 -0.06505327
000180 8f b0 eb bc d6 c3 8f bc 87 fd 7c bc 0d 86 c1 3b
       -0.028770713 -0.017549437 -0.015441305 0.0059058727
000190 7c f0 e2 bc 56 79 39 bd bd be 00 bb 96 17 14 bd
       -0.027702563 -0.04528173 -0.001964494 -0.036155306
0001a0 9e 7a 2e bd 9e 60 10 bd 68 19 f3 bc 3a 53 26 3d
       -0.042597406 -0.03524839 -0.0296752 0.040606715
0001b0 fe 9b 46 3c c6 7a 84 bc 10 45 6e 3e 35 73 26 3d
       0.012122152 -0.016171824 0.23268533 0.040637214
0001c0 de e2 08 3e 5f cd 6c 3d 4d 27 25 bd fd 7f 95 bd
       0.13367793 0.057813045 -0.040320683 -0.072998025
0001d0 8c 15 68 bc ad 43 c8 bb 6f 6d 86 3d c4 46 81 bb
       -0.014165293 -0.006111583 0.065638416 -0.0039452035
0001e0 28 a0 99 3d 3d ca 84 bd 73 7d b4 bd 93 63 14 bd
       0.075012505 -0.064838864 -0.0881299 -0.036227774
0001f0 ab 93 b4 bd 05 97 2e 3d 8f f3 74 bd e8 06 bf bd
       -0.08817228 0.042624492 -0.059802588 -0.09327489
000200 03 3f 80 3d ee 99 3b 3c dc 5d 30 bd 89 21 a3 bd
       0.062620185 0.011450274 -0.04305826 -0.07965381
000210 c3 7a 55 3c 2d 22 dd 3c 18 4a 30 3d 68 cc d1 bc
       0.013029757 0.026993835 0.04303941 -0.025610164
000220 c2 6b 0e be 59 e8 55 bd a8 c0 1f 3d 49 fd 68 3d
       -0.13908294 -0.052223537 0.03900209 0.056882177
000230 e1 d9 b3 bd de e5 8f bd ab cc 7d 3d 70 5a 09 bd
       -0.087817915 -0.070262656 0.061962765 -0.033533514
000240 ec e8 62 3d ee cc a4 3c 8d e1 e6 ba ef 46 9d bd
       0.055397913 0.02011725 -0.0017614827 -0.07679545
000250 6e 4e 5c 3d f0 35 9e 3c 6e 7c 9a 3d 67 cd 71 bc
       0.053785734 0.019312829 0.07543264 -0.014758444
000260 e7 9e 1e 3d 5a ef aa 3c 20 2b 76 3d bd 02 23 3d
       0.03872576 0.020866085 0.06009972 0.039797533
000270 ea 51 66 3d 9f 6e 88 3d cb 19 a7 bd 21 42 a8 3c
       0.056230463 0.06661724 -0.081592165 0.020539345
000280 4a 72 0c bd 6a 28 96 bd fc 8c 4e 3d 08 b3 8e 3d
       -0.034288682 -0.07331927 0.050427422 0.06967741
000290 0c 54 94 3b 57 43 1f bd 4c ac fc 3c 5b 2b a8 bb
       0.0045266207 -0.03888258 0.030843876 -0.0051321215
0002a0 d8 64 ba bd 55 2f 0d bd 50 58 4e 3d 5a 47 9d bd
       -0.09101266 -0.034468967 0.05037719 -0.07679625
0002b0 f2 0d 4d bb 43 e1 83 bd 0f c5 b8 bd 56 5a cf 3b
       -0.003128883 -0.0643945 -0.09021961 0.0063279076
0002c0 9a b6 1d bd 78 54 64 3d 33 e9 db 3c bb ae 82 3c
       -0.03850422 0.05574462 0.026844596 0.015952459
0002d0 8a d3 f0 bc 0a b2 46 bc 72 06 ea bc 68 c0 95 bd
       -0.029397745 -0.012127409 -0.028567526 -0.07312089
0002e0 c0 03 d1 bb 01 9c 74 3d aa 78 8a 3d ca 26 39 3d
       -0.006378621 0.05971909 0.06761296 0.045203008
0002f0 a9 0b 10 3c cb 14 29 3d e7 90 17 bd ef 12 9e bc
       0.0087918425 0.041279595 -0.037003424 -0.019296138
000300 20 24 8e bc ff 7f bd 3a c1 15 15 bd ab 69 9c 3c
       -0.01735121 0.0014457701 -0.0363977 0.019093355
000310 f2 84 91 bd 26 fd 01 3d b5 c0 0e bd 5f ab 72 bc
       -0.071054354 0.03173556 -0.03485175 -0.014811366
000320 a5 3e 16 3b 5f 12 44 bc 69 7a bb bd 14 b7 b4 bd
       0.0022925523 -0.011967271 -0.09154207 -0.08823982
000330 db 44 90 bd d2 96 db bd ac 69 51 3d 19 7d 61 bd
       -0.07044383 -0.10722126 0.051126167 -0.055050943
000340 28 cf 25 bd 5d 0c 9b bd ec fa 27 bd 6e 3c 0a bc
       -0.040480763 -0.075707175 -0.041010782 -0.008437259
000350 df a8 99 3c 80 3d 54 3d f4 5d 3b 3d 5e 43 c5 bc
       0.018757282 0.051816463 0.045743898 -0.024079975
000360 c3 95 4f 3d 42 08 6f bd 13 23 01 bd 0e 8d c6 bb
       0.050679933 -0.058357485 -0.03152759 -0.0060592955
000370 8d b7 a1 3d 0f 76 bc bd a8 a6 c1 bd c0 59 9d 3d
       0.07896338 -0.092022054 -0.09455615 0.07683134
000380 46 b0 8f 3d 2c 87 ef bd bb ee fb bd f8 c8 81 bd
       0.07016043 -0.11695704 -0.123013936 -0.0633716
000390 8f f4 37 bc a5 f6 53 bd 12 00 20 bd cc 4e c8 bd
       -0.011227741 -0.05174889 -0.039062567 -0.09780654
0003a0 7e d8 2d 3d 21 5c 27 bd fe fc 96 bd 66 8b d2 bb
       0.04244279 -0.040859345 -0.07372473 -0.006425309
0003b0 9a 25 bc bd 4d a0 85 bd 09 60 73 bb f3 2c 5d bc
       -0.091868594 -0.065247156 -0.0037136099 -0.013499486
0003c0 67 15 34 bb f6 97 89 3d 87 fe df 3d e9 fa 96 bd
       -0.0027478577 0.067184374 0.10937219 -0.07372076
0003d0 6e 5e 07 bd 5f d2 66 be 9b 67 f3 bd cb 08 05 be
       -0.03304904 -0.22541188 -0.118849955 -0.12991636
0003e0 a8 3c 87 bc 6a 64 49 bd 15 db 57 bd 88 5f a6 bd
       -0.016508415 -0.049168028 -0.052699167 -0.0812369
0003f0 1f 83 04 3d 9f 84 6e 3d b3 b0 07 3d e9 0d 84 bc
       0.03235161 0.058231946 0.033127498 -0.016119914
