models/model_rir.pt (torch, 608965 bytes, 24 tensors)

weight f4 [40, 500, 3]
00000000: 0661 bdbd 28af 05be 5b22 6b3e d4ca b83c
00000010: d8ee 7fbe 2fd7 873e d4da 213e a63f b33d
00000020: 7dad 313e a2ed 2fbe 42a6 6f3d 5222 afbb
00000030: bf4f 3abd 2652 9dbe 145a 62be c676 d6bc
00000040: 326f 083e 8f1f 143e 277e 3fbd 6e3c 083e
00000050: 17c6 1f3e e043 d23d c9d2 8cbc 5d12 723e
00000060: 87b3 cebd b8be c33d 244d e0bc 8452 ec3c
00000070: d65c 0c3d 61c6 79bd 66ab 8fbe fd0e 5abe
00000080: 8387 a33c e99e 893d 03f7 30be f350 4dba
00000090: d6b1 33be 61ba adbd 7287 1fbe b5a8 e5bd
000000a0: 5328 f5bd eb4b 1ebb 15db fabd bbee 97bc
000000b0: bbc6 14be cbac 61be 6b75 63be 455a b6bc
000000c0: 0282 16be c270 c9bd ca7e b03d 9b62 95bd
000000d0: d765 0b3d d13e 1bbd e1be 36be 54c3 89be
000000e0: bdf4 713c b2e2 003d 82a5 f03d 0300 5bbd
000000f0: 885d 38be 1fcd 763c bd85 93bd 3cba 943d
00000100: c5e0 17be c1aa c23d daee 5c3e e1bd a93d
00000110: c2b8 24be 2048 febd 4ad8 4cbe 9597 9abc
00000120: 59b9 e5bd de0e 34bd 4683 213d b7de 50be
00000130: 9d74 7fbe cb0e a7bc 813b 003c 9555 debd
00000140: 84a1 f23d 5f19 053e 609c c13c fcb6 193b
00000150: ec6d 39bd 8117 e23c d4d7 ee3c 7793 423d
00000160: 6e2a 5dbe 15dd ee3d faa6 fcbc 0497 2bbc
00000170: 6277 a9bc 37ad 053e 6c15 f0bd cae0 8dbd
00000180: 9329 e23b 61a0 9fbd 1987 1dbe 49e7 6bbe
00000190: 4f36 7ebe e4ec 033e 267d 0e3e c2cc 7fbd
000001a0: 61d9 5fbc 5d7c c73d 094a 29be 0d3a 09be
000001b0: 1dea da3c 9032 16bd 3e8a 813c a620 45bc
000001c0: 7cdf 0e3e 6056 b3bd 8369 f23c 8387 9ebd
000001d0: be63 513d cf29 453b e19e 83bc 98ca 61bd
000001e0: b6bf 8fbc 9662 953c 78c9 193b 94ec 113e
000001f0: d5fa 833c 8494 3fbe 430a 92bd cc5a fbbd
00000200: 6ba3 43bd 39c9 6ebd 2a8c 113d ab4f 61bd
00000210: b4c5 86be 5ed9 aabd 487f f73b c3b1 04be
00000220: b03b 4bbe 8c87 513d 7d54 a6bd 91ef 173e
00000230: d509 8bbc 030c cdbd 6264 9a3d b50a 06be
00000240: 348b 563e d800 b1bb 77f0 3e3d cc09 2dbe
00000250: 7356 303e d515 a5bd 61e2 26bd dd41 50be
00000260: 830b 8c3e 5daf 59bd 2062 9e3c 4781 413e
00000270: b465 c3bd 8ad0 2f3d 16d3 f13c a92f 0abc
00000280: a11a a7bd 56ab ccbd 3ee0 63be cda1 3ebe
00000290: f74b 48bd e64a 0f3e 084b cbba 3dc4 c4bb
000002a0: 4b85 febd e2fb 323d 15e7 05be 3ced 1abd
000002b0: 0cba 933d e20a 6e3e 971f ba3d ffda 9bbe
000002c0: cc90 24bc b1c8 03bd 7fee d4bd bf2f 33be
000002d0: a931 793e 1ff8 9ebd dae2 a2bd 9e16 a7bd
000002e0: 9eef 233e 1eac 803b 9e19 e0bd 89e7 9f3d
000002f0: 9098 8abd 9015 053d 3437 cebd a6bd de3d
00000300: c5d0 933d 58c9 30bd b4bd 2ebe 07e2 183e
00000310: 9dd1 85bd a094 02be 7e5c 163d 1ca8 d1bd
00000320: 0da8 993d 5478 7dbd b9f8 b43d 4403 3ebd
00000330: cbd9 e5bc e564 c9bc 71b4 90bd 7de1 243c
00000340: 5acb e2bd 1b69 0fbc c2db 7fbd 00e5 42be
00000350: db61 4dbd 9e2c 33bc 154d 86bd 4380 02be
00000360: e608 14bd 8cf2 203d 7728 033e 92dd 83be
00000370: b45d d9bd 174c a0bc b799 323e 1ccc 8f3d
00000380: c867 80be bba0 12bd deab 0f3e c4a5 00be
00000390: 457e fabb 5532 1e3e ea6d a63d 68be 86bd
000003a0: f8a1 36be ad83 89bd de9b e73d 4f55 fdbd
000003b0: 0c7b eabd a564 83bd a44c a7bd a1d4 693d
000003c0: 7a1b ca3d 1bc1 12bd 67ef 923d 75f3 9fbd
000003d0: 1693 ca3d 71bd f13c 2ece f4bd 94fa 3abe
000003e0: da5f 2bbe 3eff 06bd b566 d8bd 3185 73bd
000003f0: 40bf cb3c 0726 dfbd 2e29 e63d f0a4 28be
-0.092470214 -0.13055098 0.22962324 0.022557653 -0.24993455 0.2653136 0.15806133 0.08752374
0.17351337 -0.17180493 0.058508165 -0.0053446675 -0.045486208 -0.30726737 -0.22104675 -0.026179682
0.13323668 0.14465164 -0.046751168 0.13304302 0.15602909 0.102668524 -0.017190354 0.23639818
-0.10092836 0.09557861 -0.027380534 0.02884794 0.034268223 -0.060980204 -0.28060454 -0.2129478
0.019962078 0.06719763 -0.17281727 -0.0007832192 -0.17548308 -0.084828146 -0.15579012 -0.11213819
-0.11970582 -0.0024154137 -0.12248818 -0.018546453 -0.14528935 -0.22038572 -0.2221276 -0.02225984
-0.14698032 -0.0983596 0.08617933 -0.07294198 0.03403267 -0.037901703 -0.17846252 -0.26906836
0.014767823 0.031466193 0.11750318 -0.053466808 -0.1800443 0.015063553 -0.07203243 0.07262084
-0.14831837 0.09505225 0.2157549 0.0828817 -0.16086105 -0.124161005 -0.20004383 -0.018871108
-0.11216993 -0.04395949 0.039431833 -0.20397459 -0.24946828 -0.020392796 0.007826687 -0.10856167
0.11847213 0.1299796 0.023634136 0.0023455014 -0.045270845 0.027599098 0.02915565 0.047503915
-0.21598217 0.11663262 -0.03084134 -0.010473017 -0.020686809 0.13054357 -0.11722836 -0.06927641
0.0069019287 -0.07794262 -0.15383567 -0.23037447 -0.24825405 0.12883335 0.13914928 -0.06245113
-0.013662667 0.09740517 -0.16532148 -0.13401051 0.026722962 -0.036669314 0.01581299 -0.01203171
0.1395244 -0.08756709 0.029591328 -0.077406906 0.051120512 0.0030084734 -0.01606697 -0.05512485
-0.01754747 0.018235486 0.0023466032 0.14250404 0.016110817 -0.18708998 -0.071308635 -0.122731775
-0.04776327 -0.05829737 0.03553406 -0.055007618 -0.2632271 -0.08342241 0.007553015 -0.12958436
-0.19846988 0.05115466 -0.081215836 0.14837481 -0.016972462 -0.10012057 0.07538678 -0.13090022
0.2095154 -0.005401712 0.046616044 -0.16898268 0.17220478 -0.08060805 -0.040743235 -0.20337625
0.27352533 -0.053145755 0.019333899 0.18896972 -0.09540883 0.042923488 0.029519599 -0.008434215
-0.08159376 -0.09993617 -0.2225351 -0.1861641 -0.04890057 0.13993415 -0.0015510032 -0.0060048387
-0.12427767 0.043697245 -0.13076432 -0.0378239 0.0721322 0.23246339 0.090880565 -0.30440518
-0.010044288 -0.032173816 -0.10397052 -0.17498682 0.2433535 -0.07762169 -0.07953425 -0.08158611
0.16009375 0.003926768 -0.10942386 0.07807834 -0.0676738 0.032491267 -0.10069123 0.10876016
0.07217554 -0.043160766 -0.17064553 0.14929973 -0.06534121 -0.12752008 0.0367093 -0.102371424
0.07502756 -0.061882332 0.088365026 -0.046389833 -0.028057953 -0.024584243 -0.070656665 0.010063526
-0.110739425 -0.008753086 -0.062465437 -0.19032669 -0.05014215 -0.010935931 -0.06557671 -0.1274424
-0.0361413 0.03929381 0.12808405 -0.25754982 -0.106135756 -0.019567532 0.1744145 0.07021353
-0.2507918 -0.035797816 0.14030406 -0.12563235 -0.007644447 0.15448888 0.08126433 -0.06579286
-0.17835224 -0.06714568 0.11309026 -0.12369787 -0.114492506 -0.06415681 -0.08168915 0.057087544
0.09868522 -0.03582869 0.071745686 -0.078101076 0.09891336 0.029509278 -0.11953388 -0.1825965
-0.16735783 -0.03295826 -0.10566465 -0.059453193 0.024871469 -0.10895925 0.11238323 -0.16469169

bias f4 [40]
00000000: c7ff 9bbe e79e aebe 1030 93be 9e16 69be
00000010: 4d23 b3be 291e c2be d6bb 74be dc80 b4be
00000020: b7a2 d4be c6cf b1be ac98 36be beb9 57be
00000030: c51f b7be 598e 8fbe 2385 bcbe 5e18 9cbe
00000040: d180 abbe 7aaa aabe 69a7 96be 2e6a c3be
00000050: fe95 a0be 7edd f2be 5453 babe 5d0b 3ebe
00000060: 007b a7be 49f1 c3be 28f4 d1bd 7bd8 26be
00000070: 6720 87be 1c37 97be c3b9 79be aa76 92be
00000080: 615f e1bd 2519 81be 198e 32bc 3d48 73be
00000090: 3bc4 a4be 6e2b cfbe 90f4 8bbe a24d c0be
-0.3046858 -0.34105608 -0.28747606 -0.22762534 -0.3498787 -0.37913635 -0.23899779 -0.35254562
-0.41530392 -0.3472883 -0.17831677 -0.21066949 -0.35766426 -0.2803829 -0.36820325 -0.3048734
-0.33496717 -0.33333188 -0.294246 -0.38166946 -0.31364435 -0.4743461 -0.363917 -0.18559022
-0.3271103 -0.38270023 -0.10251647 -0.16293518 -0.2639191 -0.29534233 -0.24387269 -0.28606158
-0.1100452 -0.25214496 -0.0108981365 -0.23758025 -0.32180962 -0.40462822 -0.27335024 -0.3755923

weight f4 [40, 40, 3]
00000000: b027 493d 7211 62be 82df 493d e602 4ebd
00000010: 20ab 243e 53d5 c6bb 4486 74bd 96c0 cd3d
00000020: 2995 893e 1775 1fbd 9f2c 10be 19a0 5d3e
00000030: e201 afbd 63f3 b43d 230b df3d 9fd6 58bd
00000040: 67bc 44bd 010d 5d3e 8952 2e3e 6b39 dfbc
00000050: da97 823d 7b05 803d d696 ff3d 2bf1 0ebe
00000060: c8d9 883e 0273 293e 340f 143e 7e9e 0ebe
00000070: 4489 26be 06ef 5fbe b8fa 86be 766d ec3c
00000080: b87b 263e fc19 463e ed71 b9bc 4b06 2e3e
00000090: a4a1 be3d d557 513e c16e e3bd d701 a33b
000000a0: 99ae 42bc ed4c f13d d6cf 2e3e 9ca9 1d3e
000000b0: 7f1a 493e 4951 113e 1e7c 583e d849 2ebe
000000c0: c153 4dbe f521 93bd f690 b5bd 9a50 9b3d
000000d0: 6632 8cbd 1d18 7e3e a902 573d ce38 10be
000000e0: 7724 253e c2af 4bbe 755d 2abd dba5 53be
000000f0: b11d febd 821b e1bc c173 0b3e d570 023d
00000100: 0d2d c5bc 4a1c 173e 0712 ef3d 2773 163e
00000110: 6cf3 15be 31a8 9ebd 8397 b53b 7cae 8c3d
00000120: 29bf 8d3a 3384 383e 199b 05bb de7b 21be
00000130: 7180 c6bd b647 403e 77b5 43be de95 9f3d
00000140: 295e 893c 75e8 d33d f8a8 2abe e208 823e
00000150: ccde 17be 776f b6bd de94 f4bc 6e80 3f3e
00000160: 4ef2 6a3e 7253 543e 24c5 82bd d718 4f3e
00000170: 6e65 f83d 5949 bd3d f9f4 01be 5ee9 e4bd
00000180: 5e0d 2e3e 1a46 e43d 785f c53b 2840 febd
00000190: 0da3 143e 8c32 fabc 5ea1 03be 20cb b3bd
000001a0: f798 1abd 3639 e33c 22df fbbb b0b5 8cbc
000001b0: 295a ba3d eae4 3b3c f425 603e f11a 01be
000001c0: 47c3 c2bd 58eb 2abe c203 043e 0a45 12be
000001d0: 3c86 efbd 7d0c 873e 34ab 83bd ccee 443e
000001e0: ab5c 433e b30e a8be c87d edbd bc80 acbe
000001f0: 9dcf 60be 14b0 383d 5b60 a0be 3849 0c3e
00000200: 0315 3cbe 1942 4f3e 46d5 6d3d af21 13be
00000210: 062e 4c3e f1a8 11be 27d1 43be a70f 36bd
00000220: 5d24 4f3e d006 a93d 2a43 933e 4ca1 1ebe
00000230: 473b c23d b33e bdbc 8df9 473e f8da 143e
00000240: 120a 1abe bb24 6ebe e5a2 2ebe 3085 11bd
00000250: e6ab eebd a644 f2bd ca3d 4ebd 2000 f9bd
00000260: 49b6 14bd 0cab d93d e267 a83b 3717 82be
00000270: 2d87 cbba 3e43 85be b2fa 2c3e 6286 1c3d
00000280: c48c 73be d729 8ebd 1195 7c3e 42f5 673e
00000290: 0593 223e ea59 d63c f7cf 343d d8c4 7bbe
000002a0: f59e 163e 3cee 84be a133 3dbd c11b 633d
000002b0: 08de 65be 938a d2bd ada8 c43d bf69 00be
000002c0: 4086 b5be ae2c 1cbe ea30 c0be 5c17 b2bc
000002d0: 2b19 a13e b1b0 7cbc 17aa 3c3e 3501 55be
000002e0: c3be 0ebd a946 f83d 2894 b83d c5a0 353e
000002f0: 6d95 4b3d 5172 823e 02f3 99bd dce5 1cbe
00000300: d1b3 5d3d fb2c 64bc 79a3 8dbc 7511 ea3d
00000310: 4db5 b43d d455 83bc 845a 9dbe 5994 88be
00000320: bac6 01be a9e8 29be 33c2 7e3e 00a9 7c3e
00000330: 033f 173d b6b2 24be 1d4f 9a3e 1f74 88bd
00000340: 9077 f33c 3bcf 22be 4a16 5f3e 1afe 02be
00000350: a651 4dbb c59a c43d c698 983c dd94 ad3d
00000360: 8737 13be 5785 643e d78f 193d 97c6 b3be
00000370: 4a5f 243e 1415 b93c afe3 73be ed8d 02bc
00000380: 9f39 543e f735 81bd de27 38be a5d6 2f3e
00000390: baf3 86be d85f 793e edf7 0b3e a161 043e
000003a0: 1e41 47be f2ce d73d d410 31be 19e3 b0be
000003b0: eb57 bebd 5a21 94be 456d c2be 0483 a7bd
000003c0: 4c03 ef3d 0f0e 763e 0edd c3bd 51f7 d13d
000003d0: ab36 b23d 5ac9 e13d fa3f 56be 8ad6 d0bc
000003e0: 2627 503e 64c1 053e 58a2 8c3d d9de 22bd
000003f0: d95f e9bd 78c3 fe3d 7a23 5b3d 29f8 773b
0.049110115 -0.22076967 0.04928542 -0.050295733 0.16080904 -0.0060679107 -0.05969836 0.100464985
0.26871613 -0.038930025 -0.14079522 0.21643104 -0.08545281 0.08835485 0.10890796 -0.052939054
-0.048031237 0.21586992 0.17023672 -0.027249059 0.0637662 0.06251045 0.124799415 -0.13959186
0.26728654 0.16547778 0.14458925 -0.13927647 -0.162633 -0.21868524 -0.26363158 0.028860789
0.16258132 0.1934585 -0.022637332 0.16994588 0.09308174 0.20443662 -0.11105109 0.0049745846
-0.011882448 0.117822506 0.1707147 0.15396732 0.19639014 0.14191164 0.21141097 -0.17020357
-0.20051481 -0.07184211 -0.0886554 0.07583733 -0.0684555 0.24813886 0.05249277 -0.1408417
0.16127191 -0.19891265 -0.041593034 -0.20668738 -0.12408007 -0.027478937 0.13618375 0.031845886
-0.024069333 0.14756885 0.1167336 0.14692365 -0.1464364 -0.07746924 0.0055417432 0.06869218
0.0010814416 0.1801918 -0.0020386635 -0.15769908 -0.09692467 0.18777356 -0.19112192 0.07792257
0.016768532 0.10347072 -0.16666019 0.25397402 -0.14831084 -0.08907979 -0.029856142 0.18701336
0.22943994 0.20734957 -0.06385258 0.2022432 0.12128721 0.092425056 -0.12691106 -0.11177324
0.16997287 0.11146183 0.0060233437 -0.124145806 0.14515324 -0.03054168 -0.12854525 -0.087789774
-0.037743535 0.027737241 -0.0076865116 -0.01717648 0.09099228 0.011468152 0.21889478 -0.12607934
-0.095099024 -0.16691339 0.12892058 -0.14284149 -0.11695525 0.26376715 -0.06429139 0.19231719
0.19078319 -0.32823715 -0.115962565 -0.33691967 -0.21954198 0.045089796 -0.31323513 0.13699806
-0.1836739 0.20240058 0.05806472 -0.14368318 0.19939432 -0.14224602 -0.19122754 -0.04444852
0.20228715 0.082532525 0.2876218 -0.15491217 0.094839625 -0.023101186 0.1952879 0.14536655
-0.15042904 -0.23256199 -0.17054327 -0.035527408 -0.11653881 -0.118295 -0.050351895 -0.12158227
-0.036306653 0.10628328 0.005139337 -0.25408337 -0.0015527956 -0.26027864 0.16892508 0.038214095
-0.23784167 -0.06941574 0.2466624 0.22652152 0.15876396 0.026165921 0.044143643 -0.24586809
0.14709075 -0.25963008 -0.046191815 0.05544639 -0.2244798 -0.10280337 0.09602485 -0.12540339
-0.35453987 -0.15251419 -0.37537318 -0.021739654 0.31464514 -0.015422986 0.18424259 -0.20801242
-0.034849893 0.12122852 0.090126336 0.1773711 0.04970305 0.25477841 -0.07517053 -0.1532206
0.054126564 -0.01392674 -0.017289864 0.11429111 0.08823643 -0.016032137 -0.3073312 -0.2667568
-0.12673464 -0.16592659 0.24878769 0.24673843 0.036925327 -0.16083798 0.30138484 -0.06662773
0.029720098 -0.15899365 0.21785846 -0.12792245 -0.0031329184 0.095998324 0.018627536 0.08475659
-0.14376651 0.2231649 0.037490692 -0.3511245 0.16051975 0.022593059 -0.23817323 -0.007968408
0.20725106 -0.06309121 -0.17983958 0.17171724 -0.26357824 0.24352968 0.13668795 0.12927867
-0.19458434 0.105375186 -0.17291576 -0.34548262 -0.09294113 -0.28931695 -0.3797399 -0.08179286
0.11670551 0.240288 -0.09563647 0.1025225 0.08701833 0.11024733 -0.20922843 -0.025492925
0.20327434 0.13062054 0.06866902 -0.039763305 -0.113952346 0.124396265 0.05350063 0.0037837124

bias f4 [40]
00000000: aa5e 923d d54c ef3c ddde 1bbc dcae 80bd
00000010: e909 21bd a665 ea3d f54c 063d 9f90 5dbd
00000020: fb88 ef3c 8527 0a3d c9fe e33a 2167 4d3d
00000030: c9e5 86bd 1f27 95bd 65b0 96bd 3d04 1bbe
00000040: a685 073e 857f 64be d8fb cebd ed31 ce3d
00000050: 36dc 9e3b 6a21 05be 1d2f e13c b029 88bd
00000060: 058a b2bd 306e a0bd 6a76 b0bd fce0 f2bd
00000070: 4973 fb3d 348b 14be a27f 233e 930e 12be
00000080: d2c5 f5bc 5eff 3abe 0fef 243d a9a0 4a3d
00000090: 706f d53c b3d3 63be 9ca3 bb3d d71b 953d
0.07146962 0.029211441 -0.009513584 -0.06283352 -0.03931609 0.11445169 0.032788236 -0.054093
0.029240122 0.033729095 0.0017394657 0.05014718 -0.06586797 -0.072828524 -0.07357863 -0.15138336
0.13234577 -0.2231427 -0.10106629 0.10068116 0.0048480285 -0.13001028 0.027488286 -0.06648576
-0.087177314 -0.078335166 -0.08616336 -0.118593186 0.12277848 -0.14506227 0.15966657 -0.14263372
-0.030001555 -0.18261477 0.040267047 0.049469624 0.026054114 -0.22248726 0.091620654 0.07280701

weight f4 [40, 40, 4]
00000000: 8e69 ee3d d7e1 49be a842 d7bb 9f3f a8bd
00000010: 509a 583d 9c52 653e e443 67bd 475e 81be
00000020: 8b20 4d3d e991 f53d b4ea 63be df6c e5bb
00000030: e325 463e de89 89be 59bf 213e 8d8b 04be
00000040: 336c a53c 02b0 07be 06ca ba3d 8629 163e
00000050: 1130 613d 4bbe bd3c 5bbc 053e 3c4f 8dbb
00000060: 8297 db3d 31a3 9b3d 4149 8bbd 8ae2 0f3d
00000070: c20c d93c 63f1 263e 89dd d53d dd6e a13c
00000080: 025e cb3d e65d aebd 8910 31be b934 e7bd
00000090: 899d 28be 4e2e 49bd 0dd1 50be f7ca 613e
000000a0: 067a 8b3d 6506 5f3b 3c03 093e 9a2a c4bd
000000b0: 7183 99bd a3b1 e9bd 5873 8fbd 5ef9 f8bd
000000c0: 5092 1c3c da62 b73c ae83 043e 01b8 063e
000000d0: c6f2 d1bd f5b4 543e 481f 9fbd 005c b7bd
000000e0: 28c7 e9bd f24d 7fbd a676 36bb dc45 d53d
000000f0: 3173 37be 2599 a73d dced 9b3d d1b5 97bd
00000100: 68c0 bd3d c148 82be 00b0 973d 7e73 40be
00000110: 655a da3d 8a5a 47bd 1f9e 75be ad7d e9bd
00000120: bb44 ca3d f90d d3bd f39a 75bd 4fda b03d
00000130: 49e5 f53d 02f3 90bd 858b 1cbe 1235 1e3e
00000140: 3727 e13d 3bbb 253d 6ee2 cfbd 4ed6 8bbe
00000150: cce9 cbbc fc61 93bd 8a83 943d 724d 153d
00000160: f2aa 3ebe e302 993d b85f 81bd 9f35 4dbe
00000170: af70 61bd 1442 193c 308c 81be eccf 16be
00000180: be69 87be 7585 003e e648 22be 5970 16be
00000190: c4c9 203e 5979 503d 319a 503d 46dd 313e
000001a0: 8e2f d53d 7711 5abe 8c69 29be 4ac7 613e
000001b0: a492 25be 3bb7 e73d a5de 173e c461 573e
000001c0: d8a8 cebd 2452 e53b bad6 82bd ae43 42bd
000001d0: 321d c73d f71d dfbd b60f 823c 477a 30be
000001e0: a6cc 87be eb96 253d 0823 203e 252d 103d
000001f0: 5fe8 4a3e 9c32 61be 07ee 5e3d 78c3 123e
00000200: 13da c1bd 760d 39be 3c2e 583e 188c 303d
00000210: 95ce 8f3c 0699 8dbe 84a3 ffbd 5d4a 783c
00000220: 15b4 2ebc 8486 58bd 814b b83d 7f5f 373e
00000230: 23d8 aabc 7d7b b83c 8814 c5bd 18f6 7abd
00000240: 42e8 67be b260 ce3d d106 bb3b 8484 0ebe
00000250: 7f51 1ebe eb5d 26be cef8 2d3e 4ead 7fbe
00000260: ad81 fbbc 8a79 efbd a30b 69be cc63 6abe
00000270: bde5 9e3c 9f98 303e db9c f33d 5210 093e
00000280: d865 d53d 1fe9 7b3e 27d3 98be cd41 213e
00000290: 8e8e 9fbe 2ffa f5bb e037 3bbe 4d3b 4c3d
000002a0: 9b0e 29be d790 26be daee 69be 3e8c f9bd
000002b0: 072f b3bd bb18 a4bd 4624 fdbc 2afc 113e
000002c0: 680d adbd f693 0abd c956 18be 2b36 57be
000002d0: 0d0b e8bd 14ab d039 7d6f 5bbe 1f3e 1cbc
000002e0: 6147 863d 93a0 1bbd 62bb 5dbe 4aa5 edbd
000002f0: af74 0b3e 31e6 47b9 520c 1ebe 8b80 55bd
00000300: 08b5 84bd 4171 c5bd da2d fdbd 1270 96be
00000310: fe17 673e 8143 31bd 11d4 9fbe f0d3 623e
00000320: 2061 7abe 6770 c3bd 26e8 a03c c6d0 2abd
00000330: 6a7a 60bd fd8b 4bbe 57f6 cbbd cafc 48be
00000340: 6f55 263e 6cee 613c 6baa 73bd c15a 183d
00000350: 2df7 333e 29cf 06be f6e6 9d3d 2159 f1bd
00000360: 5cbb 28be 2751 9a3c fd2d 91bd 056b 243e
00000370: 7fa5 27be e63c 273d f169 bcbc 7019 813e
00000380: a8a2 c7bd aada 0b3e f6a0 8cbd e3e5 45be
00000390: 5149 00be 84c1 4a3e 2d8b d3bd 4c0d 22be
000003a0: 96a9 023e e2cd debc 04da a3bd 4342 9bbe
000003b0: d37e 7a3d 1362 b2bd b61e b93d 7670 24be
000003c0: f565 46be 14d7 e6bd 622a acbe e9d1 073e
000003d0: 6a29 12bd 63b7 823a 3c37 98bd 9791 e0bc
000003e0: cf1f 1bbe 99fb f13d 1fab 80be 9d3b 16be
000003f0: e985 f4bd 5057 18be e005 13bd 3484 b43e
0.11641227 -0.19715057 -0.0065692253 -0.0821526 0.05288154 0.22394794 -0.05646123 -0.2526724
0.050079864 0.11990721 -0.22257501 -0.007001504 0.1935039 -0.26862997 0.1579565 -0.1294386
0.020193195 -0.13250735 0.09120564 0.14664277 0.05497748 0.023162028 0.13060133 -0.004312424
0.10722257 0.07599486 -0.068010814 0.035128154 0.026495341 0.16303019 0.10442645 0.019706184
0.0993004 -0.085140035 -0.17291464 -0.11289353 -0.16466345 -0.049116425 -0.20392247 0.22050081
0.068103835 0.003403091 0.1338014 -0.09578438 -0.074957736 -0.11410835 -0.07004422 -0.12156938
0.009556368 0.022386003 0.12940857 0.1315613 -0.102513835 0.20772155 -0.07769638 -0.089530945
-0.11414939 -0.062330194 -0.0027841716 0.10413715 -0.17915036 0.08183507 0.076137275 -0.074077256
0.09265214 -0.25446132 0.07406616 -0.18794057 0.10661773 -0.04867033 -0.239861 -0.11400924
0.098763905 -0.103053994 -0.059962224 0.08635389 0.12006623 -0.070776 -0.15287597 0.15449932
0.10993808 0.04046176 -0.1015061 -0.2731194 -0.024891756 -0.071964234 0.072516516 0.03645081
-0.18619898 0.07471254 -0.06317085 -0.20039986 -0.055039104 0.009354133 -0.25302267 -0.14727753
-0.26447862 0.1255091 -0.15848121 -0.14691295 0.15701967 0.050896976 0.0509283 0.17369565
0.10409461 -0.21295725 -0.16544169 0.22048679 -0.1616922 0.11314245 0.14831026 0.21033388
-0.10090798 0.0069983173 -0.06388612 -0.047427826 0.097223654 -0.10894387 0.015876632 -0.17234145
-0.26523322 0.04042713 0.15638363 0.035199303 0.19815205 -0.21991962 0.05442622 0.14332378
-0.094654225 -0.18071541 0.21111387 0.043102354 0.01755456 -0.2765581 -0.1248236 0.015154448
-0.010663052 -0.05286266 0.08998776 0.17907523 -0.020855015 0.022519821 -0.09623057 -0.06126985
-0.22647193 0.10077037 0.0057075997 -0.13917738 -0.15460776 -0.16246764 0.16989443 -0.24968454
-0.030701483 -0.116931036 -0.22758345 -0.22889632 0.019396657 0.1724572 0.11895152 0.13385132
0.10419816 0.24600647 -0.29848596 0.15747757 -0.31163448 -0.007506631 -0.18283033 0.04986124
-0.16509478 -0.1626619 -0.22845021 -0.12184952 -0.08749204 -0.080125295 -0.030901086 0.14256349
-0.08449823 -0.033832513 -0.14876856 -0.21016757 -0.11330233 0.00039800315 -0.21429248 -0.009536295
0.06556583 -0.037994932 -0.21653512 -0.11603792 0.1361873 -0.00019063872 -0.15434387 -0.05212454
-0.064798415 -0.09640742 -0.12362261 -0.29382378 0.22567746 -0.043277267 -0.3121648 0.2215116
-0.24451113 -0.095429234 0.019641947 -0.041703008 -0.054804243 -0.1987762 -0.09959095 -0.19627681
0.16243528 0.013789754 -0.059488695 0.037195925 0.17574759 -0.13164963 0.07710068 -0.11784578
-0.16477722 0.018837525 -0.0708885 0.1605645 -0.16371725 0.04082956 -0.022999736 0.2521472
-0.09747821 0.13657632 -0.06866638 -0.19325976 -0.12527968 0.19800383 -0.1032928 -0.15825385
0.12760004 -0.027197782 -0.080005676 -0.3032399 0.061156105 -0.087101124 0.09039061 -0.16058525
-0.19374831 -0.11271492 -0.33626086 0.13263668 -0.035684027 0.0009972866 -0.0743241 -0.027413173
-0.15148853 0.118155666 -0.25130555 -0.14671178 -0.11939604 -0.14877057 -0.035894275 0.35257113

bias f4 [40]
00000000: ef40 6f3d d6ee d4bc 4546 243e ff69 563d
00000010: 890e 10bd 722a 2c3e a2da 273d d570 3a3e
00000020: c150 99bd 2a3f 023e 0714 9ebd dc7f 2b3d
00000030: 30f4 1abc c643 f53c 4cf3 49bd 0de1 3b3d
00000040: 10e6 c93d a56c 233d 14a4 87bd 0abf 023d
00000050: d076 63bd df04 993d fe73 533d 33a9 ad3d
00000060: dacb 433d aaca 2cbd 663b f63d 590d c1bd
00000070: 758b f4bd b7cc 483d ac2b febc fb5f 873c
00000080: c5c7 eb3d dd83 06bd f836 e0bd cab5 0d3e
00000090: 454e 05bd 3b50 b0bc bf55 61bd a8eb 74bd
0.058411535 -0.025992792 0.1604243 0.05234718 -0.03517011 0.16813067 0.04097999 0.18207105
-0.07486106 0.12719408 -0.07718664 0.041869983 -0.009457633 0.029939543 -0.04930429 0.045868922
0.09858334 0.039898533 -0.06623092 0.03192047 -0.05553323 0.07471632 0.05162429 0.08479538
0.04780183 -0.042185463 0.12023048 -0.09426374 -0.11940662 0.049023356 -0.031026684 0.01652526
0.115127124 -0.0328406 -0.109479845 0.13838878 -0.032545347 -0.021522632 -0.055013414 -0.05979505

weight f4 [40, 40, 3]
00000000: b1c3 663e 4b1f 8abe 77ba 7dbe 2604 fa3e
00000010: 0756 15be c36b d83d 32c3 673e 3d2e 55bc
00000020: 3da2 113e 758d 40be 2ec3 293e a197 19be
00000030: ac11 dcbd 888a 2f3e cc3d 283d 4056 1c3d
00000040: ca5d c33d a04a 8c3e 4169 bbbc c083 013d
00000050: 3f5d 30be 990b 4ebe 2234 81bd 124b 543c
00000060: 9dbd d43d c93c 99bd caf1 3cbd 1aec e43b
00000070: 11aa 113e 9768 433e 5224 4ebe bfe3 743d
00000080: e7c6 44be c10c 9fbc 2dd5 0a3e eaa6 a53d
00000090: 411c bd3e 8e3d 5b3d bb69 87be 83c7 a13e
000000a0: 6401 68bd 03d7 5f3e 619c 103e 8ad1 943c
000000b0: 57af 223e 05ae 883c 5b07 0b3e 2a68 c8bd
000000c0: d858 6a3d 8513 93bd 4c46 1fbe be0b 8cbe
000000d0: c40a dd3d bb12 9cbc bba1 6e3e ef92 063e
000000e0: 15e0 403e 28fd ff3d d92a e23d 248b fcbd
000000f0: d90a 89be 9d6f 203e c6e3 e0bd c9de 813d
00000100: 0f23 08bc c643 19bc ee11 15be 5ea7 383d
00000110: dd20 3b3e 5832 293e a351 d73c 5821 d93d
00000120: ce5d ac3d f283 4abe 822b acbd f534 df3d
00000130: ea32 edbd b789 113e 9121 d93d 8353 da3b
00000140: 16d0 97bc dd51 4cbd eeb7 0e3c d515 283d
00000150: 697e 3a3e 46d1 bcbc 4525 313e 694e 473e
00000160: 91a1 82be 184b 153a 2e41 a0bd 3de2 f13d
00000170: 576a 183e e424 a1ba 7f73 15be 30ea 16be
00000180: aefc 1f3c 1261 c33e 3c1f 113d a46c e2bc
00000190: fa18 b23d 7dc3 1cbe 1561 febd 8853 c2be
000001a0: 89be 933c 1fc6 a4be a4a1 e33c d675 ce3d
000001b0: f996 453e dfed 4abe e242 833e 7989 ff3d
000001c0: b504 343d 828e 9c3e 032f 333c d164 d3bd
000001d0: 08d8 0c3e 03d6 66bd 6786 4dbe 4a4e f3bc
000001e0: 073c efbd 20ce 56be ebec 4abe 29b0 ebbd
000001f0: 1aff 1dbe 95fb f6bc 98ec ac3e b508 5bbe
00000200: 7c68 9fbe c6eb a8be 7133 14bd 3bb5 90bd
00000210: 2830 92bc 3865 7abe 6172 c93d 34c1 86be
00000220: 31a9 2f3d 8251 00be 9992 363d 3196 173e
00000230: 10ed 8b3e 8a13 e3bd 5a50 edbd 6fec 963d
00000240: cfe6 753d 45b1 f1bd 8b72 073d f9af 883d
00000250: 082f d43d f85f 06bd bfc6 4abd 63c2 dd3d
00000260: 4508 80be 24ec a73e 9943 2a3e 0b35 3a3e
00000270: 55f9 7abe ebee 1bbd 10d3 2d3d 9ae3 9c3d
00000280: 83a1 523e 299b 86be 9c67 533c 3e1f 583e
00000290: 5ba9 bf3b b1d3 3fbe 102f ecbd b017 91be
000002a0: d4d0 43be b47f eabd 046e 81bd 6c1b 8dbe
000002b0: c1c6 9d3d 4459 6cbd 43f5 253e cad6 b8bd
000002c0: d55a 3fbd 8b4e 7fbe 1814 d7bc e871 453e
000002d0: 03ba ba3e 1c8a 4dbd d71f 39bd 42b4 4abe
000002e0: d931 dcbc febe 11bd 40d6 f1bd d1df 25be
000002f0: dee7 78be 4e12 533d b790 4cbe 7436 34be
00000300: fe9e 7d3e cade a0be 28f3 cebe af1a 813d
00000310: 38c8 4fbd 6b0c 783d fb32 473c b62b a33c
00000320: 4b30 5ebe 750c 943d 5e7a 0fbe 7390 0bbe
00000330: 50ae eb3c 0774 f1be ffbc 543d ff06 07be
00000340: a1ee 0ebd 87cb b0bd 7b53 cabd 5590 7dbd
00000350: 713e a6be 13be a83e 7f79 813e e44e 48be
00000360: e629 443d fac0 27bd 0e65 80be 99e4 073e
00000370: f273 73be cd28 92be 17b5 13be 0028 8f3b
00000380: 2043 45be ce3e 56be 5ce1 a03d 5d39 a73d
00000390: 9b21 febd 3ce3 df3d cf46 5bbd 5aa4 05be
000003a0: 2dd9 c43d e3a4 56be c473 3d3e 8956 11be
000003b0: 1194 0dbe b903 0abe d4b0 2e3e d231 083c
000003c0: 0d64 533e e769 28be 7ab7 2d3e ac3a b33d
000003d0: dc78 e93d e769 5c3c 1cb1 f63a 2b94 3fbe
000003e0: 40fc 033e 3fd0 bc3d 1f43 09be db02 283e
000003f0: ce73 febb ad8c 3a3d b486 703e 8dea 90be
0.22535588 -0.26977 -0.24778162 0.4883129 -0.14583598 0.10567429 0.22633055 -0.013011512
0.14222045 -0.18803962 0.16578361 -0.14999248 -0.10745558 0.17142689 0.04107456 0.038168192
0.09539373 0.27400684 -0.022877337 0.031619787 -0.1722307 -0.20121612 -0.06308772 0.012957351
0.10387728 -0.07482297 -0.046129026 0.0069861533 0.14225031 0.19082867 -0.20131043 0.059787508
-0.192165 -0.019415261 0.13557883 0.08088477 0.3693562 0.0535255 -0.26447853 0.31597528
-0.05664195 0.21859364 0.14122154 0.018166322 0.158872 0.016684541 0.13577025 -0.09785493
0.057213634 -0.071814574 -0.1555416 -0.2735271 0.10793069 -0.0190519 0.23303883 0.13141988
0.1883548 0.124994576 0.11043329 -0.123312265 -0.2676609 0.15667577 -0.10980944 0.06341321
-0.00830914 -0.009354537 -0.14557621 0.04508149 0.18274255 0.16523111 0.026284045 0.10602063
0.08416329 -0.19776896 -0.08406736 0.108987726 -0.11581977 0.1421269 0.106021054 0.0066627874
-0.01853184 -0.04988276 0.008710844 0.041036446 0.18212284 -0.023049008 0.17299373 0.19463505
-0.2551389 0.0005695089 -0.07824932 0.1181073 0.14884315 -0.001229432 -0.1459484 -0.14737773
0.009764833 0.38159996 0.035430178 -0.027639695 0.0869617 -0.15308948 -0.12420861 -0.37954354
0.01803519 -0.32182404 0.027787037 0.10081069 0.19295873 -0.19817303 0.25636965 0.12477393
0.0439498 0.30577475 0.010936501 -0.103219636 0.13754284 -0.05635644 -0.20070802 -0.029700417
-0.11681371 -0.20977068 -0.1981694 -0.11508209 -0.15429345 -0.03014926 0.33774257 -0.2139004
-0.31134403 -0.3299238 -0.03618187 -0.07065817 -0.017845228 -0.24452674 0.09836269 -0.26319277
0.042885963 -0.12531093 0.0445734 0.14803387 0.27329302 -0.11087711 -0.115875915 0.07369315
0.06003457 -0.118013896 0.03306822 0.06674189 0.10360533 -0.032806367 -0.049505945 0.10828092
-0.2500631 0.32797348 0.16627349 0.18184297 -0.24509175 -0.038069647 0.042437613 0.07660599
0.20569424 -0.26290253 0.01290312 0.21105668 0.005849046 -0.18733098 -0.11532414 -0.28338385
-0.1912263 -0.11450139 -0.06319812 -0.27559984 0.07703925 -0.057702318 0.16206841 -0.09025343
-0.046717484 -0.24932306 -0.026254699 0.19281733 0.3647004 -0.05018054 -0.04519638 -0.19795325
-0.026879238 -0.035582535 -0.11808443 -0.1619866 -0.243072 0.05153113 -0.1997708 -0.17598897
0.24767682 -0.31419975 -0.40419888 0.063039176 -0.050728053 0.060558718 0.012158151 0.019918304
-0.2169811 0.072289385 -0.14011523 -0.13629322 0.028769642 -0.47158834 0.051938053 -0.13186263
-0.034895543 -0.0863257 -0.09879204 -0.061905224 -0.32469514 0.32957515 0.25288007 -0.19561344
0.04789152 -0.04095552 -0.250771 0.13270797 -0.23774698 -0.28546754 -0.14424549 0.004368782
-0.19263887 -0.20922396 0.07855484 0.08165238 -0.124087535 0.109320134 -0.053534325 -0.13050976
0.096117355 -0.20961337 0.18501192 -0.14193167 -0.13826014 -0.13477983 0.17059642 0.008312659
0.20643635 -0.16446649 0.16964522 0.08751425 0.11400005 0.013452983 0.0018821093 -0.18708865
0.12889194 0.09219407 -0.13404511 0.1640734 -0.00776527 0.045544315 0.23488885 -0.28303948

bias f4 [40]
00000000: 73e9 6dbe 41da 07be d615 35bb c06d 20be
00000010: 4001 fbbd 8b95 5fbe a675 94b7 ae32 113e
00000020: 3eec 203e 68eb aa3d 81ff 153e 8f11 96be
00000030: c7b9 9d3e 4cb5 5cbe d3f2 fabc 59d1 96be
00000040: 3d34 1bbe 681d f13c c32b b53e 0839 87be
00000050: b128 083e 061a f83e 0314 363b 65e3 d8bd
00000060: d381 bb3d 6589 95be 0e4f 77be cf77 8cbb
00000070: 1a9b 6d3a c235 75be e129 3abe f513 cbbd
00000080: 05ea 2a3e 976c 4bbc 976b 57bd 8bde 9dbe
00000090: 994e 21be c5a6 0bbc 7483 5fbe 4315 2fbe
-0.23233585 -0.13266851 -0.0027631423 -0.15666866 -0.12256098 -0.2183439 -1.769776e-05 0.14179489
0.15715119 0.083456814 0.14648248 -0.2931027 0.308058 -0.21553534 -0.030633366 -0.29456595
-0.15156646 0.029432967 0.3538495 -0.264107 0.13296773 0.48457354 0.0027782924 -0.10590247
0.091556214 -0.29206386 -0.2415125 -0.0042867432 0.00090639445 -0.23946288 -0.18180038 -0.09915916
0.16690834 -0.012416027 -0.05259284 -0.3083385 -0.15752639 -0.008523648 -0.21827489 -0.17097954

weight f4 [40, 40, 3]
00000000: edd5 04bd 8121 2bbc d575 91bd 2182 2fbd
00000010: af9a 283d d0e9 25bc 77d7 b1be 5855 d4bd
00000020: cfdf 9bbb 0fca 82bd bcbe a13c 7992 773d
00000030: 2b5f 923d fc92 a43d 3f8a 72be 9098 593e
00000040: a5f1 e93e 868c 85be 4421 05be caa7 8ebd
00000050: 242d 6f3d 253a 653e 2dca 553e 5e2e 443e
00000060: 5f25 a1be 7b3a 9ebd 3ac0 b4bd 8a96 b83d
00000070: 0289 5bbe 55c6 49bb ea68 e5bc 3141 8dbe
00000080: 2a7f 20bd 960f 86be af46 013e 447d 00be
00000090: ab21 0d3e 28fd 0d3d 4783 83bd 8c95 d2bd
000000a0: 2317 e43c a894 f4bd 99c3 efbd e82a 11bd
000000b0: ce7a 123e 789e 81bd c0d3 193e f3ba 33be
000000c0: ae29 31be 2d53 913d 3d4a 01bd a5f0 7bbd
000000d0: f4cc 76be bb80 a73e 2865 1dbe b342 d8bd
000000e0: 404b 06be 1614 a3bc 4eb5 b0bd 03dc 203e
000000f0: 6857 e13d 52e2 633d c640 bf3d 1f4d 233d
00000100: bf1d 2bbd 4876 973d f99b 82be 42ab 8cbc
00000110: a784 f0bd 45b6 2c3e 8e4a f7bd 8e65 a73d
00000120: 344d b6bd 5113 d63b fe53 05be 956e 67be
00000130: 5621 303e 618f 8b3e a345 6a3e 17c7 283e
00000140: 8365 c3bd a7c3 1fbd 2c35 9a3d 4950 ad3e
00000150: 5da8 45bd 6312 653e 098f aebe 874a 49be
00000160: 1e42 ea3d dfb1 24be 5595 82bc 1171 eabd
00000170: 2814 1ebe 9d81 903e 5ec1 4e3e de45 05be
00000180: f3f8 b7be 599f c73d 2205 d3be 4d10 403e
00000190: abb9 b03d 17b4 e1bd d42e 7c3e 061f 953d
000001a0: 0b1e d83d 6668 313e a97b 30bd 8ec2 963d
000001b0: 3261 c53c 4657 193e af93 eebd 798f 62be
000001c0: 320e c03d 0d23 0dbe fc2a a83d 2c24 1e3d
000001d0: 091d 0b3e dc13 20be fa53 88bd e0c7 14bd
000001e0: e4d6 1d3d b1f0 393e 3daa c5bc a3a6 f2bd
000001f0: 2c24 903d 079d 05be c6f8 4ebe a230 54be
00000200: 3994 d2bd 49db 3dbe 7e96 30be e8b9 4dbd
00000210: f5cd 153e 7c16 33be d387 c3bd 8b23 6f3c
00000220: 6606 ebbc 6c1d 243d 84de 333e 2ff9 f03c
00000230: 620f c63d cb67 64be eea8 493b 9c9b 923d
00000240: 507b 95bd 42fb 1d3e 46c7 893e 258e 833d
00000250: 3844 ac3d a615 07bd 06fe 99bd 24b9 8ebe
00000260: cbb6 36bd 5ac5 87bd 99fe 073d 988e c4ba
00000270: 3f32 083e 8fb2 21be cd10 ffbd b446 013e
00000280: 5a96 83bc 07c5 42bd 930b 53be 5717 3f3e
00000290: 2996 0a3d b544 893e f3b8 cebd 9dcb 4fbe
000002a0: 0219 19be ea04 7cbd 9503 fe3d e54a 29bd
000002b0: ecc5 69bd 943a 8f3d 1370 04be e11b 833b
000002c0: 0a11 ffbd 80e2 693d 08f6 83be 5802 b1bc
000002d0: 3c43 5ebe 189c f0bd 19d9 1f3d 9f4a ff3d
000002e0: b7f8 6ebe 0989 e9bd 4113 0dbe a8b6 663d
000002f0: c87a 1b3e a393 063e f0d4 b43d a195 9b3d
00000300: c0a8 dabd a428 5c3e dbfb c73c c5ef dcbd
00000310: 58f6 2dbe adc4 213e 4a5e 023e 3067 45bc
00000320: c866 303e ff4f acbd 6784 35bd b33d c2bd
00000330: 7d50 5cbe fde8 c5bd ee53 68bd 717e 803e
00000340: 857f 8ebe 4444 d13c 0f48 91be d9e8 2fbd
00000350: fca5 73bc 22ab 7f3d f2ee 913c fe51 473d
00000360: 54ae 09bd d901 8ebe 9a1e a63d 7ac1 f33d
00000370: 80c5 7f3d 5c19 283e d9e7 373e 71a5 153d
00000380: 9484 5ebe 013a 60be 1e21 4a3e 328d 4fbe
00000390: e95b 6abe 7454 eb3d 46bc bfbd 8fa2 e43d
000003a0: 0fc1 663c 477a 42be 778a db3d b12f 633e
000003b0: adf6 d03c 7fdf 6f3d 3579 20be 9b6e 64be
000003c0: f084 983c 3d80 9ebd 0f38 643e 3220 033e
000003d0: 1b14 b93d b24b 6f3d 9f4f 20be 9798 bfbe
000003e0: 9d1d 4bbe 554f 33be 08f1 1d3e eb41 a7bd
000003f0: 9693 333d 5ebe 01bd 2cde f33c 45d4 e8bd
-0.032430578 -0.010445 -0.07102553 -0.04284871 0.041163143 -0.010126546 -0.347347 -0.103678405
-0.0047569047 -0.06386196 0.01974427 0.06044242 0.07147058 0.080358475 -0.23685549 0.21249604
0.45692173 -0.26083773 -0.13000971 -0.06965597 0.05839266 0.22385462 0.20877905 0.19158313
-0.31473824 -0.07725998 -0.08825727 0.09013088 -0.21438983 -0.003078838 -0.028004128 -0.275888
-0.039183773 -0.26183766 0.1262462 -0.12547785 0.13782375 0.034665257 -0.064215235 -0.1028243
0.027843064 -0.119424164 -0.11707229 -0.03544131 0.14304659 -0.06329054 0.15022182 -0.17551784
-0.17301056 0.07095943 -0.03156494 -0.061508793 -0.24101621 0.327154 -0.1537062 -0.10559597
-0.13114643 -0.019907039 -0.08628331 0.15708928 0.110029995 0.055635758 0.093385264 0.03986847
-0.041776415 0.07395607 -0.25509623 -0.017171506 -0.117440514 0.16866405 -0.12074767 0.08173667
-0.08901444 0.0065330644 -0.13020322 -0.22600777 0.17200217 0.27257827 0.22878127 0.16482197
-0.09540846 -0.039004948 0.07529673 0.33850315 -0.048256267 0.22370295 -0.34093502 -0.19657336
0.11438392 -0.16083477 -0.015940348 -0.11447347 -0.15437376 0.28223887 0.20190951 -0.13014933
-0.3593212 0.0974719 -0.41214854 0.18756218 0.08629163 -0.110206775 0.24627239 0.07281308
0.10552605 0.17324981 -0.04308668 0.07361327 0.024094198 0.14974698 -0.11649262 -0.22125043
0.093777075 -0.13782902 0.082113236 0.038608715 0.13585295 -0.15632576 -0.06656642 -0.03632343
0.038535014 0.18158223 -0.024129028 -0.1184819 0.07038149 -0.13048182 -0.20212087 -0.20721677
-0.102821775 -0.18540682 -0.17244908 -0.050226122 0.14629348 -0.17489046 -0.09547391 0.014595876
-0.028689574 0.04006712 0.17565352 0.029415695 0.09670903 -0.22305219 0.0030770856 0.071585864
-0.072989106 0.15427878 0.26909846 0.06423596 0.08411449 -0.03297963 -0.07519154 -0.27875626
-0.04460792 -0.06629439 0.033201788 -0.001499611 0.13300417 -0.15790771 -0.12454376 0.12624627
-0.016062904 -0.04755118 -0.20609884 0.18661247 0.03383461 0.26810232 -0.1009387 -0.20292516
-0.14950946 -0.061528124 0.12403027 -0.04133119 -0.05707352 0.06993595 -0.12933378 0.004001126
-0.12454422 0.057100773 -0.25773644 -0.021607563 -0.21705335 -0.117485225 0.0390254 0.12465405
-0.23337065 -0.114030905 -0.13776876 0.05632654 0.15183556 0.13142256 0.08829677 0.07596899
-0.10676718 0.21499878 0.024412086 -0.1078792 -0.16988504 0.15797682 0.12731281 -0.012048528
0.17226708 -0.084136955 -0.04431572 -0.094844244 -0.21515079 -0.096635796 -0.056720667 0.25096467
-0.27831665 0.025545247 -0.2837529 -0.04294667 -0.014871117 0.062419064 0.017814133 0.04866218
-0.033613518 -0.27735785 0.081113055 0.11902137 0.06244421 0.16415924 0.17959537 0.03653473
-0.21730262 -0.21897127 0.19739196 -0.20268705 -0.22886623 0.114907175 -0.09362082 0.11163818
0.014084115 -0.18991958 0.107197694 0.22186162 0.02550825 0.05856275 -0.15671237 -0.22307818
0.018618077 -0.07739303 0.2228701 0.1280525 0.09037038 0.058421798 -0.15655373 -0.37421104
-0.19835515 -0.17510732 0.15423977 -0.0816687 0.04384192 -0.03167569 0.029769026 -0.11368612

bias f4 [40]
00000000: 763a 8abe 2f0a d63d e2c8 d63c 5707 09be
00000010: f269 0b3d 9ced 4ebe 596e e4bd 8980 13bd
00000020: 8bad 033e d414 ce3e 48e6 05be f12d 37be
00000030: ca14 2a3c 6f48 49be 6ff4 fdbd cdaf 1fbe
00000040: 0643 20bd 6179 3ebe dd83 fd3d 68d5 56be
00000050: c726 1d3e c904 043d ddc2 a8bc 6e9c f0bd
00000060: 11e2 f43c 0a73 e9bd 862a 06be 068f 21bd
00000070: 1c97 363e 7a98 21be 0a7f c5bd daa7 08bc
00000080: 68d2 1c3d 7868 213d 81e1 75be 25ba b33b
00000090: c937 d7bd 939a 5d3e 829e 113e b5ed 5abe
-0.26997727 0.10451161 0.026218835 -0.13381706 0.034036584 -0.20207828 -0.1115386 -0.036011253
0.1285917 0.40250266 -0.13076127 -0.17888619 0.010380933 -0.19656537 -0.12400138 -0.15594406
-0.03912642 -0.1860099 0.123786665 -0.20979846 0.15346824 0.032231126 -0.02060073 -0.117485866
0.029892953 -0.11398895 -0.13102159 -0.03944304 0.17831081 -0.15780821 -0.096433714 -0.0083408
0.038286597 0.03940627 -0.24011804 0.0054848366 -0.10508687 0.21640997 0.14220622 -0.2137974

weight f4 [20, 40, 3]
00000000: 24d0 98be a580 913d 61f3 713d 5ae7 523e
00000010: 0ce7 953d 3cb6 8d3d 3c77 edbd 2de4 3a3c
00000020: 0b95 2abd f8d4 73bd f9ef 323d 2d8e 5d3e
00000030: 46fe 1b3e 8fea 2d3e 2e0b 5a3e 2fcc 6ebe
00000040: f6f9 debd a716 03be dc18 793e 4d6c fabd
00000050: aace 213e c431 883e a591 9dbe 7e8f 603e
00000060: e8a9 7e3e 2b59 55be 3b79 de3c 37d8 61be
00000070: a656 8cbe 8edd 643e c90a 113d aa81 3b3e
00000080: 1d09 08be 580a a1bc be8d c3bd 453a 803e
00000090: d36e 083e bff4 073d beed 5a3e a8c7 073e
000000a0: 6da0 abbc 3503 e2bd ac58 2bbd 81c4 17be
000000b0: bf31 573e 1506 903d b189 41be 6e5c c73d
000000c0: fbd7 2e3e 47e7 193e 9299 4a3d 95ea 8a3d
000000d0: 7d9d 9b3c 3e36 5c3c d3ae 0abe e89b c1bd
000000e0: d399 403e 7ddf 80be b6c7 debd c17b bf3c
000000f0: 8d92 a3bd f710 b03b 9181 08bd 8e15 e13c
00000100: c8e5 0f3e 92c3 ab3d 0406 e2bd 072c 15be
00000110: 3f19 6bbd bb6f fc3d a81e cebc 802f b63e
00000120: 2659 89be 7c9c 02be 9d03 16be f611 65bd
00000130: d7ce 0ebe 7779 7c3e 3942 58be 825b fe3d
00000140: 1ef7 3fbe ed5a 0abd 1440 2cbe 2fd8 c13d
00000150: 6879 96be 8929 9ebd b389 ff3d 42b3 743e
00000160: 3807 cbbd 7002 a1bd dd90 32be 7e61 7cbe
00000170: 286e 023e 7819 c73d faa6 f43d e7f4 f03d
00000180: 1ac2 c13e 043e 10be 0ca8 94bd 5cba acbd
00000190: b4d6 ee3d 7589 70be da0e 643d 3bb2 2ebe
000001a0: 2414 1ebe 7ba1 d4bd 7e75 b53d 2c2a 2c3e
000001b0: 4f5e 813d ce8a 213e 010f 533e ab8d e43d
000001c0: b379 5b3e f639 8bbe 32dc 40be 07fc c8bb
000001d0: 2573 13be 9519 2a3e db35 41be ce05 2bbe
000001e0: d381 67bb 7029 74bd 68cb 94be 6707 3d3e
000001f0: 7470 e5bc 0488 80bd cbc8 05bd c7ad 603e
00000200: 503b 7abd ec4b 5d3e bda4 cebd c0e4 2f3e
00000210: 7374 30be 4148 873e 27ad f53d e913 4fbd
00000220: 5343 193e 1df3 c03e 5bf6 333d fe1f 883e
00000230: fd3b 9d3e 75a3 c73e 5a09 ae3e ad0e 0dbe
00000240: 2032 57ba 4eed 1d3e 3102 be3e dee7 483e
00000250: 917c 663e 9efe 9cbe e9e2 913e a2d7 083d
00000260: 9434 3b3d 3331 863e 6854 66be c8e2 d73e
00000270: 1578 953d 642a 3e3e 5985 0dbd a325 513d
00000280: 3984 37bd 605f 5abc 6d09 9cbc 1b4c 383e
00000290: 6798 0cbe 9c66 5b3d 9f25 8c3e 1b15 f9bd
000002a0: ef62 10bc 5e82 183d 7509 6e3e 1d28 e33e
000002b0: e747 2ebe 6ce4 88bd 0d73 673e 548f 723e
000002c0: bbbb 973e 12c5 d1bc 2d88 c3be c1eb 28bd
000002d0: f178 32be 9999 8c3c 52db 433e a62b f53e
000002e0: 0c64 c93e 02c4 0c3f e13e 11be b304 00be
000002f0: 9f17 043e ac5c 2dbe 4cae e43c d89c 06be
00000300: 464f aa3e 5032 433e 1866 cf3e a08d 9ebe
00000310: 5bf5 313c 3700 b7bc b950 823e dc8d 44bd
00000320: 32e0 98be 792d 113e e199 be3d 601c 833d
00000330: 0e5e c13e dfd6 273e 6b45 943e 407b 333e
00000340: f36e 373d e96b c83e d57b 92be f709 223e
00000350: 7d2f a0bd 4d2c 743e d4c5 0abc 14ac 803d
00000360: 44bd c33e 5f9a ef3e 11be f43e 0538 833e
00000370: b310 02be 3abb ed3e 4465 80bc 60fe 04be
00000380: b647 90be 2b7e 1abe 458b f93d 5f38 9a3d
00000390: cf96 38be 25c7 193d 9d16 13be 9273 c1bd
000003a0: f35e ad3e 6dd2 cd3e 02b7 c63d 0b0a 903e
000003b0: 4cec ac3d 92be 3b3d 2cdd abbc cb39 163d
000003c0: 9379 103e 6e70 babd 5d5b ba3c 75f5 373e
000003d0: f804 773d 6564 573e 0f51 083e 2a0f 15bd
000003e0: 973d aa3d 7ce4 513d 7d27 08be 6272 6cbe
000003f0: a278 283d 18e5 a1bd 4101 59be 81ab 3dbb
-0.298463 0.07104615 0.059069995 0.20596066 0.07319459 0.06919524 -0.11595008 0.01140694
-0.041646045 -0.059529275 0.043685887 0.21636267 0.15233716 0.16984008 0.21293327 -0.23320077
-0.1088752 -0.1280161 0.2432589 -0.12227688 0.15801492 0.26600468 -0.3077518 0.21929738
0.24869502 -0.20834796 0.027157417 -0.22055136 -0.27409858 0.22350141 0.035410676 0.18311182
-0.13284726 -0.019658253 -0.095485196 0.25044456 0.13323526 0.033192392 0.21379754 0.13259757
-0.02095052 -0.11035768 -0.04183261 -0.14821054 0.2101507 0.0703241 -0.18900181 0.097344264
0.17074578 0.15029632 0.049462862 0.06783024 0.018995995 0.013440667 -0.13543253 -0.09453565
0.1880868 -0.25170508 -0.108779356 0.02337444 -0.07986937 0.005373116 -0.03332669 0.027476098
0.14052498 0.083869115 -0.11036304 -0.14567576 -0.057397123 0.123259984 -0.025161102 0.35583115
-0.26825827 -0.12755007 -0.14649816 -0.055925332 -0.1394609 0.2465571 -0.21119012 0.124197975
-0.18746611 -0.03377812 -0.16821319 0.09465062 -0.293895 -0.07722766 0.12477436 0.23896506
-0.09913486 -0.07861793 -0.17438073 -0.24646565 0.12737334 0.09721655 0.11945911 0.117654614
0.378434 -0.14086157 -0.07258615 -0.08433983 0.11662045 -0.23489936 0.055678226 -0.17060177
-0.1543737 -0.103823625 0.088603005 0.16812962 0.06316816 0.15775606 0.20611192 0.111598335
0.21433143 -0.27192658 -0.18833998 -0.0061335596 -0.14399393 0.16611321 -0.188682 -0.16701433
-0.0035325184 -0.05960983 -0.29061437 0.18459855 -0.028007723 -0.06275943 -0.032662194 0.21941291
-0.06109172 0.21610993 -0.10090015 0.17177105 -0.17231922 0.26422313 0.11995917 -0.050556097
0.14967088 0.3768548 0.043936115 0.26586908 0.3070983 0.38991895 0.3399151 -0.1377513
-0.00082090683 0.15422556 0.37111047 0.196197 0.22508456 -0.30663007 0.2849343 0.03340877
0.04570444 0.2620941 -0.22493136 0.42165208 0.072982945 0.18570858 -0.034551 0.051061284
-0.04480383 -0.013328403 -0.019047463 0.17997782 -0.13730012 0.053564653 0.27372453 -0.12162229
-0.00881265 0.037233703 0.23245795 0.44366542 -0.17019616 -0.06684193 0.22602482 0.23687488
0.29635414 -0.025606666 -0.3818983 -0.041240457 -0.17428948 0.017163085 0.19126633 0.47884864
0.39334142 0.54986584 -0.14184143 -0.12501793 0.12899636 -0.16929883 0.027915142 -0.13145769
0.33263606 0.19062161 0.4050758 -0.30967426 0.01086172 -0.02233897 0.25452211 -0.04798685
-0.29858547 0.14177503 0.09306694 0.064018965 0.3776707 0.1639056 0.28959212 0.17527485
0.044783544 0.3914483 -0.286101 0.15824114 -0.07821558 0.23845024 -0.008470017 0.06282821
0.38230336 0.46797463 0.4780126 0.25628677 -0.12701683 0.46431905 -0.015673287 -0.12987661
-0.2817971 -0.15087192 0.12184767 0.07530283 -0.18026279 0.037543435 -0.14364095 -0.094458714
0.33861503 0.40199605 0.09702875 0.28132662 0.084435076 0.04583604 -0.020979486 0.03667621
0.14108877 -0.091034755 0.022748644 0.17964728 0.060307473 0.21034391 0.13312171 -0.036391415
0.083125286 0.05124329 -0.13296314 -0.23090509 0.04113067 -0.07905024 -0.21191885 -0.0028941336

weight f4 [40, 20, 1]
00000000: 51dd 9bbc 20af 86be 685d 15be 5d5c ef3d
00000010: 6c9a b6bd 9da4 8cbd 4832 293e 3dce cb3c
00000020: d68e cfbd dff8 06be 1835 ed3d 3aa7 0abe
00000030: fc21 5cbe b613 cabe 5b3c 393e bf75 163e
00000040: b421 923c b335 7fbe 7e7b 93bd 0bb2 7e3d
00000050: fda8 403e 11b1 cebd d377 823d 65b6 cbbd
00000060: 822f 1439 d33d 8c3d 9662 153e 687f 8d3d
00000070: b198 d23d 72de 913d baaa 243e 4622 63be
00000080: 79ad 68be c823 07bf f1cd eebd f571 9bbe
00000090: 8c48 e53d 5827 2ebe 5cbc 093e a106 13be
000000a0: 20cf 083e d2fb fbbe e364 393e 0bbf 513d
000000b0: 2ad7 7c3d b93b e0bc e4d3 27be c577 5ebe
000000c0: af84 de3d 787c 4fbc a29e 5a3e a159 013d
000000d0: 9dfb aebd a903 babe f7d0 8abd cee4 e03d
000000e0: 0a01 93bd b3c6 c4be 3ce8 2abe 340e 893d
000000f0: e488 113d 310d 90bd 157b 01bc 07c5 0bbd
00000100: 6830 35be cc2f 93be 4d05 49bd 6434 81be
00000110: 698e a8be 665e 34be 5f75 123e e50d 03bf
00000120: 318d 4d3d 299b 23be e8d0 efbd 5112 afbe
00000130: ccba db3d 2b98 c23c 4580 9bbc f901 5bbe
00000140: 2b0b 093e dfc2 9bbe a582 88bc e87d 1ebe
00000150: d7dd 21bd 1d03 02be 16a6 1b3e 6c9a bfbd
00000160: 04cd 6cbd 8049 a0bd 4866 4c3c 9f86 f0be
00000170: 000a 93bd 7bbe 08be 2533 6fbd e6a7 10be
00000180: 63b0 48bd 2852 f0be 8740 0bbe e124 a8bd
00000190: b363 0a3f 2dbc d2be 3933 d3be 429d 773e
000001a0: cdd9 44be c2d1 2b3e d1dd b9be 504a b2be
000001b0: 7a2c a53e c6da adbd 2931 8fbe 2042 b73d
000001c0: f72b 163e fdb7 873e f7bd 2d3e 3ec0 473d
000001d0: 5fd9 173e a236 2abf 0da5 55bc bdd1 1bbd
000001e0: d9c1 de3d b2e6 eebe 8fe4 b83d 649c 44bd
000001f0: 9b5a a63d b59d b93d 6383 e3bd 9330 46bd
00000200: b551 593e efec d43d 9f8b cc3d d9ef 96be
00000210: 9a74 a43d bcfb adbe 3e9a 14be ec70 c9bd
00000220: cbc9 5ebd dc9c 5fbe 6ae9 64be aaf6 d93b
00000230: f4b2 ed3d f51d 04bf 275c 0fbe ed7f 50bd
00000240: 11c8 373e 816a 20be d602 59be 1b4c 823d
00000250: 0f7e ce3c 2033 b43d 8599 b63d c07e 67be
00000260: 7ed0 12bd ac3f e2be da64 44be 71ea 5abe
00000270: 482c 44bc 7092 10be 89d2 65be 4322 bfbd
00000280: 938b 2e3e 1aca 4b3d 7921 5c3e 05a5 283d
00000290: 8d1c c3be 692e ed3d eee6 91bd 5b4a bfbd
000002a0: 74cd 1b3e dafb 553d 2581 043e f920 a6bd
000002b0: 7196 1b3e 5c83 863d 3357 26be 6a7b febd
000002c0: b5b0 83be 7ae8 793e bb2e cdbb 321c 30be
000002d0: b731 19bf 4a25 c8bd 7959 18be 1960 4a3e
000002e0: dfca 8f3e bcd7 73bf b0b6 b83d 7aed 8d3e
000002f0: 717d 2abf 4caa 35bf 4f97 bbbe b029 003f
00000300: b5ee 833d 646b 523d f314 e9bd 256c 41bf
00000310: e679 16bf 8f38 983e 32f0 793e 4222 27bf
00000320: 825a 083e 11cf e0be 442a 863d b915 e8bc
00000330: f95a 86be cdbd 59bc ab5d 4ebe c1ce 643e
00000340: f5ae 05bc 2020 c3bd bcba 873d 4dae a8be
00000350: 84e9 043e a448 d1be fbba d43d a7fa a23d
00000360: 98ef e3bd a79c 093e 2e0b 27bd 7cd8 c6bd
00000370: 0d06 923d 290d 853e 938f c23d 59e0 023f
00000380: 17a3 8e3e c370 f0bd f8fd 723c c311 96bd
00000390: cb1f 94bd 4723 c5bd e1d6 dd3d 8637 87be
000003a0: 7423 bebe 2e9f 9f3d 212a 27be 34b8 aabd
000003b0: 1cac 3e3e 45ea edbd 4000 8b3d a0b1 a63d
000003c0: 4785 dbbd 348f eabe 57d7 62be 065a bfbd
000003d0: c5ce 4dbd 66ed afbd f811 273d a954 5fbe
000003e0: c662 adbd 8428 853d 0a68 ad3d 49fc 27bf
000003f0: e735 5bbe f934 0abf 50ba 933d cf08 6ebe
-0.01902643 -0.26305485 -0.14586413 0.11687539 -0.089161724 -0.06867335 0.16523087 0.024878616
-0.10134666 -0.13180874 0.115823925 -0.13540354 -0.21497339 -0.39468163 0.1808943 0.14693354
0.017838337 -0.24922828 -0.07201289 0.062181514 0.18814464 -0.100923665 0.06370511 -0.09946898
0.00014132078 0.068477295 0.14588389 0.069090664 0.1028303 0.07122506 0.16080752 -0.22181043
-0.22722425 -0.5278897 -0.11660374 -0.3036038 0.11195478 -0.17007196 0.1345076 -0.14357997
0.13360262 -0.4921556 0.18104891 0.051207583 0.061728634 -0.027372228 -0.16389424 -0.21725376
0.10865151 -0.012663953 0.21349576 0.031579617 -0.08544085 -0.36330917 -0.06778138 0.10981141
-0.071779326 -0.38432845 -0.16690153 0.06692162 0.03553094 -0.07033766 -0.00790288 -0.034123447
-0.17694247 -0.28747404 -0.04907732 -0.25235283 -0.3292115 -0.17614135 0.14302586 -0.51193076
0.05018348 -0.15977158 -0.117097676 -0.34193662 0.10728988 0.0237542 -0.018982062 -0.21387471
0.13383166 -0.30422112 -0.016663859 -0.15477717 -0.039518204 -0.126965 0.15200076 -0.093556255
-0.057812706 -0.07826519 0.012475558 -0.46977708 -0.07179642 -0.13353913 -0.058398385 -0.14126548
-0.04899634 -0.4693768 -0.13598834 -0.08210159 0.5405838 -0.41159192 -0.41250017 0.24181083
-0.1922371 0.16779235 -0.36302045 -0.3482232 0.32260495 -0.08488993 -0.27967194 0.08948159
0.14665209 0.2650756 0.16966997 0.04876732 0.14829014 -0.66489613 -0.013039839 -0.03804182
0.10876817 -0.46660382 0.09027969 -0.04800071 0.0812275 0.09063283 -0.111090444 -0.048386168
0.21222575 0.10396754 0.09987568 -0.29479864 0.080300525 -0.3398112 -0.14511964 -0.09835991
-0.054391664 -0.21837181 -0.22354665 0.006651719 0.11606398 -0.5160821 -0.13999997 -0.05090325
0.17947413 -0.15665628 -0.21192488 0.06362172 0.025206594 0.08798814 0.08916 -0.22606945
-0.035843365 -0.44189203 -0.19179097 -0.21378495 -0.011973448 -0.14118361 -0.22443594 -0.09332707
0.17045431 0.049753286 0.21497144 0.041173 -0.3810772 0.11581118 -0.071241245 -0.09340354
0.15215093 0.052242137 0.1293989 -0.08111758 0.15194108 0.065680236 -0.16244201 -0.12425883
-0.25720754 0.24405089 -0.006261674 -0.17198256 -0.59841484 -0.09772737 -0.14877881 0.19763221
0.28084466 -0.9525106 0.0901922 0.27720243 -0.6659766 -0.7096298 -0.36638877 0.5006361
0.06442014 0.051371947 -0.11380949 -0.7555564 -0.5877975 0.2973065 0.24408033 -0.6528665
0.13315776 -0.4390798 0.0655103 -0.02833067 -0.26241282 -0.013289881 -0.20152919 0.22344495
-0.008159389 -0.09527612 0.06627414 -0.3294548 0.12979704 -0.40875733 0.10387226 0.079579644
-0.11129683 0.13438664 -0.040782146 -0.0970926 0.0713006 0.25986603 0.09500041 0.5112358
0.27858803 -0.117402576 0.014831059 -0.073276065 -0.072326265 -0.09625869 0.108320005 -0.2640955
-0.37136424 0.07794033 -0.16324665 -0.08335915 0.18620342 -0.11616949 0.06787157 0.08139348
-0.1071878 -0.4581238 -0.22152458 -0.093433425 -0.05024602 -0.08590202 0.04078862 -0.21809639
-0.08466105 0.06501868 0.084671095 -0.6561933 -0.21407281 -0.5398708 0.07213271 -0.23245548
