models/model_speech.pt (torch, 530780 bytes, 25 tensors)

weight f4 [40, 201, 3]
000000 e8 c3 ad 3c a0 d2 33 bd e4 ed d9 3a a8 93 f3 3c
       0.02121158 -0.04390204 0.0016626683 0.029733494
000010 c2 2b bc bc 4b 78 57 bc d9 b3 83 bb ec 38 26 bd
       -0.022970084 -0.013151239 -0.0040192422 -0.04058163
000020 9c d2 a6 bc fa 03 a0 bb 68 b0 ea 3b 76 62 95 3c
       -0.020364098 -0.0048832865 0.0071621425 0.018235426
000030 9f 1b be 3c 6d 63 17 3c c3 a0 53 3b f5 cd c2 bc
       0.02320653 0.009240014 0.0032291866 -0.023779849
000040 dd 6a a0 bc cc c6 42 bd 95 72 67 3c 09 c2 06 3d
       -0.019582206 -0.04755287 0.01412644 0.03289989
000050 69 00 49 3d 05 2b c1 3c 5b aa 34 3c 0a af 46 3d
       0.049072657 0.023580084 0.011026944 0.048506774
000060 1c fe c7 3c c0 17 e3 bc 8e 36 70 3c 94 11 81 3c
       0.024413161 -0.027721286 0.014661444 0.015755452
000070 55 36 98 bc 54 c0 2c bc 8d a1 22 3c 7b 1e 53 bc
       -0.018580595 -0.0105439015 0.009926212 -0.012885685
000080 18 5a b0 bc b4 fa 5d ba 86 0e eb bc 20 03 4e bc
       -0.021527335 -0.00084678386 -0.028693449 -0.012573987
000090 cc 6a 81 bb 94 a9 3f bc 99 63 1e bc 8c 57 34 3c
       -0.0039494988 -0.011698145 -0.009667301 0.011007201
0000a0 23 7d 12 bd f2 4c cb bc ed 78 63 3d 2e 54 5e bd
       -0.03576387 -0.024816964 0.055535246 -0.0542795
0000b0 e6 95 64 bd a0 f2 1c 3d 8c 15 f0 bc 84 6d 20 3c
       -0.055807017 0.038317323 -0.02930715 0.009791736
0000c0 60 30 ca 3c 54 1e 3f bc 8e 2b 0b 3d 2c 23 a1 3c
       0.02468127 -0.011664946 0.033977084 0.019670092
0000d0 ea 26 93 3c 64 a7 0b 3d 18 89 12 3d e4 fb 45 3d
       0.017962892 0.034095183 0.035775274 0.048335925
0000e0 ea bd 70 3d 3a 17 9e 3c 86 3f ad 3c 90 95 90 3d
       0.058774866 0.019298185 0.021148454 0.07059777
0000f0 a9 d3 ea 3c 12 e0 1c 3d 5c 99 61 3d 67 a6 82 3c
       0.02866538 0.038299628 0.055077896 0.015948487
000100 5c e4 25 3d 75 33 48 3d 7d 4b 51 3c d9 70 6c 3c
       0.040500984 0.0488772 0.012774345 0.014431202
000110 04 21 01 3d d6 58 eb 3a 32 e7 7b 3c 01 e3 35 3d
       0.031525627 0.0017955552 0.0153749455 0.04440594
000120 d3 01 8d 3c ac df 02 3d 93 0b 83 3d 8f 20 b4 ba
       0.017212784 0.03195159 0.06398692 -0.0013742613
000130 5c 93 59 3d bb 80 71 3d a7 15 ab 3c 23 82 51 3d
       0.05311905 0.058960658 0.020884348 0.0511495
000140 b6 23 60 3d 65 15 26 3c 78 f7 9b 3a 5f 49 11 3d
       0.054721557 0.010136937 0.0011899313 0.035470363
000150 02 22 a5 ba c3 ac 3f 3d 18 e4 ea 3c 1e 6f 87 3c
       -0.0012598636 0.046795618 0.028673217 0.016532477
000160 ec b8 2b 3c 37 99 25 3d cc 3d d8 3b a8 fd 00 3d
       0.0104811005 0.04042932 0.0065991636 0.031491905
000170 28 8a 62 3d f7 d6 4c 3b ec aa 1b 3d 50 da 79 3d
       0.055307537 0.0031256059 0.0380048 0.060999215
000180 20 36 14 bc d2 5b 23 3d 1c 46 63 3d e9 87 17 3c
       -0.0090461075 0.03988249 0.055486783 0.009248712
000190 3d 21 e1 3c 2a c8 04 3d b4 5a ed bb fe 13 3c b8
       0.02748167 0.032417454 -0.0072434787 -4.4841312e-05
0001a0 3e f6 2a 3d dd 75 28 bc 57 3b 79 3c 20 a8 97 3c
       0.04173874 -0.010282007 0.015211902 0.018512785
0001b0 55 1f bc 3b 02 8d 49 3d 15 06 87 3d 1f f0 de 3b
       0.0057410398 0.04920674 0.06592957 0.006803527
0001c0 e3 c8 42 3c 17 c7 22 3d 1d 37 52 3b 62 79 37 3d
       0.011888715 0.039740648 0.0032076307 0.044793494
0001d0 76 ee 1f 3d ad 25 3b 3b 54 f6 ba 3a f9 e5 07 3d
       0.039045773 0.0028556392 0.0014264085 0.033178303
0001e0 a6 24 da 3c c6 85 6b 3c 33 fc 0b 3d 74 78 1e 38
       0.026628803 0.014375156 0.034176063 3.7782316e-05
0001f0 79 18 28 3d d7 20 14 3c 3d d4 2b ba 6a e0 2b bb
       0.041038964 0.009041033 -0.00065547583 -0.002622629
000200 b7 2d b2 3c dc a3 50 3c f6 ba a3 3b 6d b8 80 3b
       0.021750314 0.01273438 0.0049966527 0.0039282353
000210 2a 3b 14 3c 5d ad 22 bc e5 45 8f ba a1 fc 49 3c
       0.009047309 -0.009929028 -0.0010930864 0.012328298
000220 8e 15 d0 3b 82 ad 93 bc d3 8f 97 3c 0e c3 be bc
       0.006350226 -0.01802707 0.018501198 -0.023286369
000230 e2 23 a1 bb 9f 29 db ba 29 86 4a bc d4 7c b6 bc
       -0.0049176076 -0.0016720778 -0.012361088 -0.02227632
000240 b3 e9 a4 3c 69 37 95 bb 5b 08 f7 bc c3 0e bd 3b
       0.020130968 -0.0045537245 -0.030155351 0.005769582
000250 2b c6 a9 bc a9 a2 08 bd 16 8c 5f 3c dd 94 99 bc
       -0.020724377 -0.03335825 0.013644239 -0.018747741
000260 63 7c f1 bc d4 2b a0 3a 62 e0 14 bc ac a0 be bc
       -0.029478258 0.0012220093 -0.0090867 -0.023269974
000270 0d d8 d2 bb 2b 4a 82 3a 5d 7c 7c bb b4 8d 13 3c
       -0.0064344467 0.0009940317 -0.0038526275 0.009005953
000280 ee 83 86 bc 01 71 91 bc 34 89 60 bc 26 67 31 bc
       -0.01642033 -0.01775408 -0.013704587 -0.010827815
000290 b0 9c 1c bd f8 ab ec bb d5 bc 4f bc 09 fd 83 bc
       -0.038235366 -0.0072226487 -0.012679298 -0.016111868
0002a0 30 14 05 bb 9c 75 b4 bc 55 ce d1 bc 45 ce 48 ba
       -0.0020306222 -0.022028737 -0.025611082 -0.0007660131
0002b0 68 92 46 bb 4e 73 a3 bc 90 ab d4 bb c1 0c fc ba
       -0.0030299667 -0.019952442 -0.0064901784 -0.0019229875
0002c0 99 8c ab bc fe ed 51 3c 6b 26 76 bb 6b b3 ac bc
       -0.020941066 0.012813089 -0.003755952 -0.021081647
0002d0 80 cc ba 3a f3 c1 1b bc a9 88 92 bc a8 20 f0 3b
       0.001425162 -0.00950669 -0.01788743 0.0073281117
0002e0 76 4a 03 bc 10 42 c6 bc 73 76 2a bc 2b 01 e7 bc
       -0.008013358 -0.024201423 -0.010404217 -0.0281988
0002f0 78 4a c8 bc 3a 3a ef bb 15 ab 7f bc 9e 00 20 bc
       -0.024449572 -0.0073006423 -0.015604754 -0.009765772
000300 a5 1d 84 3c 66 bd 83 bb c1 51 a9 bc 5e 5c 67 bc
       0.016127417 -0.004020381 -0.020668866 -0.014121143
000310 de 72 f7 ba 53 d2 84 bc c0 b6 f6 3b e8 06 7b b8
       -0.0018878838 -0.016213572 0.0075291097 -5.9849495e-05
000320 ac fd 63 bc a3 49 00 bc f1 2d 90 bc eb 5f c7 3b
       -0.013915461 -0.007830056 -0.017600032 0.0060844324
000330 58 5f 94 bc 69 ff 81 3c e1 a6 d9 bc 95 85 c4 3b
       -0.01811187 0.01586886 -0.026568832 0.0059973695
000340 bf b1 88 39 dc 1e dc bc 57 af a2 bc a1 b0 82 bc
       0.00026072373 -0.026870184 -0.019859 -0.015953364
000350 16 1f 88 bc b9 db a1 bb 34 f2 8c bc 48 3a 2c bc
       -0.016616385 -0.004939523 -0.017205335 -0.010511942
000360 a7 a3 b5 bc 64 6d b2 bb a9 68 83 ba c0 a7 da bb
       -0.022172762 -0.0054451693 -0.0010025698 -0.0066728294
000370 d5 59 03 bb d0 69 e6 bc c7 5b 16 bc 38 35 b6 bb
       -0.0020042558 -0.028126627 -0.009177155 -0.0055605434
000380 bd e2 35 3c 6b 5b 3e bb f3 94 70 bc 2c 4a 55 bc
       0.011101422 -0.0029046189 -0.01468395 -0.013018172
000390 fb c1 44 bc f3 ab 86 bc a2 b8 08 3a 4b 6d 63 3a
       -0.012009139 -0.016439414 0.0005215501 0.0008675649
0003a0 85 13 5f bb b2 a2 20 bc eb 1a 4d 3a 11 e1 43 bc
       -0.0034038734 -0.009804415 0.00078241405 -0.0119555155
0003b0 9c 62 d2 bb 35 79 6b 3c 72 e3 9c bc bb a7 8b bc
       -0.0064204466 0.01437216 -0.019151423 -0.017047754
0003c0 da 9c 9d bc 31 92 ff bb 60 c0 db ba 88 ca 66 bc
       -0.019239832 -0.00779941 -0.0016765706 -0.014086373
0003d0 c2 6e 23 bc 52 94 03 bc cc e8 8f 3b 15 ee 60 3b
       -0.009975137 -0.008030968 0.004391765 0.0034321595
0003e0 5f 54 1e bc 78 3d 85 bc 51 ab 96 3b 09 d3 06 bc
       -0.00966367 -0.016264662 0.004598059 -0.008229026
0003f0 71 74 4c 3b 11 bb 63 bc bf 2e 98 3b 68 d8 cb bc
       0.0031197334 -0.013899581 0.0046442444 -0.024883464

bias f4 [40]
000000 af 17 e3 3c c5 57 f0 3d df bc 6c 3c 7c 51 a0 3d
       0.027721254 0.11735491 0.014449327 0.07828042
000010 df ba b9 bb 9f e0 7d 3d 8b 24 29 3e 0b a8 0b 3e
       -0.0056680287 0.061981793 0.16517846 0.13638322
000020 6f 9e b0 3d 35 4e 27 3e f6 a3 95 bc 73 97 b1 3d
       0.08623969 0.16338427 -0.01826666 0.08671465
000030 e0 89 5f 3d e7 c5 6a 3d 9b 7c bb 3d aa bc ca 3d
       0.054574847 0.05731764 0.09154626 0.09899266
000040 8c b9 53 3c f2 45 e5 3d 9d 62 02 3e 2e f1 7b bd
       0.012922656 0.11194982 0.1273293 -0.061509304
000050 07 e1 b0 3c 04 08 c3 3d cf c0 e1 3c 76 af fe 3c
       0.021591676 0.09523013 0.027557759 0.031089526
000060 a6 3e 8a bb fe 20 83 3d ff 50 6b bd a0 3b 0c 3d
       -0.004218894 0.06402777 -0.05745029 0.03423655
000070 4c 83 d2 3d e8 27 6c 3d 45 01 71 3c f9 53 ab bd
       0.10278949 0.057655245 0.014709775 -0.08365626
000080 e7 70 c7 3d 07 0d e3 3d b4 cd 37 3c 36 a0 05 3d
       0.09738331 0.11086469 0.011218477 0.032623492
000090 5d a9 8e 3d a1 6e e1 3c ca cc 06 bd a8 a6 fe bd
       0.06965897 0.027518572 -0.032910146 -0.12434131

weight f4 [40, 40, 3]
000000 1e af 4d 3d 95 a3 d5 bd fe 8d 15 be 4e 78 28 3d
       0.050215833 -0.104315914 -0.14604947 0.041130356
000010 70 c3 e8 3d 77 bc c3 bc 7b 67 43 bd de 90 04 be
       0.11365402 -0.023893578 -0.04770611 -0.12945887
000020 59 22 02 be 51 fd 88 bd 25 d2 c2 bc cb 37 d5 bd
       -0.12708415 -0.06688941 -0.023781845 -0.10411032
000030 f6 17 81 3d 95 85 66 3d 7c 11 90 bd 77 f2 f3 3c
       0.06303398 0.056279738 -0.07034585 0.029778702
000040 ba f3 8c 3d 4b 3a 4a 3d 1a ff c5 bd 60 e4 a5 bd
       0.06882425 0.049372 -0.096677974 -0.081002
000050 ab 6b 74 bd 9f b4 b3 3d 8b 24 22 3d de 52 94 3d
       -0.059672993 0.08774685 0.03958563 0.07242368
000060 56 1d f5 3d 84 2d a9 3d 2e ca d3 3c 07 0a aa 3d
       0.11968486 0.082606345 0.025853243 0.08302694
000070 d4 a2 09 3e 62 c2 93 3d 62 d8 30 bd b5 3d 0a be
       0.1344102 0.0721481 -0.04317511 -0.13500102
000080 cf 77 99 bd 58 f3 1a bd 51 2f db bb 43 b3 e4 bc
       -0.07493555 -0.037829727 -0.00668899 -0.02791751
000090 0b 7c 55 bc 29 ea 70 3c 78 63 56 bc fb bc 50 be
       -0.013030062 0.014704266 -0.013085239 -0.2038459
0000a0 73 c0 c9 bd 5d 8c 72 bd 03 76 64 3d e3 c7 da 3c
       -0.0985116 -0.059215892 0.055776607 0.026706642
0000b0 e1 08 9c bc bc 65 ed bc 90 a2 5e bd 82 77 f7 3c
       -0.019047203 -0.028979175 -0.05435425 0.030208353
0000c0 b3 0e d8 3c 7a 34 98 bc a6 cf db 3c 0d 02 de 3d
       0.026374197 -0.01857971 0.026832413 0.10840235
0000d0 b9 8a 19 bc 82 96 61 bc 58 e2 f2 bd de 70 7f 3d
       -0.009371453 -0.013768794 -0.11859578 0.062363498
0000e0 fe 65 79 3b 16 78 10 bd f2 5e 0b be 6f fa 7d bd
       0.0038055177 -0.035270773 -0.13610438 -0.06200641
0000f0 26 3f 47 bd 6e 67 94 bd 78 57 21 be 9f 05 20 bd
       -0.048644207 -0.0724629 -0.15756023 -0.03906786
000100 c0 de 16 bd 2b 35 29 be e1 a1 60 3d 64 a2 b5 3c
       -0.036833525 -0.16524188 0.05484188 0.02217216
000110 1e e0 61 3d 04 b0 e2 3c 90 2c de bc bf ca 23 bd
       0.055145375 0.027671821 -0.027120858 -0.039988276
000120 63 c5 0e be 03 5e 17 3d e4 39 70 bc 35 2f 8f bc
       -0.13942485 0.03695489 -0.01466224 -0.017478565
000130 f9 84 e4 3c ca 85 41 ba 50 d1 3a 3d ec a1 e7 bc
       0.027895438 -0.0007382302 0.045609772 -0.028275453
000140 7d c5 0a be cb b1 45 3d 72 91 df 3d 3f 0d fa 3c
       -0.13551898 0.04826526 0.10916413 0.030523894
000150 22 49 91 3a f0 54 45 bd 8b ab 73 bd 87 54 c5 bd
       0.0011084417 -0.048176706 -0.059489768 -0.09635263
000160 3d d4 b2 bd 05 19 17 bd fa 6f 88 3d bd 3b a0 bc
       -0.087318875 -0.036889095 0.06661983 -0.019559735
000170 14 21 df bd d1 89 c7 bc 69 ae 0c be 22 87 39 be
       -0.10894981 -0.024357708 -0.13738407 -0.18117955
000180 85 d6 f8 bc ca e8 20 3c 66 42 5b bd aa 6e 5f bd
       -0.030375728 0.009821126 -0.05353012 -0.054548897
000190 e0 a1 8e 3c 06 93 f3 bc 68 ca a9 bc 77 c3 dc 3d
       0.017411172 -0.029733192 -0.020726398 0.107794695
0001a0 c3 2a 85 bb 3c 17 ae bc 8f d0 e4 bd bf 0c 19 bd
       -0.0040639355 -0.021251313 -0.11172592 -0.03736567
0001b0 07 f1 b5 3d 24 20 b3 bc b0 a4 9c bc 57 5c aa 3d
       0.08883863 -0.021865912 -0.019121498 0.08318394
0001c0 de e7 96 3d f7 7e 08 bd 45 08 81 bc 64 59 29 3d
       0.07368444 -0.033324208 -0.015751014 0.041345015
0001d0 a9 7e d6 bd 6a cc 42 3d 4d 86 29 3d d9 96 08 bd
       -0.10473377 0.047558226 0.041387845 -0.033346985
0001e0 03 e9 4a 3d b3 6c 23 bd 00 d1 ad bd e8 48 f9 3c
       0.049538624 -0.039898586 -0.08487129 0.030430272
0001f0 92 61 87 be 4c 1f f1 3c 6b 16 b2 bb ff e6 98 3d
       -0.26441628 0.029433869 -0.0054348013 0.07465934
000200 5a f0 97 3d 9c bd 87 3b 5c 52 6b bd 95 26 06 3e
       0.0741889 0.0041424762 -0.05745159 0.13100655
000210 02 0d 4e bd 37 83 a5 3c 4b 33 33 bc be b4 0a 3c
       -0.050305374 0.02020417 -0.010937522 0.008465944
000220 83 85 48 3d 6d 19 a1 3a da e6 3e 3e cb bb 91 3d
       0.04895545 0.0012290903 0.1864275 0.07115897
000230 4b fe 50 3d f1 63 74 bb 3f dc ed bc c6 5b bd bd
       0.051023763 -0.0037291015 -0.029035686 -0.0924602
000240 8e 04 f5 3b a3 20 ed bd d3 e0 72 3d 15 51 8d bd
       0.0074773496 -0.115784906 0.05929644 -0.06900231
000250 82 1b 59 3d 31 31 98 3d 17 5d e4 3d 58 7b 85 3d
       0.05300475 0.074312575 0.11150568 0.065176666
000260 d0 47 1c 3d 3d 08 78 bd 7a 18 d0 bd e4 e8 ee bd
       0.038154423 -0.06055473 -0.101609185 -0.11665514
000270 0e 6e b8 3b 5e cf cb bc 96 40 92 bd 34 d4 a6 bd
       0.005628354 -0.024879154 -0.07141225 -0.08145943
000280 a1 fc 3a bd fc 2f a9 3d 43 32 21 3d b9 1b 22 bd
       -0.045651082 0.082611054 0.039354574 -0.03957722
000290 22 52 f2 3d f4 ed 1b bc 0e 77 2d 3c 13 26 0a 3e
       0.11832072 -0.009517182 0.010587467 0.13491087
0002a0 3a 3e a7 3d 07 bc a3 bd 08 ae 66 bd e0 4c d2 b9
       0.08166166 -0.07994848 -0.056318313 -0.00040111598
0002b0 6d 23 16 be cd c1 83 bd 1c ae ef 3c f8 78 2b 3c
       -0.14661951 -0.06433449 0.029257827 0.010465853
0002c0 d4 f0 c3 3d 95 64 aa 3d 58 8e 52 3e d5 e7 a7 3d
       0.09567419 0.08319966 0.20562112 0.08198515
0002d0 fe 60 61 3d 86 f5 f9 3c 1f 57 f7 3b 1e e8 1e 3d
       0.05502414 0.030512583 0.0075482274 0.038795583
0002e0 cd 7c 24 3e 47 a0 af 3c 52 c2 a1 bd 03 e0 75 3c
       0.16063233 0.02143873 -0.07898392 0.015007022
0002f0 bc 4f fc 3d 56 0e 4f bd b3 83 3e bc 69 1f aa 3c
       0.123198956 -0.05055078 -0.011628079 0.02076693
000300 a3 bb 28 bd a1 d9 d7 bc 35 e4 15 3c 5d 4d a1 3d
       -0.04119457 -0.02634889 0.009148647 0.07876084
000310 22 ac e3 3d 28 23 71 bd 86 0b bb bd 88 4a cf bd
       0.11116816 -0.05887142 -0.09133057 -0.101216376
000320 41 7c c4 bd b8 b4 22 3d 59 d7 d1 3c b0 3b 1f 3d
       -0.09594012 0.039723128 0.025615381 0.03887528
000330 e2 e6 21 bd 73 59 b9 3a a1 75 db 3d 29 42 63 3d
       -0.039526828 0.0014141038 0.10715795 0.055483017
000340 8a 2f d5 3b 7f e9 8d 3c 41 e8 81 3d 6f 4e 73 3d
       0.0065059112 0.017323254 0.06343127 0.059400972
000350 5f 13 84 3d 58 cb 89 bb 77 c4 89 3d f0 3d 19 3e
       0.06449007 -0.0042051487 0.06726926 0.14965034
000360 17 96 d0 bd 58 86 f7 3b 4d b2 d8 bc fd be 9b bc
       -0.10184877 0.007553857 -0.026452208 -0.019011969
000370 b4 ba 82 3d 32 46 e7 3c 5e 2a b0 3d f2 dd cc bc
       0.06383267 0.028231714 0.08601831 -0.025008176
000380 1f d0 bd bb 74 1d 75 3d e3 a4 0d bd f9 13 84 3d
       -0.0057926322 0.05984254 -0.034581076 0.06449122
000390 d0 70 12 3d 97 84 cf 3d 7a 3f 1e bc 99 a6 e8 bc
       0.035752118 0.101327114 -0.009658689 -0.028399752
0003a0 54 5a 22 3c 8c 37 b3 3d 59 df 39 bd 8d fd 1d bd
       0.009909231 0.08750829 -0.045379017 -0.038571883
0003b0 49 e2 ac 3d ab f0 1c bd 4b 2c 1d bd 96 5f c2 3d
       0.08441598 -0.038315456 -0.03837232 0.09490888
0003c0 29 4e 9c 3d 24 d6 91 3d 6a bb 7e bd 6a 35 13 bd
       0.07632095 0.07120922 -0.06219045 -0.03593961
0003d0 3d 6c 2d bd 91 9f 9b bc 93 ff 74 3d c6 99 e0 3d
       -0.042339552 -0.018996986 0.059814047 0.1096683
0003e0 d8 ec e4 3d c1 8d 3f bd f6 19 8c bc 83 ec 9f bd
       0.11177987 -0.046766046 -0.017102223 -0.07808783
0003f0 27 74 80 bc d5 7a 1a 3d 89 07 8f bd 9c 21 c3 3c
       -0.015680386 0.037714798 -0.06983859 0.023819737

bias f4 [40]
000000 86 c8 df bd 8e 91 be bc 17 a9 84 3b 00 75 91 bd
       -0.10926919 -0.023262765 0.0040484774 -0.07102394
000010 fd 59 17 3d f7 f5 83 3d b3 a3 61 3d 6f 29 f7 bc
       0.036951054 0.064433984 0.055087756 -0.030171124
000020 72 2a a8 3d dd 16 78 3e 6a 77 2c 3d 43 d8 fb 3d
       0.08211221 0.24227472 0.04210607 0.12297108
000030 f1 14 a1 3d a2 38 89 bd 9a 38 cd 3b 12 c1 b3 bc
       0.078653224 -0.06700255 0.006262851 -0.021942649
000040 ca 0a b3 3a 21 fc 3b 3e c5 fc 80 3d db f9 8a 3d
       0.0013659832 0.18357898 0.06298212 0.067859374
000050 2e 00 84 bb 26 eb a9 3c c6 61 8c bc 1a 6a 18 3d
       -0.0040283417 0.02074201 -0.017136466 0.03721056
000060 24 1b ab bd 81 27 bb bb bb f7 d1 3d 36 63 da bd
       -0.08354786 -0.0057114963 0.10252329 -0.10663454
000070 8c 49 bf 3c f7 fd 15 3e 7a bc 8b bd 67 f8 be 3d
       0.0233505 0.14647661 -0.068230584 0.09324723
000080 76 85 f2 3c ea 6b ae 3d f5 00 00 3d 9a 1b d3 3d
       0.029604655 0.08516677 0.031250913 0.10307999
000090 6b 80 0d bd e2 a6 97 3d 59 a4 b1 3d 90 3f 4d bd
       -0.034546297 0.07404877 0.08673925 -0.050109446

weight f4 [40, 40, 4]
000000 74 0b 20 3d cf 23 91 3d 49 31 cd bb b7 e7 2e be
       0.039073423 0.07086908 -0.0062619788 -0.1708058
000010 8c 1a 32 3c b0 7d 1f bc 7d c7 3b 3d 6e c2 bb bd
       0.010870587 -0.009734556 0.045844544 -0.09167944
000020 f4 a1 38 3c 5c 51 99 bd fe 19 7d 3c f9 db 7f bd
       0.011269081 -0.07486221 0.015448092 -0.06246564
000030 2e fd 56 bd 8a 41 a6 bb 04 df f7 3c 83 01 00 3c
       -0.052487545 -0.005073731 0.03025771 0.00781286
000040 12 df 40 3c 85 62 a2 b9 08 4b 88 bd e1 29 28 be
       0.011771934 -0.0003097245 -0.06654936 -0.16422226
000050 b8 9c fa 3d e4 7a 29 3c 2f f7 04 bd 56 78 46 bc
       0.12236923 0.010344241 -0.032462295 -0.012113651
000060 b6 49 53 3c 63 d9 80 3d ec 86 ca bc ba 01 c2 bc
       0.012895992 0.06291463 -0.024722539 -0.023682464
000070 8c cc ab 3d c8 01 a2 3d f8 12 78 bd a5 d9 3e bd
       0.083886236 0.07910496 -0.060564965 -0.04659428
000080 8b 9d 4f 3c 15 0c f2 bb c5 b3 d3 bd f7 68 00 bc
       0.0126718385 -0.007386694 -0.10337023 -0.007837526
000090 17 69 5e bd 10 24 6e bd ac 7f 71 3c 74 33 a8 bb
       -0.05429944 -0.05813986 0.014739912 -0.005133087
0000a0 c4 7d 5b bc 6f 14 36 3c d5 01 20 3d d6 3c 93 bb
       -0.013396684 0.01111327 0.039064247 -0.004493336
0000b0 c0 57 83 3d 3a 6d 91 3d 86 bf 3c bd e8 86 16 bd
       0.06413221 0.071009114 -0.04608109 -0.03674975
0000c0 13 b0 12 3e 60 45 18 3c f4 f6 6d 3d d2 9b dd bc
       0.1432498 0.009293884 0.05809684 -0.02705184
0000d0 0b 7f e8 3b 56 33 37 bc d7 3d 2b bb 30 5a 47 bd
       0.007095223 -0.011181673 -0.0026129389 -0.048669994
0000e0 9b 52 6a 3d 8d 85 b8 3c 40 3a 02 bd 4f 34 b8 bd
       0.057207685 0.02252462 -0.031793833 -0.08994352
0000f0 92 2c 1d 3d ee 1b 1c 3d d2 36 47 bd 2c 8f 98 bd
       0.038372584 0.038112573 -0.048636265 -0.07449183
000100 1e fc 27 3c 97 47 0b bd b0 e5 e1 bc 56 5b 37 bd
       0.0102529805 -0.03400382 -0.027575344 -0.04476484
000110 c1 ea 6d 3c d1 da 1c 3d c7 2b b5 bc 1f 97 80 bd
       0.014521302 0.038294617 -0.022115601 -0.06278824
000120 66 cf 3b bd 00 6c 8d bc b8 21 ab bd ef 83 f5 bd
       -0.045852087 -0.017263412 -0.08356041 -0.11988055
000130 4a e2 dd 3c 6a 6e 21 bd 33 10 0b 3d ef c3 5a bd
       0.027085442 -0.03941194 0.033950996 -0.053409513
000140 f3 87 81 3c 22 02 a4 bd 73 53 b6 3c ff 0d 17 bc
       0.015811896 -0.08008219 0.022256589 -0.0092196455
000150 e1 26 be bd cf a8 6c bc c9 ad 15 3d 6c 49 d4 bc
       -0.09284759 -0.014444544 0.036542688 -0.025913917
000160 82 60 57 bc 0f b4 58 bc 84 9f 4f bc 32 63 35 bd
       -0.013145568 -0.013226523 -0.012672309 -0.044284053
000170 63 fd ae 3d f0 f2 02 3d 44 2e c2 bd 28 d8 f7 bc
       0.085444234 0.031969965 -0.09481481 -0.030254439
000180 40 c5 87 bc 45 0b 30 bd d4 a2 ad 3c 14 55 07 bd
       -0.016573548 -0.042979497 0.021195807 -0.03304012
000190 4b ac 80 3d cf 1a 20 3d 25 86 98 bc f3 ef ff bd
       0.06282862 0.039088067 -0.018618653 -0.124969386
0001a0 b0 02 12 3d 2f 22 bc 3c 67 6e 36 3d 46 00 3d 39
       0.035647094 0.022965519 0.04453888 0.00018024546
0001b0 cb 41 08 bd 21 f6 9c bc 4b ce 9e bd 2c 7d 84 bd
       -0.03326587 -0.019160332 -0.07754191 -0.06469187
0001c0 c9 7e 96 3c f3 df de bb c6 e1 f6 3c 29 11 18 be
       0.018371003 -0.006801599 0.030136954 -0.14850296
0001d0 46 17 1c bd 1c 6c 78 bd 2a f0 06 bc 7e 10 75 bd
       -0.038108133 -0.060649976 -0.0082359705 -0.05983018
0001e0 ed a9 18 bd 8d a4 33 3c 5c 21 04 3b 27 3a 2e bc
       -0.03727143 0.010964525 0.0020161485 -0.010633982
0001f0 70 3d 7a 3d 0e 67 a6 bc bb b8 e0 bd 32 41 13 be
       0.061093748 -0.020312812 -0.109727345 -0.14380339
000200 4a 2d ce bd 55 0a 57 3d e5 da 74 3c e9 82 ee bd
       -0.10067232 0.052500088 0.014944767 -0.11646063
000210 e2 5c be 3d 5c 10 a2 3d 2f 59 14 bb e5 05 c3 bd
       0.0929506 0.079132766 -0.0022636165 -0.09522609
000220 c5 4c 06 bc aa c6 89 3d 29 b7 70 bc d1 76 f8 bd
       -0.008197014 0.06727345 -0.014692106 -0.121320374
000230 9b 1c 78 3c 12 22 53 bc 5f 4a 1c bd fb 26 fa bd
       0.015143539 -0.012886541 -0.038156863 -0.12214466
000240 20 85 93 bb 2d 7b 00 bc df e1 90 bd 32 9a 56 3c
       -0.0045019537 -0.007841867 -0.070743315 0.013098286
000250 1d 90 a9 bc 24 60 2b 3d d3 e4 21 bd 96 2d 13 bd
       -0.020698601 0.041839734 -0.039524864 -0.035932146
000260 11 bd bd bd d7 5d 80 bd 72 d0 75 bd cb 7d da bd
       -0.09264577 -0.062678985 -0.060013242 -0.10668524
000270 41 57 9f bb 1a 3f 89 3c 06 b2 4f bc 85 a7 be bd
       -0.0048626964 0.016753722 -0.012676721 -0.093092956
000280 fb 3b 04 bd 9a e3 19 3c 47 5e 7b 3d 8c dc 1d 3d
       -0.032283764 0.009392643 0.061369207 0.038540408
000290 39 4c 1a bd c2 9a 35 bd 04 b5 3a 3d d4 34 b5 3c
       -0.037670348 -0.04433704 0.045582786 0.022119917
0002a0 db 6e 06 3d a2 9b 3f bd 35 86 3e 3c 48 63 f0 bc
       0.032820564 -0.046779282 0.011628677 -0.029344216
0002b0 2a 5c 8f 3b 3e e8 6f bc 29 51 b2 3c 9d 64 63 3c
       0.0043750005 -0.014642773 0.021767216 0.013878969
0002c0 d3 5b 5f 3c c7 84 6a bd 0c 12 89 bd b3 52 a5 bd
       0.013632732 -0.057255533 -0.06692895 -0.08072414
0002d0 05 5e 06 bb 49 62 15 3d 20 14 6f 3d c9 48 a3 3c
       -0.0020502817 0.036470685 0.058368802 0.019932168
0002e0 ca 47 4d 3d ce 69 18 bd 9e c1 17 3d 81 94 05 3c
       0.05011729 -0.03721028 0.037049882 0.008153082
0002f0 97 e9 dc 3c 89 c6 d7 3c 19 90 3b 3d dc ae b9 3d
       0.026966853 0.026339786 0.04579172 0.09066555
000300 5a 2a 85 3d 1b c0 98 bc cd 20 ad bc 37 b0 70 bd
       0.065022185 -0.01864629 -0.021133805 -0.0587618
000310 4e f7 72 3d d9 7d 86 3c a8 c3 8c 3d 4f 24 80 3d
       0.05931788 0.01641743 0.06873256 0.06256925
000320 c9 6d 1b 3c d1 d1 22 3d 84 62 f2 bc 7d f8 cd bb
       0.009486624 0.039750878 -0.029587992 -0.0062857256
000330 a8 ce b5 bc 24 ab 16 3c f9 ea e8 3c 5d 25 19 bd
       -0.022193268 0.009196077 0.028432356 -0.037389148
000340 d0 3d 92 bc d2 9d 71 3c c2 21 9e 3c b3 44 8e 3d
       -0.01785174 0.0147471 0.019303206 0.06946697
000350 f1 7c 54 3d 53 9b a5 3c 8b f5 d5 bc c2 86 08 3c
       0.051876966 0.020215666 -0.02611806 0.00833291
000360 f3 18 71 3c 57 df 9c 3c 2c a7 7a 3d 9f 61 67 3d
       0.014715421 0.019149465 0.061194584 0.056489583
000370 bb aa 60 3c 93 91 74 bc a6 30 b8 b9 1e 04 c6 bc
       0.01371258 -0.014927286 -0.0003513146 -0.024171885
000380 ea 8a 29 bc 84 bc d7 3c 40 7a ff 3c 68 53 66 3d
       -0.010348061 0.026335008 0.031186223 0.056231886
000390 67 c4 a5 3b 29 4c 05 bb 22 80 c3 bc 79 6d 92 bd
       0.0050588134 -0.0020339584 -0.02386481 -0.071497865
0003a0 2d 0a 3b 3b 1c 70 d1 3c f7 5c ec bc e2 89 6a 3d
       0.002854 0.025566153 -0.028852923 0.0572604
0003b0 00 86 02 3d 2f 73 5b 3d 1d bc 27 3d 0f 74 0f 3d
       0.031866074 0.053576645 0.040950883 0.03502279
0003c0 54 83 64 3b 2b bc 32 bd df 1f 24 bb b0 4c bb bd
       0.0034868317 -0.043636482 -0.002504341 -0.09145486
0003d0 88 74 89 3b 2b 43 93 3c 4e 52 8c 3c 47 51 66 3c
       0.0041948 0.017976364 0.01712909 0.014057464
0003e0 3d 08 45 3a 53 5c d8 3c be 18 75 3d 02 25 05 bd
       0.0007516181 0.026411211 0.05983805 -0.032505997
0003f0 fd 80 91 3b 36 36 0f 3d 4f 39 95 3d da d2 a5 3d
       0.0044404254 0.03496381 0.07286321 0.08096857

bias f4 [40]
000000 ed a4 c5 bd 68 3b e5 3d 30 b3 ab 3d dc d5 13 bd
       -0.09650598 0.111929715 0.08383787 -0.036092624
000010 ac 71 5e bd e4 10 be 3c ba 0f 2a bd e7 8b 6c bc
       -0.054307625 0.023201413 -0.041518904 -0.014437652
000020 fd 34 ad bc d6 60 91 bd 29 7b 34 bd e8 c5 48 3d
       -0.02114343 -0.07098548 -0.044062767 0.049016863
000030 0d 0e 40 bd c9 78 5c 3d f8 6b 25 3e 1e 3b 06 bd
       -0.0468884 0.053826127 0.16154468 -0.032771222
000040 1e ba e5 bc 29 e3 aa bd 25 65 f0 3d c5 83 6a bd
       -0.02804285 -0.083441086 0.11738042 -0.05725457
000050 23 a2 3d 3d eb 89 c0 bd 92 06 54 bd eb 9f a4 3d
       0.046297204 -0.09401306 -0.05176408 0.080383144
000060 c9 fe 65 bc 80 4b 2d bd 7c 2b 4c 3e 0c ba 2b 3d
       -0.014037796 -0.04230833 0.19938463 0.041925475
000070 62 59 58 3d c2 e8 f9 bc 02 3d 37 3d a7 a8 5e bd
       0.052819617 -0.030506495 0.044735916 -0.05436006
000080 65 0a 06 3c 84 85 8b bc 08 b7 e4 3b d4 45 40 bd
       0.008181189 -0.017031439 0.006979827 -0.046941593
000090 8a db 43 3d 41 04 ed 3c f4 d8 71 3d c5 ef 85 3d
       0.04781679 0.028932692 0.059044793 0.06539873

weight f4 [40, 40, 3]
000000 45 f4 f1 3c 8f d0 97 be b1 44 aa bd 63 74 ad 3b
       0.029535422 -0.29651305 -0.08313883 0.0052934154
000010 e4 ec bd 3c 3f 86 62 3d 04 61 08 3e bc d9 33 bd
       0.023184247 0.05530381 0.13318259 -0.04390882
000020 83 ff 1a be 29 77 39 3c 49 18 96 3d 04 ef ae bd
       -0.15136532 0.011319914 0.07328851 -0.08541682
000030 84 a7 ec 3d f5 6e a1 be 99 c8 a8 be 86 e1 0f 3e
       0.115553886 -0.31529966 -0.32965544 0.14050874
000040 8f 7b cb 3d 0b 3b 7f 3e 6d eb c0 3d 15 d2 f9 bd
       0.09935676 0.24924867 0.09419904 -0.12198273
000050 0c 96 ed 3e 97 4a 8f 3d 42 66 ab 3d cc 8a 29 3d
       0.4640354 0.06996649 0.083691135 0.041392133
000060 8c 98 10 bb e4 1a 1c 3d 08 89 40 be d1 66 a2 bc
       -0.0022063581 0.038111582 -0.18802273 -0.019824417
000070 4b bc ec bc 65 4f df bc 7c f2 2f be bd 9f 14 be
       -0.028898379 -0.027259538 -0.17182344 -0.1451406
000080 ef b9 8c bd c5 d9 c5 3d 38 76 2c 3d 29 ef 9f 3c
       -0.068714015 0.09660677 0.04210493 0.01952322
000090 8d 59 2f 3d 9e d6 9a 3c 9a 94 14 be 43 f3 a0 bd
       0.04281001 0.018901166 -0.14509812 -0.078588985
0000a0 c3 35 01 be da 92 bb 3d e7 e6 02 3c 0f b8 6c 3c
       -0.12618165 0.09158869 0.007989622 0.01444818
0000b0 25 b2 ef 3a 39 78 80 3c 18 ea 0b bd bd 19 06 3e
       0.0018287344 0.015682327 -0.034158796 0.13095756
0000c0 81 a7 9a 3d 39 2e 29 3d e8 62 8e 3d c0 6f 96 bb
       0.0755148 0.041303847 0.069524586 -0.0045909584
0000d0 6a df b2 3c 02 c0 b6 bc 00 40 f9 bb ee a6 43 bd
       0.021835048 -0.022308353 -0.0076065063 -0.04776662
0000e0 ba d4 27 be 42 ea 50 3d 4d fc a3 bc e5 16 53 be
       -0.16389742 0.051004656 -0.020017767 -0.20614202
0000f0 a7 11 5d bd 4c 52 1a 3d 72 10 9b 3d 4b 44 95 bd
       -0.053971913 0.03767614 0.07571496 -0.072884165
000100 62 e4 a0 3d 38 eb 5a bd 5f 59 1a bd e2 a5 2b bc
       0.078560606 -0.05344698 -0.037682887 -0.010476561
000110 14 d3 96 bd 73 d8 77 3e 4b 56 48 3e 53 9f 82 3d
       -0.07364479 0.24203663 0.19564168 0.06378045
000120 95 06 f7 bb a8 19 ab bd 14 fe 31 bd c9 6b 82 bd
       -0.0075386264 -0.08354503 -0.0434552 -0.06368215
000130 0a 2f 0e 3e fa a5 a4 bd 48 15 8f 3d 56 64 7f 3e
       0.13885131 -0.0803947 0.06986481 0.24940619
000140 a6 ea 1e 3e 47 5e 13 3d ed 44 a3 bd 05 24 ea 3d
       0.15519199 0.03597858 -0.07972131 0.114326514
000150 a0 bf 9f bd 01 19 48 3d e5 7f 44 3e f0 32 18 bc
       -0.078002214 0.04885197 0.19189413 -0.009289488
000160 72 c1 92 bd d1 43 b5 bd d2 42 54 3e 14 fe d7 3e
       -0.07165803 -0.088508256 0.20728615 0.42186034
000170 b2 20 69 3e 88 79 dd bd ef ef b1 bd 2c ac 3e 3d
       0.22766379 -0.10814196 -0.08688342 0.046550915
000180 e3 e8 ad 3c ee bc ae be e2 6d 8a be 75 c1 02 3c
       0.021229213 -0.34128517 -0.2703696 0.007980694
000190 18 2f 8d bd b8 9d 8b bd ef 0e 00 3e a1 81 28 3e
       -0.06893748 -0.06817192 0.12505697 0.164557
0001a0 54 a1 9b be aa ba a9 bd ac f2 68 3d 9d bc 91 3d
       -0.3039652 -0.082875565 0.056872055 0.07116053
0001b0 40 fb 5c 3c 28 80 1f bd 37 a0 ea 3d 34 78 d5 3d
       0.013487637 -0.03894058 0.1145634 0.104233176
0001c0 27 f0 ba 3d 5b db 76 3d 20 a5 c4 3d 5f 75 eb bc
       0.09127837 0.060267787 0.096018076 -0.02874249
0001d0 0e 6a 32 bd 90 e2 ff 3c a4 d0 69 bd 44 6e 88 3d
       -0.043558173 0.031235963 -0.05708374 0.066616565
0001e0 a2 7d 18 bd ed 46 04 3c 82 86 24 3d 03 ad 2f bd
       -0.037229188 0.008073551 0.04016734 -0.042889606
0001f0 ad 44 16 bd 09 d5 43 3d 9e 06 0e 3e cc 5e 37 bd
       -0.036686588 0.047810588 0.13869712 -0.04476814
000200 b9 35 4a 3c ba 5d 45 bd 37 97 0f bd 90 1b 67 3d
       0.01234191 -0.048185088 -0.03505632 0.05642277
000210 1e 4c 2f 3b 6c 4a 5f be 5a 04 69 3d 78 de 61 3d
       0.002674825 -0.21805733 0.056888916 0.055143803
000220 fb 6b f7 3c ae 56 6f 3d 17 ac 67 bd 54 61 59 3d
       0.030202856 0.058432274 -0.056560602 0.053071335
000230 d0 4d 95 3d 21 a4 11 3d 4a 90 14 3d fa d8 a1 bd
       0.07290232 0.035556916 0.036270417 -0.07902713
000240 47 9a 32 3d 2a e2 ad bd 05 26 06 3e 6f 8f 1a 3d
       0.04360416 -0.08490403 0.13100441 0.037734445
000250 b1 51 09 3d 71 ff 03 3d 2d 4a 41 3d 88 a5 69 3d
       0.033525173 0.03222603 0.04718988 0.05704263
000260 46 2e c9 3c d5 b3 88 3c 59 94 33 bd 3a f3 b3 3d
       0.024558198 0.016687313 -0.043842647 0.08786626
000270 45 78 02 3d f7 b5 a8 bb db 3b 61 bc 9d 86 80 bd
       0.03185298 -0.005148645 -0.013747181 -0.062756754
000280 ca b8 4f bc 75 d3 e5 bb 84 ac 67 bd 4f b2 e5 3c
       -0.0126783345 -0.007013733 -0.056561008 0.028039126
000290 3e bb 8d bc 1f 04 56 3d 74 9a 58 3c 00 e3 2c bd
       -0.017301198 0.052250024 0.013220418 -0.04220867
0002a0 05 2e bd bd 07 2a 0d be 61 59 c4 bc e2 b7 49 3d
       -0.09237293 -0.13785563 -0.0239684 0.04924763
0002b0 ec c4 95 bd e1 62 27 bb a1 55 fa 3d ba d1 dd 3d
       -0.073129505 -0.0025541114 0.12223364 0.10831018
0002c0 9e 9e 0d 3d 92 de 3d 3d ca 6a 8b bd 09 76 4e b9
       0.034575097 0.046354838 -0.06807478 -0.00019689662
0002d0 64 73 57 3d 2b 1a 9a 3d 09 59 c0 bd d1 db 57 3d
       0.05260028 0.075245224 -0.09391982 0.052699868
0002e0 80 d8 86 bd 83 80 b3 bd 06 ba 3c 3d 5d 70 4b 3d
       -0.06584263 -0.08764746 0.046075843 0.049667705
0002f0 33 15 b8 bc 9a e1 ff 3d 57 c4 52 3c b7 6e b2 3d
       -0.022471046 0.12494202 0.012864194 0.087125234
000300 e0 35 84 3c fb 22 8c 3d b1 31 27 bd af 75 7e 3d
       0.01613897 0.068426095 -0.040818874 0.06212395
000310 d5 5d 61 3c 8e f3 8a bd e8 d6 91 3d b2 d1 98 3a
       0.013755281 -0.067847356 0.07121068 0.0011659174
000320 5b 58 49 3d a9 02 42 3c 91 4f 95 bc 6a f8 50 3c
       0.049156528 0.011841455 -0.018226417 0.012754539
000330 ac 71 68 bd bc 80 c2 bd aa 9b ab 3d 0f 45 9e bd
       -0.05674903 -0.094972104 0.083793 -0.07728016
000340 a2 9a 3d bd b1 be b9 bd 32 bf 51 3e 70 b0 28 3e
       -0.046290047 -0.090695746 0.20483091 0.16473556
000350 29 39 09 3e f1 58 c8 bc 99 5f 2b 3c 72 3d be 3c
       0.13400711 -0.024456473 0.010459804 0.023222659
000360 ce f8 b1 bd ec 71 cc bd 84 ea 5a bd fd 62 15 bd
       -0.08690034 -0.099826664 -0.053446308 -0.036471356
000370 56 bd 63 bd 36 73 83 bb 40 86 04 3d c4 44 ae be
       -0.055600487 -0.004011537 0.032354593 -0.3403684
000380 54 cf 88 3e bb 9c 1f 3d 46 93 ab 3d 3d bc 8d bd
       0.2672068 0.03896783 0.083776996 -0.06920669
000390 da b2 f8 bc af 2b 2d 3c 55 64 ce bb 93 67 48 bd
       -0.03035872 0.010569497 -0.0062985816 -0.0489269
0003a0 41 5c 1f 3d 28 f0 e8 3c 7e a0 08 3d 95 53 2f 3a
       0.03890634 0.028434828 0.033356182 0.0006688175
0003b0 3b 9a 79 bc ab 7d b2 3d 6c 13 11 bd fe 71 8b bd
       -0.015234525 0.087153755 -0.035418913 -0.06808852
0003c0 65 ea f8 3c 7c 2d 9c bd a6 68 00 bd 3f d7 34 bc
       0.030385206 -0.07625863 -0.0313498 -0.011037647
0003d0 91 95 6a bb 34 39 c2 bd e3 34 5f bc db e8 76 bd
       -0.0035794715 -0.09483567 -0.013623449 -0.060280662
0003e0 0d 8d a8 3d 99 7f d4 bc 20 94 a1 bd 62 15 5b 3d
       0.08230028 -0.02593975 -0.07889581 0.05348719
0003f0 e5 5b 20 bd 46 41 2c 3c 2b b3 ee bd 56 98 c0 3d
       -0.039150137 0.010513609 -0.11655267 0.09404056

bias f4 [40]
000000 7a 79 0b 3e 74 c1 01 3e 39 a4 9a 3c e4 d5 26 3d
       0.13620558 0.12671453 0.018877136 0.040731326
000010 15 0f f1 3d 94 9a 20 be fd c3 fb bc 7b 68 ce bc
       0.11770455 -0.15683967 -0.030733103 -0.025196305
000020 73 30 7e bd 1f 95 a2 bc d0 b7 f5 3d 12 d0 3f 3d
       -0.062057924 -0.019846497 0.1199795 0.04682929
000030 10 46 67 3d c8 b7 2d 3d 16 6d 38 3d e5 f7 ad bd
       0.0564633 0.042411596 0.045025907 -0.08494548
000040 a0 68 47 bd 50 4c cb bd 52 46 01 3d c6 e2 fc 3d
       -0.048683763 -0.09926665 0.031561203 0.12347941
000050 8c 1b 74 3d dd ef 5d 3d 05 1a ba 3d 06 0b 74 bd
       0.059596583 0.05418383 0.09086994 -0.059580825
000060 80 c1 21 bd 40 5f 83 3d 29 57 f2 3d 9b 43 a7 bd
       -0.039491177 0.06414652 0.11833031 -0.081671916
000070 1f 0f 84 bd 00 12 c0 3d 0f 53 b8 3d 15 56 d6 3d
       -0.064481966 0.09378433 0.09000217 0.104656376
000080 c5 d4 be 3d 4b fb 5e bd 67 c0 8c 3c 82 d3 85 bd
       0.09317926 -0.05443887 0.017181588 -0.065344825
000090 fd f0 a3 bd 4a 01 e9 bd db 66 ad 3c d9 52 96 bc
       -0.08004949 -0.11377199 0.02116721 -0.018350052

weight f4 [40, 40, 3]
000000 6b 56 f7 3c 2c 82 d9 bd 7e b9 c1 bd 81 49 b9 3b
       0.030192574 -0.106205314 -0.09459208 0.0056545143
000010 ed 59 b6 3d 90 80 8e bd d0 8c 9f bd a5 75 2a be
       0.08903871 -0.06958115 -0.0779053 -0.1664644
000020 cb 3f 02 3d 71 40 61 3d 4d 3d f9 3d ea 76 a3 bd
       0.03179912 0.054993097 0.12169895 -0.079816654
000030 0f d5 76 bd 28 1e d6 bd 4d 5e 1e 3d 02 e2 cd 3d
       -0.060261782 -0.104549706 0.03866415 0.10052873
000040 36 ca 85 3d a8 59 a5 bd 24 8d 6e 3c ee 9f c0 ba
       0.06532709 -0.08073741 0.014560018 -0.00146961
000050 df ab 58 bd cb ee 8f 3c 3f 8b cc 3b 10 23 81 3d
       -0.052898284 0.01756992 0.0062421854 0.06305516
000060 5a 45 56 be 29 cc 94 3d 7d 91 6e bd b6 13 06 3d
       -0.20924893 0.07265503 -0.058244217 0.03273364
000070 d8 4b 69 3c a9 df 43 be a6 d2 18 bd a2 ad 8c 3c
       0.014239274 -0.19128288 -0.037310265 0.017172638
000080 d5 9d 04 3d af e0 13 bd 35 19 86 bd 03 10 24 3c
       0.032377083 -0.036102947 -0.065477766 0.010013583
000090 16 85 a7 bd 68 e4 44 bd 85 83 d4 bd 19 28 96 bb
       -0.08179681 -0.048069388 -0.10376648 -0.0045824167
0000a0 93 94 2a bc a2 88 88 bc b1 6d 88 bb d0 d9 a7 3c
       -0.010411399 -0.016666714 -0.004163467 0.020489603
0000b0 61 3c 93 bd 99 07 52 3d 53 55 6b 3d 0c 29 97 bd
       -0.07189251 0.051276777 0.05745442 -0.07380876
0000c0 2c a1 0e be e0 5e ae bd 7a a1 73 3d 6d 8c 8a be
       -0.1392867 -0.0851419 0.059480168 -0.2706026
0000d0 96 2e a4 bc 65 6f b1 3b 9e 89 cb 3c 0b e8 c8 bd
       -0.020041745 0.0054148906 0.024845894 -0.09809884
0000e0 46 17 f9 bd 6c 9c c4 3c fc da ba bc 93 2f 95 bd
       -0.12162642 0.024000369 -0.022809498 -0.07284465
0000f0 49 f9 9a bc 95 ed 47 3d f4 36 dd bc 6a d4 5b bd
       -0.018917697 0.04881056 -0.027003743 -0.05366937
000100 de 17 83 ba 95 e2 6e 3d 04 98 94 3d ca 94 ff 3c
       -0.001000162 0.058321554 0.07255557 0.031198878
000110 f1 fb a2 bc 05 ca d3 bd 0d 45 c8 bd d6 9d 53 3c
       -0.019895526 -0.103412665 -0.097787954 0.012916049
000120 ad 18 ed 3b c0 ef 3f bc a1 6f b9 bc b4 86 e4 bd
       0.0072356076 -0.011714876 -0.022636237 -0.11158505
000130 a0 a9 e2 3c 1d 4b 4e 3d 11 63 ad 3c a6 32 32 bd
       0.027668774 0.050364602 0.021165403 -0.043505333
000140 7b aa 92 bd 8f 08 8b 3c 50 8e 3f bc 15 f9 a3 bd
       -0.07161423 0.016971854 -0.011691645 -0.08006493
000150 ca 9a 15 3d 0c 22 7f 3c 7f e6 37 bd a5 fd 57 bc
       0.03652457 0.015572082 -0.044897553 -0.013183032
000160 32 ec c2 bc 7e c8 71 bd 96 b9 05 3d 38 e9 5b 3c
       -0.023794267 -0.059029095 0.03264769 0.013422303
000170 b8 bc 6d 3c 39 05 93 bd 14 dd 84 3d 7a d6 ed bd
       0.014510326 -0.071787305 0.0648748 -0.11613174
000180 78 f0 5c 3b c7 51 53 bd ee f2 46 bd 26 44 3a 3d
       0.0033712666 -0.05159166 -0.04857152 0.045475148
000190 81 7a 1a 3d 2b 11 8b 3c dd ae bd 3d 1d 94 25 3e
       0.037714485 0.01697596 0.09261868 0.16169782
0001a0 df f0 ab bd f6 27 47 bc 52 bb d3 3c ec 21 5b bc
       -0.08395552 -0.0121555235 0.025846157 -0.013374787
0001b0 a8 e1 96 3d 43 77 8b 3c a6 66 0c be 58 95 87 3d
       0.07367259 0.017024642 -0.13711032 0.06620282
0001c0 4b 2a 9e 3c 41 27 a0 bd 47 59 d8 bd c5 46 a6 3c
       0.019307276 -0.07819987 -0.10563903 0.020297417
0001d0 78 71 f6 bd c1 8f 33 bc 36 35 69 bd f5 c6 46 3d
       -0.12033361 -0.010959567 -0.05693551 0.048529584
0001e0 17 e9 8e 3d 6d 11 55 3d 24 b1 25 3e 52 70 ba bd
       0.06978052 0.05201857 0.16180855 -0.09103455
0001f0 23 48 be bd 71 a8 e9 bb 12 bb 65 3d 97 8d 6d 3b
       -0.09291103 -0.0071306755 0.056086607 0.0036247724
000200 68 eb 98 bd 42 8e 90 bc e6 4b b9 bc 34 58 59 3c
       -0.07466775 -0.017645959 -0.022619199 0.013265658
000210 a8 df 26 3d 98 96 81 bb da 92 34 bd f2 69 96 bc
       0.04074064 -0.0039547198 -0.04408536 -0.018361066
000220 71 a6 8a bd 4f e5 17 be 9e b1 8b 3d b4 eb 36 3c
       -0.067700274 -0.14833568 0.06820987 0.011164594
000230 52 ae e4 bc 82 fb ec 3d fb d0 65 be bb 3d 55 bd
       -0.027915154 0.11571409 -0.22443001 -0.052060824
000240 a5 c6 8e bc 8e 09 8f bd 9e 0e 18 bd 5c 03 3a 3d
       -0.017428705 -0.06984244 -0.037123315 0.04541336
000250 ba 95 04 3c 29 fd ca bb 40 f4 c8 ba 58 12 a0 bc
       0.008092338 -0.00619473 -0.0015331581 -0.019539997
000260 56 84 a5 3d 4e 5a 9b 3d 65 2f 22 be 43 c8 0b 3d
       0.08081882 0.075855836 -0.15838392 0.03412653
000270 51 87 a4 3c 37 e4 82 bd 23 b7 d3 3d 37 2e 96 bd
       0.020084055 -0.06391185 0.10337665 -0.073330335
000280 53 4f df 3d 84 f3 06 bc 05 ec 5b 3d 88 8d ff 3b
       0.10903802 -0.00823677 0.053691883 0.0077988543
000290 24 15 1c 3d 97 7b 48 3d 7c b2 e3 bd 05 4d d9 bc
       0.0381061 0.04894599 -0.111180276 -0.026525984
0002a0 be 07 9e bd 81 af f0 3d d5 ea ca bc c9 9f 80 bb
       -0.077163205 0.11752225 -0.02477018 -0.003925298
0002b0 9c fd 6e ba f4 0e 87 3c 31 73 22 3d 4b 7f 79 bb
       -0.000911677 0.016486622 0.039660636 -0.0038070257
0002c0 41 e3 9c bd e7 0e a0 3d b2 41 a9 bd 08 02 93 bd
       -0.07660533 0.078153424 -0.082644835 -0.07178122
0002d0 68 62 0d bd 46 f9 2b 3d b9 3a 5a 3d f6 9f 3f 3d
       -0.034517676 0.041985773 0.05327866 0.04678341
0002e0 ea a3 4e bd 67 46 7f 3c dc 69 98 bd b7 51 8e bd
       -0.05044929 0.01558075 -0.07442066 -0.069491796
0002f0 19 1b f3 3d 81 71 3b 3d 1a 31 79 3c 44 8b 6f bd
       0.11870403 0.045762543 0.015209461 -0.058482423
000300 ae 92 02 be 37 a3 1c bc c9 e7 7e 3d e7 a2 ad 3d
       -0.12751266 -0.009560398 0.062232766 0.08478337
000310 aa 74 33 3c 8d a2 2a 3d 4f 6b aa 3d 74 70 30 3d
       0.010953108 0.041658927 0.08321249 0.043075994
000320 7c 74 27 3e 5c 20 09 bc a4 46 ff bc 7a d0 2e bd
       0.16353029 -0.0083695315 -0.031161614 -0.042679287
000330 49 a5 96 3d 42 7b 9a bb 25 40 f5 bc ee 26 d0 bd
       0.073557444 -0.0047144005 -0.029937813 -0.10163675
000340 d0 89 96 bb de c2 11 3e 38 d7 f4 3d 98 86 f2 3c
       -0.0045940652 0.14234492 0.11955112 0.029605195
000350 5e 4b ca 3c e9 2b e2 bb 1f 63 c5 3c f2 54 e4 bc
       0.024694141 -0.006902207 0.024095116 -0.027872536
000360 d5 81 22 3e 48 ec d4 3d e0 24 3e 3e 08 20 2e 3c
       0.1586984 0.103966296 0.18568754 0.010627754
000370 ec db b8 bd b0 cb af 3b 8e 37 03 be 70 34 3f 3b
       -0.09026322 0.0053648576 -0.12814161 0.0029175542
000380 0e 90 82 bc 74 2e a0 bc 64 8b dd bd 24 9d 93 3d
       -0.015937831 -0.0195534 -0.10817602 0.072077066
000390 2f 1b 06 3d da 81 57 3d 50 b0 8a bd 32 23 65 3d
       0.032740768 0.05261407 -0.0677191 0.055941768
0003a0 3c 81 b2 bd 8a a9 bf 3d 11 ab 13 3d d2 1a 57 bc
       -0.08716056 0.09358509 0.036051814 -0.013128953
0003b0 b2 5a 62 3d 9b 02 06 bb 72 b6 f0 bb 36 46 03 bc
       0.055262275 -0.002044833 -0.007345968 -0.008012345
0003c0 a4 90 97 ba 00 15 4c bd de 39 21 bd 4a b0 b2 bd
       -0.0011563492 -0.049824715 -0.039361827 -0.08725031
0003d0 60 31 8b bb 06 d2 b7 3b c4 6e bb bd 95 20 1f bd
       -0.0042478293 0.0056097535 -0.09151986 -0.038849432
0003e0 ed 5f 36 bd d2 c1 d2 bd 02 57 dc 3b 99 4c 8f 3b
       -0.044525076 -0.102908745 0.0067242393 0.004373145
0003f0 08 bd 39 3b 34 ce 31 bc 93 ba bb bd 25 d1 57 bd
       0.0028341431 -0.010852385 -0.091664456 -0.05268969

bias f4 [40]
000000 b7 cb 41 3d 75 bd 20 3e 40 50 7f bd 34 33 bb 3d
       0.04731342 0.15697272 -0.06233239 0.091406256
000010 86 c2 26 3d 58 2e 7c 3d 0c 05 63 3d 30 71 69 3d
       0.040712856 0.061567634 0.055424735 0.05699271
000020 5d 7c 7a bd bf b7 ba 3d 7a ea 04 3d 1f 83 7c bd
       -0.06115376 0.09117078 0.032450177 -0.061648484
000030 ce 6f be bd 64 f0 2a 3e 90 d5 b3 bc ba 9c 2a bd
       -0.09298669 0.16693264 -0.02195242 -0.041653372
000040 05 f1 61 3d 39 82 15 bd 76 0d 7c 3d 21 e6 14 bd
       0.055161495 -0.036501143 0.061536275 -0.03635228
000050 b7 ac c0 3d 61 00 80 bc a8 cf eb bd 1e a5 3b bd
       0.09407943 -0.01562518 -0.11514217 -0.045811765
000060 82 2f 0f 3d 89 55 20 3d 06 71 64 bc 16 de 83 3d
       0.034957416 0.039144073 -0.0139429625 0.06438844
000070 d1 76 1a bd c2 e2 01 3d e9 29 3a bc 7f 50 f8 bb
       -0.03771097 0.031710394 -0.011362531 -0.0075779553
000080 ba 74 06 bd 2b b5 de 3c 2d eb f3 3d 52 a8 24 3d
       -0.032826163 0.027185997 0.119100906 0.040199585
000090 f8 07 3b bd 71 2a 09 3d 3d 4e 71 bd f3 cf f4 bc
       -0.045661896 0.03348774 -0.058912504 -0.029884314

weight f4 [20, 40, 3]
000000 b6 82 8a 3d b0 db a6 bd 0d 9b c7 3c e1 64 77 3c
       0.067632124 -0.08147371 0.024365926 0.015099735
000010 b0 4b 95 bc 7a c0 29 bc b4 75 ff 3c 8b b4 c7 bc
       -0.018224567 -0.010360831 0.031184055 -0.024378082
000020 5b be ed bc f5 89 94 3d 60 dd 8e bc 92 d9 60 bc
       -0.029021433 0.07252876 -0.017439544 -0.013723748
000030 76 e4 7d 3d c7 98 e0 3d 02 77 23 bd 09 cf 4e 3d
       0.061985455 0.1096664 -0.039908417 0.050490413
000040 28 db 58 3d 24 97 a7 bd 9f f2 9f 3d 01 45 29 3d
       0.05294338 -0.08183125 0.07809948 0.041325573
000050 99 89 bc bc 45 eb 2d 3d e7 39 37 3d e0 b4 8e bd
       -0.02301483 0.0424607 0.044732954 -0.06968093
000060 70 6c 86 3c b2 c6 3f 3d 70 c6 2f bc 2d a3 8e bd
       0.016409129 0.04682035 -0.0107284635 -0.06964717
000070 42 c0 70 bd 90 81 a1 3c 96 03 ec 3b 07 12 2d bc
       -0.0587771 0.0197151 0.007202576 -0.01056338
000080 a9 9c a1 bd ed bc cc 3d c2 eb e5 bc 43 36 1e bd
       -0.07891209 0.09996972 -0.02806652 -0.038625967
000090 7b 84 29 bb 79 14 7e bc d3 a5 9d bd be f7 cb bc
       -0.0025866318 -0.015507811 -0.07697644 -0.024898406
0000a0 0a 0a 5f bd 46 83 a5 bb 6e 1b dc 3c be 35 96 3d
       -0.054452933 -0.0050510494 0.026868548 0.07334469
0000b0 5d d9 7b bd 5b e6 1c 3d 14 6b 19 bd 08 ff d9 bc
       -0.06148659 0.03830562 -0.037455633 -0.026610866
0000c0 2b a7 1d bd 3a 05 16 bd 22 4d 00 3d ea 40 06 bd
       -0.038489502 -0.03662608 0.03132356 -0.03277675
0000d0 98 da 26 bd b4 5c 06 be 70 bd 39 3d 2f 35 9a bd
       -0.04073581 -0.13121301 0.045346677 -0.07529675
0000e0 d7 b4 ad bd 3e cc d5 bb 19 3a c1 bd 8b 5e f2 bd
       -0.08481758 -0.0065245917 -0.094349094 -0.11834439
0000f0 e8 d6 ca 3d 77 5e 98 3c 87 01 67 bd 21 b2 92 bd
       0.09904271 0.018599732 -0.05639794 -0.07162882
000100 2e 45 78 bd 26 5c 4c 3d 15 bc 5e bd 00 0b a6 bd
       -0.06061285 0.049892567 -0.054378588 -0.08107567
000110 70 8c 9b 3c 97 f8 4c bc a9 dd 98 3c cf 67 a9 3c
       0.018987864 -0.01251044 0.018660383 0.020679383
000120 a6 fd 38 bc f1 d7 7b 3d 33 8f da 3c 73 46 08 3d
       -0.011290943 0.061485235 0.02667961 0.03327031
000130 a0 85 7a bd a0 87 17 3d a3 55 37 3c 2f 28 75 bd
       -0.06116259 0.036994576 0.011189851 -0.059852775
000140 d4 7d bf bb c0 e3 62 3d 14 8b 2d bd 14 bd 0c 3e
       -0.0058438573 0.05539298 -0.042368963 0.13744003
000150 08 4d 06 3d b6 6b 46 3d 0e 68 14 3d 66 93 09 3d
       0.032788306 0.048442565 0.036232047 0.033587836
000160 53 58 9b bd 2f bc e6 bd 66 ec b0 bd 8d ae ab 3b
       -0.07585206 -0.11266362 -0.086388394 0.005239314
000170 96 9c 72 3d 3a fa dd bc 5b 2a a5 bd 98 96 4e bd
       0.059231363 -0.027096856 -0.08064719 -0.050436586
000180 5d fb 26 39 8a ff a0 3d 31 c2 58 bb 99 26 72 bd
       0.00015924634 0.0786124 -0.0033074731 -0.05911884
000190 b3 0c bd 3d 2b ca 60 3b 40 c1 b1 3c 45 5d 86 bd
       0.09230938 0.003430019 0.021698594 -0.065607585
0001a0 89 c7 bc 3a dc 56 5a 3b 51 e5 53 bd 78 aa f7 3c
       0.0014402728 0.0033315932 -0.051732365 0.030232653
0001b0 0d d2 96 bb 41 6f 55 bd e1 e5 94 bd b3 08 ea 3c
       -0.0046026767 -0.052108053 -0.072704084 0.028568601
0001c0 fb af e8 3d 84 ce c2 bc 50 6b 76 3d 62 24 d0 3d
       0.113616906 -0.023780115 0.060160935 0.101631895
0001d0 63 bc ef bb 2a f3 03 3d 12 2e 48 3d 1c 2d 2c ba
       -0.0073161586 0.03221432 0.04887206 -0.0006568001
0001e0 24 40 97 3d 97 bb 88 bd e9 49 8e 3d 01 43 93 3d
       0.07385281 -0.06676405 0.06947691 0.07190514
0001f0 d3 df 3b bd d8 6d 8e 3d 6e 47 13 bd 7a 81 33 3c
       -0.045867752 0.06954545 -0.035956793 0.010956163
000200 55 6e 29 3d 78 44 33 bc 35 12 59 bc 73 b8 f3 bc
       0.041364986 -0.010941617 -0.01324897 -0.029751038
000210 7a 9d 91 bd dd 98 15 bd fb cf a7 bd 04 6c a3 3d
       -0.071101144 -0.036522735 -0.08193966 0.07979587
000220 c0 73 9c bc 68 9b c6 3a 60 7e 4c 3d 31 2b 80 3d
       -0.019098163 0.0015152516 0.049925208 0.06258238
000230 1f 22 df bc 8d 09 97 3d a5 c6 13 bc 6c b0 af bd
       -0.02723795 0.073748685 -0.0090195285 -0.08578572
000240 89 fc e4 3b e3 af ba bb 5a 53 72 bc 45 bf eb bd
       0.0069881123 -0.005697237 -0.01479038 -0.11511091
000250 ac 40 3b 3d 1e 59 4e 3d 9d a6 93 3d 9c f4 4b 3d
       0.045715973 0.050377958 0.07209513 0.049793825
000260 b1 c4 c4 bc aa c9 f9 3c 38 c6 f6 3a 44 73 86 3b
       -0.024019571 0.030491669 0.0018827384 0.004103096
000270 67 6e 06 bd ba ce 24 3d e7 61 a9 3b 95 09 c0 bd
       -0.03282013 0.040236212 0.0051691416 -0.093768276
000280 9f 51 57 bd 8f 33 60 bd 42 bc a3 bd 12 04 9a bd
       -0.052568074 -0.05473667 -0.07994892 -0.075203076
000290 3f 3c 54 3d 04 7c e1 bd d1 ae e7 bd 7e fc a6 bd
       0.051815268 -0.11009982 -0.113126405 -0.08153628
0002a0 c5 a1 db 3c 9f 87 15 bd d5 7a 7a bd ee a8 85 3d
       0.026810536 -0.03650629 -0.061152298 0.065263614
0002b0 73 be 93 3d 25 ce 88 bd 2e c3 06 3d 1c 48 17 bd
       0.0721406 -0.06679944 0.03290098 -0.036934003
0002c0 0f d9 b9 bd 24 0c 82 3c 31 8e 47 3d 67 3d 96 3d
       -0.09074604 0.01587493 0.04871959 0.0733593
0002d0 01 2b 33 bd 3d 91 11 bd f9 3b 29 3d c4 b2 fb 3b
       -0.043742184 -0.0355389 0.04131696 0.0076812226
0002e0 63 de bd b9 a1 55 03 bc 48 59 04 3c 3a 7c 21 bd
       -0.0003621458 -0.008016021 0.008077927 -0.039425112
0002f0 7d a3 d9 3c f2 30 eb 3c 51 b9 8c 3d 11 bb 8f 3d
       0.026567215 0.028709862 0.06871284 0.07018102
000300 4d f5 cc bc 98 50 7d 3c fc 28 ca bc 6d fa d9 3c
       -0.025019312 0.01546111 -0.024677746 0.02660867
000310 3b 14 81 bd f6 58 e8 3c 51 19 d5 bc 77 1c 1a 3d
       -0.06302687 0.028362732 -0.026013048 0.037624802
000320 ad 43 84 bd 74 55 72 3d 76 d9 b9 bd 31 34 3b 3d
       -0.06458221 0.059163526 -0.090746805 0.04570407
000330 74 6e 1d 3c ae c8 b5 bd ea cc 89 bd ad 4f a7 bb
       0.009608854 -0.08876167 -0.067285374 -0.0051059336
000340 d6 70 a5 bd 36 bd 40 3d 96 72 50 bc ae 7b 18 3d
       -0.08078162 0.047055446 -0.012722632 0.037227325
000350 68 41 3e 3d b5 ca 3d 3d 25 95 94 3c c8 46 9a 3d
       0.046449095 0.046335895 0.018137524 0.07533032
000360 b5 6b 7a bd d4 30 1b 3d 75 ec 62 3d f3 81 4a bd
       -0.061137874 0.037888363 0.055401284 -0.049440335
000370 eb 13 a7 bd 44 1e 96 bc 27 bd 1f bd 64 c2 c7 3c
       -0.08158096 -0.018324979 -0.03899875 0.024384685
000380 9e 47 75 3d 41 ff 07 bd 52 7b 0a 3d ee 20 62 bb
       0.059882753 -0.033202413 0.033809014 -0.003450449
000390 48 98 ac 3b a2 d9 72 bd 16 6a af 3c bd b5 d9 3c
       0.005267177 -0.059289582 0.02141289 0.026575917
0003a0 6f e2 9d bd c5 5c 76 3d 31 ef 36 bd f6 d1 51 bb
       -0.077092044 0.060147066 -0.044661704 -0.0032016016
0003b0 60 fa 39 3c 19 5b 2d 3d 47 02 ed bc b1 9b 11 bd
       0.011351198 0.042323206 -0.02893175 -0.03554887
0003c0 97 1f 2a bc 3e eb aa bd f8 2e 6f bd 75 12 02 3d
       -0.010383508 -0.0834565 -0.058394402 0.031755883
0003d0 fb c7 16 3d 28 86 37 3d 9f 5c a4 3d 2b ec ca 3c
       0.03681181 0.044805676 0.080254786 0.024770817
0003e0 f0 99 0e bd 69 21 5f 3d 9d 92 2d bc ee ba eb 3c
       -0.034814775 0.05447522 -0.010594037 0.028775658
0003f0 b9 fc 1b bd d7 53 ad bc 44 98 81 bd a7 40 34 3d
       -0.038082812 -0.021158142 -0.063278705 0.04400697
