models/model_rir.pt (torch, 448197 bytes, 25 tensors)

weight f4 [40, 201, 3]
0.06450224 -0.051219888 0.14202291 0.049950223 -0.12712656 -0.022592071 -0.04341397 -0.012790463
-0.10129286 0.012570985 0.22318318 0.107867055 -0.15023404 0.39629805 0.32512826 -0.0170006
0.2963409 0.08787068 -0.060742028 0.02709304 0.020304367 -0.07480712 0.19091581 0.012471803
0.019414242 0.114097424 0.07414697 0.025357604 0.063712426 0.0041770646 0.11030702 0.05800209
-0.019337282 0.011612702 -0.010580753 -0.04462411 -0.092996605 -0.044092596 -0.093750104 -0.05204502
-0.055834528 -0.11422181 -0.04380601 -0.011512761 -0.106256925 0.08513392 -0.05230642 -0.038752273
-0.007442268 -0.03519713 -0.04507624 -0.0042197136 -0.052148066 -0.048041034 0.03085614 -0.10343549
-0.048650496 -0.005571784 0.002938084 -0.057081625 0.06692138 0.010964868 -0.08133311 -0.025734767
-0.05214203 -0.02514361 -0.03630176 0.03280314 -0.10557119 -0.0019421879 -0.005668065 -0.062150624
0.012675506 0.0042522894 -0.1261099 0.0074876156 -0.06446874 0.0060306285 -0.009023222 0.0040685134
-0.04891265 0.019214697 -0.010982216 -0.04762241 0.07736666 -0.13652086 -0.10126317 0.06387704
-0.118535236 -0.0769768 0.014670474 -0.11717647 -0.019542271 0.030476056 0.013637014 -0.06882223
-0.044383425 -0.031279963 -0.08286854 0.05138133 -0.08531512 -0.0034079405 0.012175006 -0.046670955
-0.12715286 0.03934628 -0.08962121 0.040871244 -0.017169049 -0.08997206 -0.03456651 0.08793858
-0.09897439 -0.041381035 0.0058653858 -0.05689988 0.005928396 -0.029997978 -0.008993132 -0.099376485
-0.006760604 0.023782125 -0.03941034 -0.018911922 -0.052022036 -0.021275919 0.018247752 -0.04784761
0.04939359 -0.014807687 -0.02063069 -0.056927748 -0.057743162 0.058310322 0.007862181 -0.011137604
0.022460794 -0.013073235 -0.022891045 -0.06976902 -0.04523558 0.045012154 0.03803629 0.013686201
-0.06882945 0.043995887 -0.1100488 0.012033492 0.017186495 -0.08491687 0.05452867 -0.013897841
0.04756394 0.0045100553 0.033432804 -0.011083575 -0.10600614 0.026071565 -0.021250894 0.13833329
-0.05152144 -0.04592643 0.0075099682 0.014252787 0.021647584 -0.09963168 9.6855074e-05 -0.041518215
-0.08791281 0.029827807 -0.08896009 0.019862173 -0.05926797 0.06522551 0.063941635 -0.03269638
-0.11130625 -0.06140164 -0.110464334 -0.02542248 -0.05407438 0.0016870835 -0.027715785 0.014295508
-0.11468438 -0.04330332 -0.09898967 -0.03762884 -0.10720172 0.057401415 -0.023178305 -0.030281909
-0.05557782 -0.02610565 -0.019445036 -0.034754153 -0.0069286213 0.06338403 0.06965894 0.016429432
-0.09052143 -0.03697542 -0.0075105024 -0.03922394 -0.04353601 -0.015190942 -0.01184229 0.00083801633
-0.12973504 -0.045931194 -0.0513916 0.037809324 -0.093338564 -0.07485736 0.007918414 -0.044854566
-0.020390658 0.007908331 0.0434465 -0.038446873 -0.19529946 -0.07577753 0.016099887 0.08634528
0.0038432726 0.002359838 -0.039268233 -0.15214121 -0.03390574 0.021017797 -0.0091905715 -0.060569264
-0.14305475 -0.013507653 -0.024298599 0.00507872 -0.0071878005 -0.05890828 0.0031027703 -0.025978323
-0.029590499 -0.07879823 -0.049853053 -0.0218335 -0.11299395 -0.04482747 -0.012850891 -0.030685259
-0.08873182 0.01790989 -0.015470807 -0.043268114 -0.010415738 -0.033970047 0.006351932 -0.03383935
00000000: c019 843d f2cb 51bd 746e 113e 9b98 4c3d
00000010: 772d 02be 0213 b9bc d9d2 31bd 178f 51bc
00000020: a272 cfbd 88f6 4d3c 228a 643e 67e9 dc3d
00000030: f4d6 19be 94e7 ca3e 3677 a63e d844 8bbc
00000040: ffb9 973e 8bf5 b33d a2cc 78bd 39f2 dd3c
00000050: 5855 a63c 7a34 99bd 6f7f 433e 8956 4c3c
00000060: 9e0a 9f3c e9ab e93d 5eda 973d c0ba cf3c
00000070: a97b 823d c2df 883b a6e8 e13d 9993 6d3d
00000080: 3869 9ebc 3443 3e3c e55a 2dbc c5c7 36bd
00000090: 0175 bebd 709a 34bd 0e00 c0bd 292d 55bd
000000a0: bfb2 64bd 20ed e9bd ee6d 33bd 05a0 3cbc
000000b0: 3b9d d9bd b15a ae3d 423f 56bd b4ba 1ebd
000000c0: 45de f3bb de2a 10bd dda1 38bd 8645 8abb
000000d0: 3699 55bd adc6 44bd 04c6 fc3c fcd5 d3bd
000000e0: be45 47bd 8393 b6bb df8c 403b 6cce 69bd
000000f0: 140e 893d fda5 333c f991 a6bd b8d1 d2bc
00000100: e292 55bd f9f9 cdbc 27b1 14bd 965c 063d
00000110: b535 d8bd 0391 feba 2dbb b9bb a791 7ebd
00000120: edac 4f3c ca56 8b3b f422 01be ac5a f53b
00000130: 3008 84bd 949c c53b 23d6 13bc 2a51 853b
00000140: a258 48bd 2468 9d3c c1ee 33bc b70f 43bd
00000150: 6972 9e3d 20cc 0bbe 1163 cfbd f7d1 823d
00000160: 9ac2 f2bd 03a6 9dbd 6e5c 703c 38fa efbd
00000170: 1d17 a0bc eca8 f93c c86d 5f3c abf2 8cbd
00000180: 65cb 35bd 6b1f 00bd fbb6 a9bd 3b75 523d
00000190: b2b9 aebd c157 5fbb ad79 473c 0b2a 3fbd
000001a0: 5c34 02be 9129 213d 538b b7bd 9b68 273d
000001b0: 1ba6 8cbc 4543 b8bd 9d95 0dbd 2419 b43d
000001c0: 16b3 cabd 297f 29bd 6c32 c03b d90f 69bd
000001d0: fd42 c23b 52be f5bc ee57 13bc e685 cbbd
000001e0: 0f88 ddbb bbd2 c23c bd6c 21bd 2ded 9abc
000001f0: 0f15 55bd d64a aebc 4f7c 953c dbfb 43bd
00000200: ef50 4a3d f19b 72bc b101 a9bc 122d 69bd
00000210: 1884 6cbd ced6 6e3d 61d0 003c 7f7a 36bc
00000220: b3ff b73c 1f31 56bc 0086 bbbc 0fe3 8ebd
00000230: f248 39bd aa5e 383d f1cb 1b3d 163c 603c
00000240: 74f6 8cbd 0835 343d 4461 e1bd 2028 453c
00000250: b1ca 8c3c e5e8 adbd 7459 5f3d c5b3 63bc
00000260: 68d2 423d 16c9 933b d6f0 083d e297 35bc
00000270: bf19 d9bd 0994 d53c 5b16 aebc 3ea7 0d3e
00000280: 2508 53bd 5a1d 3cbd 2e16 f63b 8684 693c
00000290: 4656 b13c b20b ccbd ac1e cb38 010f 2abd
000002a0: a20b b4bd 7259 f43c b530 b6bd ffb5 a23c
000002b0: f9c2 72bd f494 853d d5f3 823d a4ec 05bd
000002c0: 88f4 e3bd 4980 7bbd 203b e2bd ce42 d0bc
000002d0: 197d 5dbd 2121 dd3a 370c e3bc b537 6a3c
000002e0: a5df eabd d25e 31bd 19bb cabd b320 1abd
000002f0: 938c dbbd bf1d 6b3d 6ee0 bdbc c411 f8bc
00000300: 91a5 63bd 84db d5bc 324b 9fbc 5f5a 0ebd
00000310: 7d09 e3bb 7ccf 813d 59a9 8e3d 0497 863c
00000320: 4d63 b9bd 8a73 17bd a91a f6bb 48a9 20bd
00000330: d152 32bd 6ee3 78bc 2a06 42bc 53ae 5b3a
00000340: 43d9 04be 5922 3cbd 0080 52bd f3dd 1a3d
00000350: 4a28 bfbd d14e 99bd 3cbc 013c 6cb9 37bd
00000360: 4f0a a7bc f291 013c f5f4 313d 787a 1dbd
00000370: 95fc 47be 4031 9bbd e9e3 833c cbd5 b03d
00000380: 6adf 7b3b 83a7 1a3b bad7 20bd e8ca 1bbe
00000390: bfe0 0abd 842d ac3c 0d94 16bc 7a17 78bd
000003a0: f27c 12be 344f 5dbc db0d c7bc 646b a63b
000003b0: a487 ebbb cf49 71bd d957 4b3b 7ed0 d4bc
000003c0: c667 f2bc f760 a1bd b732 4cbd 2bdc b2bc
000003d0: 5f69 e7bd 029d 37bd 8b8c 52bc a75f fbbc
000003e0: 07b9 b5bd c3b7 923c 4579 7dbc e839 31bd
000003f0: c6a6 2abc 2d24 0bbd de23 d03b 219b 0abd

bias f4 [40]
0.3726729 0.11456016 0.4536182 -0.009734445 -0.49468172 -0.2976618 0.050703615 0.14331947
-0.5988636 -0.15170732 0.15412062 -0.2441927 -0.01598971 -0.033596106 0.28510925 0.024114117
0.13714415 -0.3258605 -0.1242564 0.01492481 0.13756931 -0.06840084 0.28084168 -0.3788613
0.29862124 0.22480097 0.24811858 0.08825529 -0.47776717 -0.40218768 0.088551335 0.18082169
-0.005597879 -0.19681202 0.20105082 -0.09256393 -0.31959838 0.11996798 -0.28464347 0.16768464
00000000: fbce be3e 849e ea3d a540 e83e 397d 1fbc
00000010: ec46 fdbe 2167 98be 98ae 4f3d 57c2 123e
00000020: 204f 19bf 2a59 1bbe ccd1 1d3e a70d 7abe
00000030: dafc 82bc 129c 09bd d7f9 913e f88a c53c
00000040: 846f 0c3e 30d7 a6be 247a febd 3187 743c
00000050: f8de 0c3e bd15 8cbd 7bca 8f3e 1cfa c1be
00000060: e2e4 983e 3a32 663e cc12 7e3e 31bf b43d
00000070: e69d f4be 8beb cdbe 675a b53d 5229 393e
00000080: 6a6e b7bb 1789 49be 44e0 4d3e 2892 bdbd
00000090: 66a2 a3be c6b1 f53d cabc 91be 86b5 2b3e

weight f4 [40, 40, 3]
-0.15520464 0.14513312 -0.07617768 -0.02567352 -0.15150039 0.052477628 0.09171941 -0.16747947
-0.014379577 -0.25742927 -0.041997943 -0.004454853 0.16168101 -0.1185161 0.48092285 -0.18474749
0.010046319 -0.006583732 0.16457106 -0.07096032 -0.005694773 -0.30175155 -0.08429262 -0.24484514
0.018911975 0.1073517 0.09054496 0.185858 -0.14899033 -0.27225345 0.15521313 -0.115594916
-0.20020543 -0.11193389 0.077569306 0.027910756 0.13349426 -0.16199146 0.030257093 0.077108674
0.029448986 0.0044830176 -0.17356104 0.2577337 -0.12047905 -0.21905108 -0.18652563 0.06769223
-0.27428722 -0.17174786 0.14788239 0.040965408 0.40410417 -0.053895134 0.029287007 0.11272443
-0.062557094 -0.19805764 -0.32981876 0.47191188 0.1693496 0.048775952 -0.0056385114 -0.0055423887
-0.32837498 -0.13665536 0.17986664 -0.24864058 0.2839886 -0.002156821 0.08646885 0.19798282
-0.22114512 0.094464906 -0.035423152 -0.14054617 0.17577314 0.10016305 -0.048013687 -0.067700185
0.12573159 0.06756653 -0.019687431 0.20308016 -0.15925431 0.049094122 -0.12481155 0.19713257
-0.3782654 -0.5196833 -0.1514789 0.07515897 -0.08939424 0.016399028 0.1750697 -0.28642014
-0.14206055 -0.13013877 0.037898343 0.13558157 0.034573186 0.09135727 0.110032186 0.019342279
-0.12513408 -0.057826392 0.3392918 0.033763725 0.08381745 0.045896538 0.11933585 0.035479065
-0.27471665 0.21136148 0.07607663 -2.6918473 0.017052598 0.06256141 -0.025885528 0.055099905
0.016555581 0.0036865454 -0.06888445 0.18633725 0.03372974 -0.22847947 0.13389437 -0.03135352
-0.079227075 -0.19585942 0.032218345 -0.15696812 -0.16188857 0.15661892 0.43798175 0.075122744
-0.3498131 -0.05769432 -0.14122787 -0.06608676 0.04545017 -0.25166136 -1.3009202 0.28856263
0.07894233 0.08950083 -0.25660217 -0.01676141 0.012798922 -0.29221436 0.1402352 -0.012163218
0.19240561 -0.031182634 -0.07463961 -0.10485886 -0.18496688 0.025134267 0.07144082 0.2584726
-0.112966605 -0.049339473 0.19642897 0.08027755 -0.056279596 0.03367575 -0.05103128 -0.09620166
0.08233945 0.050165854 -0.07100079 -0.13305995 0.1389775 -0.2975337 -0.018240124 -0.0285704
-0.22961114 -0.06613986 0.060777836 0.56206435 0.057357304 0.10917274 0.060358696 0.00031361435
-0.1155116 0.12753493 0.035750635 0.051084086 -0.118166216 -0.3657624 0.13942242 -0.568671
0.002769731 0.028787084 0.045781855 0.06812679 -0.08665996 -0.060608383 -0.07940491 0.1649336
-0.03365716 -0.059059102 0.095940314 -0.011191037 0.4768866 -0.10430379 0.07833364 0.20245713
-0.90234625 -0.11742831 0.09744575 0.16520593 -0.53117085 -0.16582035 0.03430681 0.056795318
-0.13597763 -0.07720407 0.11270689 -0.19079895 -0.11110524 0.043358754 0.103196226 -0.3221427
0.13291477 0.024547366 0.25722975 -0.11624881 0.14333066 0.17342436 -0.2291046 0.09337467
0.09236319 -0.07545723 -0.039567526 -0.6008932 0.1589574 0.1025579 -0.05207826 -0.1423111
-0.005731876 -0.08642513 0.024157375 0.08372521 -0.048486803 0.022605706 0.044115975 -0.2124695
0.17808746 0.056771554 -0.024245681 -0.19367427 -0.0714057 -0.20034228 0.1638655 0.04750221
00000000: f7ed 1ebe c79d 143e 0b03 9cbd 4651 d2bc
00000010: eb22 1bbe c8f2 563d 63d7 bb3d bd7f 2bbe
00000020: 5198 6bbc c5cd 83be 0906 2cbd 04fa 91bb
00000030: b58f 253e 92b8 f2bd 853b f63e 722e 3dbe
00000040: 5199 243c 59bc d7bb 5185 283e a553 91bd
00000050: 389b babb 2e7f 9abe 9ca1 acbd afb8 7abe
00000060: 49ed 9a3c 35db db3d a36f b93d 8f51 3e3e
00000070: ec90 18be ce64 8bbe 31f0 1e3e 07bd ecbd
00000080: a702 4dbe 983d e5bd a8dc 9e3d 19a5 e43c
00000090: b8b2 083e 17e1 25be b9dd f73c 27eb 9d3d
000000a0: 003f f13c 47e6 923b fcb9 31be acf5 833e
000000b0: b8bd f6bd ed4e 60be 9300 3fbe 39a2 8a3d
000000c0: 606f 8cbe acde 2fbe 7b6e 173e 58cb 273d
000000d0: bee6 ce3e 25c1 5cbd 4eeb ef3c 11dc e63d
000000e0: ef1d 80bd 9fcf 4abe 01de a8be 6f9e f13e
000000f0: fb69 2d3e 4bc9 473d 43c3 b8bb ed9c b5bb
00000100: c420 a8be 62ef 0bbe f62e 383e a39b 7ebe
00000110: f466 913e 7459 0dbb 9516 b13d 02bc 4a3e
00000120: de73 62be d176 c13d de17 11bd 56eb 0fbe
00000130: e0fd 333e 4922 cd3d 00aa 44bd 65a6 8abd
00000140: c8bf 003e 5260 8a3d 8947 a1bc 3ff4 4f3e
00000150: 9013 23be eb16 493d 339d ffbd 1fdd 493e
00000160: 01ac c1be f709 05bf 491d 1bbe f2ec 993d
00000170: 5414 b7bd 4157 863c 7945 333e a9a5 92be
00000180: 5278 11be 1943 05be 4b3b 1b3d e5d5 0a3e
00000190: 9d9c 0d3d 8519 bb3d 8e58 e13d b373 9e3c
000001a0: 2623 00be 5edb 6cbd a8b7 ad3e d54b 0a3d
000001b0: 7ca8 ab3d 02fe 3b3d 5b66 f43d 7f52 113d
000001c0: a9a7 8cbe 256f 583e 10ce 9b3d 3a47 2cc0
000001d0: e4b1 8b3c 3220 803d e30d d4bc 70b0 613d
000001e0: 929f 873c f899 713b 4a13 8dbd 31cf 3e3e
000001f0: 3228 0a3d 86f6 69be 9b1b 093e 8c6c 00bd
00000200: ce41 a2bd 5f8f 48be 62f7 033d 40bc 20be
00000210: 1ec6 25be b660 203e 253f e03e f4d9 993d
00000220: b41a b3be e150 6cbd 0a9e 10be 7f58 87bd
00000230: f529 3a3d c2d9 80be 8e84 a6bf 7bbe 933e
00000240: 84ac a13d 364c b73d 5c61 83be 394f 89bc
00000250: 92b2 513c 1f9d 95be d199 0f3e 3c48 47bc
00000260: fa05 453e b972 ffbc a7dc 98bd 3ec0 d6bd
00000270: f567 3dbe 61e6 cd3c 914f 923d 8556 843e
00000280: 095b e7bd 3018 4abd ad24 493e 8e68 a43d
00000290: 6f85 66bd 95ef 093d 2d06 51bd 6005 c5bd
000002a0: 96a1 a83d b67a 4d3d dd68 91bd de40 08be
000002b0: 1e50 0e3e 5656 98be 506c 95bc 790c eabc
000002c0: 2f1f 6bbe 5674 87bd 2ef2 783d 73e3 0f3f
000002d0: 7eef 6a3d f595 df3d ae3a 773d 9b6c a439
000002e0: 5991 ecbd 8498 023e 426f 123d 8c3d 513d
000002f0: 2101 f2bd 3645 bbbe c0c4 0e3e 6c94 11bf
00000300: 6084 353b e4d2 eb3c c185 3b3d 0f86 8b3d
00000310: c77a b1bd 7f40 78bd 0b9f a2bd 5be4 283e
00000320: 17dc 09bd f5e7 71bd 5b7c c43d 9c5a 37bc
00000330: 7b2a f43e 3a9d d5bd 636d a03d ec50 4f3e
00000340: 2a00 67bf 417e f0bd a391 c73d be2b 293e
00000350: d0fa 07bf cfcc 29be 4c85 0c3d 35a2 683d
00000360: b83d 0bbe 2b1d 9ebd dfd2 e63d cd60 43be
00000370: 258b e3bd f398 313d 8b58 d33d e3ef a4be
00000380: cf1a 083e 8f17 c93c 9eb3 833e db13 eebd
00000390: 46c5 123e 2896 313e 659a 6abe 383b bf3d
000003a0: ea28 bd3d 5289 9abd 8f11 22bd 23d4 19bf
000003b0: bbc5 223e e009 d23d 0350 55bd 00ba 11be
000003c0: 76d2 bbbb a9ff b0bd b0e5 c53c 1f78 ab3d
000003d0: 199a 46bd 9a2f b93c f4b2 343d 9b91 59be
000003e0: 8f5c 363e 4a89 683d e19e c6bc 8c52 46be
000003f0: 273d 92bd 8726 4dbe 5ccc 273e ad91 423d

bias f4 [40]
-0.1478727 0.06773374 0.1510849 -0.09554765 -0.11890896 -0.038195517 -0.055387408 -0.040946987
0.16291252 0.048079215 0.10189653 0.27402794 0.07361334 -0.15491915 0.30107322 0.15209736
0.048393063 0.2528184 -0.05887366 0.026985187 -0.016691163 -0.05870107 0.078622214 0.29036966
0.030289814 -0.010049641 0.10885799 -0.11827453 0.07644961 0.062372576 0.1935449 0.16578305
-0.02826274 0.13679947 0.017792216 -0.08578442 0.035728663 -0.06489861 0.1589623 0.14690198
00000000: f16b 17be fdb7 8a3d 00b6 1a3e 7cae c3bd
00000010: 8a86 f3bd e772 1cbd e8dd 62bd 07b8 27bd
00000020: 8ad2 263e b6ee 443d 21af d03d 644d 8c3e
00000030: 97c2 963d 20a3 1ebe 4526 9a3e 69bf 1b3e
00000040: ce37 463d 6a71 813e 8225 71bd 0a10 dd3c
00000050: e8bb 88bc 8870 70bd af04 a13d 55ab 943e
00000060: 5822 f83c 40a7 24bc f0f0 de3d eb39 f2bd
00000070: 9d91 9c3d 637a 7f3d a230 463e 08c3 293e
00000080: 4387 e7bc 2915 0c3e fbc0 913c beaf afbd
00000090: 3858 123d 90e9 84bd 03c7 223e 796d 163e

weight f4 [40, 40, 4]
0.021183105 0.031088006 0.0015136963 0.10757173 -0.13279673 0.032821115 -0.07333165 -0.06172446
0.12441853 -0.11411437 -0.13778229 -0.20943089 -0.031000383 -0.040332463 -0.15951495 -0.025405213
-0.105802916 -0.278935 -0.03277824 -0.05787346 0.058981273 0.032483153 -0.043753184 0.059422754
-0.029539792 -0.062060315 0.060760483 0.09109811 0.06739845 0.15670857 -0.1977093 0.05226261
0.014168955 -0.002922344 -0.09435126 0.11964436 0.093266256 -0.083543435 0.020394243 0.06062298
-0.11983086 -0.02643678 -0.04540092 -0.22142445 -0.0913857 0.12195117 -0.017961962 0.046246324
-0.08147919 0.06726561 0.022899816 0.03784088 -0.12384644 -0.28350508 0.04927352 -0.0051578414
-0.10415566 -0.044299524 -0.14370729 0.018867573 0.14502777 -0.36474103 -0.22811204 0.10298999
-0.03209131 0.04380868 -0.005453009 0.080016136 0.20012687 -0.018086411 -0.026356235 0.049689587
0.043220278 -0.025839038 0.039087772 -0.024739763 0.16561113 -0.39711577 -0.32162398 0.025142841
0.014139255 -0.014537072 -0.057002105 0.11832548 0.09782562 0.059835497 0.060693193 -0.16254751
0.10943233 -0.08129969 0.09358987 -0.025502648 -0.08790152 -0.02563483 0.015833464 0.06188568
-0.09129706 0.06705301 -0.039568085 -0.039485916 0.051714525 0.0033277136 -0.08782803 -0.35569036
-0.2061723 -0.03242535 -0.13497867 0.06902727 0.03319169 -0.084889516 0.07973542 0.06397417
-0.013061764 -0.02230815 0.009746405 -0.1042874 -0.17219643 -0.16986986 0.08791952 0.14207888
0.068603985 -0.0865683 -0.019495195 0.23388135 0.03589475 0.0689418 -0.04194071 -0.094192505
-0.007238841 0.10060123 0.008909308 -0.051168088 -0.18568741 0.11153015 -0.03631541 -0.16769901
-0.069119506 -0.26702702 0.0845314 -0.027217638 0.06077356 -0.23966728 0.16663224 -0.061530568
0.19147494 0.012261037 0.0627781 0.029938998 0.009430295 -0.0103338305 0.082574 -0.09303275
-0.40312403 0.24663238 -0.27318102 -0.2961479 -0.050719082 -0.08704917 -0.055361066 0.09241175
0.020331483 0.14988604 -0.04247365 -0.020157604 0.08233356 0.1294401 -0.04281123 0.0044504986
0.06542084 -0.016153479 0.01229102 0.0059979004 0.10301429 -0.045523286 -0.07194176 -0.041821476
0.115145996 -0.20860335 -0.014013874 0.116369 0.040232204 0.07904582 0.039300594 -0.08819657
0.062303625 0.12648393 -0.024204787 0.0359197 -0.004334852 -0.15415885 -0.05411647 0.12856074
0.039175257 -0.03987374 0.060897853 0.08324651 0.05691075 -0.016999707 0.04739291 -0.04784275
-0.055748876 0.019275203 0.04435335 -0.0028171255 0.055638816 0.0012274381 0.010823647 -0.0023708965
0.056829914 0.046687573 0.050127685 0.058034915 0.11918479 0.023075923 -0.1522787 0.0658455
0.050912704 -0.23962362 -0.045212276 0.03263412 0.07519863 0.013975197 0.024327347 0.05357885
-0.029934853 -0.112708636 0.0074336207 0.021537561 0.024158454 -0.11004214 -0.16731459 0.042428248
-0.0013955282 0.010560942 0.0236737 -0.08544206 0.00082132954 -0.33097917 0.06201836 -0.24147901
-0.025315568 0.09990536 0.04058979 0.080891944 -0.031541973 -0.060409416 -0.0890092 0.061709315
-0.0549572 -0.052948732 -0.085261054 0.052633323 0.023011602 -0.25452048 0.030750977 -0.06211968
00000000: 3188 ad3c 46ac fe3c 3867 c63a 914e dc3d
00000010: defb 07be 6f6f 063d e72e 96bd cad2 7cbd
00000020: 24cf fe3d cbb4 e9bd cd16 0dbe 0d75 56be
00000030: 84f4 fdbc a733 25bd e357 23be 981e d0bc
00000040: 33af d8bd 91d0 8ebe 7a42 06bd b90c 6dbd
00000050: 5996 713d 0e0d 053d 8a36 33bd 4665 733d
00000060: 6ffd f1bc f532 7ebd fcdf 783d a591 ba3d
00000070: 3308 8a3d 3678 203e 4f74 4abe 5211 563d
00000080: e824 683c cc84 3fbb 3c3b c1bd 1a08 f53d
00000090: 6102 bf3d d218 abbd d411 a73c cd4f 783d
000000a0: e269 f5bd f291 d8bc 51f6 39bd 17bd 62be
000000b0: 6d28 bbbd 89c1 f93d f724 93bc c96c 3d3d
000000c0: 90de a6bd 8dc2 893d 6598 bb3c 0aff 1a3d
000000d0: 34a3 fdbd 9427 91be 08d3 493d 1c03 a9bb
000000e0: 904f d5bd 6b73 35bd 0128 13be 2b90 9a3c
000000f0: 2982 143e 56bf babe 3496 69be 6aec d23d
00000100: 2d72 03bd bb70 333d 28af b2bb 80df a33d
00000110: 0fee 4c3e f429 94bc 08e9 d7bc 4f87 4b3d
00000120: bf07 313d 64ac d3bc 801a 203d 0bab cabc
00000130: f795 293e c252 cbbe e6ab a4be 5cf8 cd3c
00000140: 55a8 673c e62c 6ebc 0a7b 69bd a154 f23d
00000150: cc58 c83d 1116 753d 6d99 783d db72 26be
00000160: 0f1e e03d 7480 a6bd 0cac bf3d eeea d0bc
00000170: b605 b4bd 2300 d2bc 2eb5 813c d77b 7d3d
00000180: f4f9 babd 1753 893d 2512 22bd fcbb 21bd
00000190: 9cd2 533d c515 5a3b 2fdf b3bd 0c1d b6be
000001a0: d51e 53be 72d0 04bd d937 0abe 2b5e 8d3d
000001b0: 02f4 073d 8eda adbd 534c a33d e404 833d
000001c0: 0201 56bc 95bf b6bc 63af 1f3c a294 d5bd
000001d0: 4354 30be 5df2 2dbe 260f b43d 207d 113e
000001e0: 3f80 8c3d b94a b1bd 63b4 9fbc 987e 6f3e
000001f0: 6006 133d 5c31 8d3d 06ca 2bbd 00e8 c0bd
00000200: cd33 edbb 0508 ce3d 59f8 113c a195 51bd
00000210: d724 3ebe eb69 e43d 78bf 14bd 4ab9 2bbe
00000220: 878e 8dbd c4b7 88be cc1e ad3d 86f7 debc
00000230: b2ed 783d 576b 75be a4a1 2a3e 7a07 7cbd
00000240: 0212 443e 84e2 483c ce91 803d a142 f53c
00000250: 8681 1a3c 3a4f 29bc 8f1c a93d f487 bebd
00000260: 4666 cebe 338d 7c3e 62de 8bbe b3a0 97be
00000270: d0be 4fbd d646 b2bd 49c2 62bd 5f42 bd3d
00000280: 368e a63c ba7b 193e daf8 2dbd 8f21 a5bc
00000290: 7f9e a83d f28b 043e d45a 2fbd 7dd5 913b
000002a0: 5dfb 853d 4d54 84bc 4660 493c 098a c43b
000002b0: 28f9 d23d a076 3abd 3456 93bd ff4c 2bbd
000002c0: aad1 eb3d 1e9c 55be 739a 65bc df52 ee3d
000002d0: 86ca 243d c6e2 a13d a9f9 203d 67a0 b4bd
000002e0: 1632 7f3d 0185 013e 1e49 c6bc 8920 133d
000002f0: 600b 8ebb d1db 1dbe 3ba9 5dbd 6da5 033e
00000300: 3c76 203d a652 23bd 0770 793d 257d aa3d
00000310: 3f1b 693d f842 8bbc 111f 423d c2f6 43bd
00000320: ef58 64bd 08e7 9d3c dcab 353d 869f 38bb
00000330: 87e5 633d fde1 a03a aa55 313c 0b61 1bbb
00000340: 7cc6 683d 783b 3f3d b052 4d3d 05b6 6d3d
00000350: 2817 f43d b809 bd3c f3ee 1bbe 01da 863d
00000360: d789 503d e55f 75be 8230 39bd 5bab 053d
00000370: bd01 9a3d 3af8 643c 254a c73c 7f75 5b3d
00000380: f039 f5bc c9d3 e6bd bb95 f33b 8a6f b03c
00000390: f3e7 c53c c65d e1bd 8454 2bbe 3ec9 2d3d
000003a0: 28ea b6ba cd07 2d3c 59ef c13c 3ffc aebd
000003b0: 7e4e 573a 1a76 a9be f706 7e3d 4646 77be
000003c0: 9862 cfbc 2e9b cc3d 7b41 263d adaa a53d
000003d0: 2832 01bd dd6f 77bd 754a b6bd e8c2 7c3d
000003e0: cd1a 61bd c5e0 58bd 599d aebd 0a96 573d
000003f0: d482 bc3c 8250 82be 79e9 fb3c 3571 7ebd

bias f4 [40]
-0.052254442 0.12539537 0.0745046 -0.06513263 0.05999415 0.042368814 0.078318276 0.11530205
-0.0772313 -0.06844495 -0.025873648 -0.08224449 -0.048339088 0.14014353 -0.09323667 -0.041356042
0.007175806 0.07490668 -0.015772235 0.14937107 -0.10041519 0.23307887 -0.066587955 0.08739567
-0.052797385 -0.035843905 0.07629199 0.07646954 0.04781253 0.04638328 -0.06723926 -0.13854514
-0.010872056 0.043661326 0.32861495 0.09753112 -0.021862868 0.09700999 0.20824754 -0.052684147
00000000: c108 56bd a567 003e de95 983d 4264 85bd
00000010: 6dbc 753d ec8a 2d3d 5565 a03d 7b23 ec3d
00000020: 722b 9ebd de2c 8cbd f9f4 d3bc cd6f a8bd
00000030: 35ff 45bd c981 0f3e def2 bebd f464 29bd
00000040: 0623 eb3b ac68 993d c634 81bc bbf4 183e
00000050: 7ba6 cdbd 3aac 6e3e 445f 88bd 80fc b23d
00000060: 1242 58bd 0fd1 12bd fa3e 9c3d 109c 9c3d
00000070: 12d7 433d 65fc 3d3d bdb4 89bd c7de 0dbe
00000080: b520 32bc 38d6 323d 3840 a83e 65be c73d
00000090: c219 b3bc 2cad c63d d83e 553e 55cb 57bd

weight f4 [40, 40, 3]
-0.6511266 0.07236486 0.63104486 0.045338165 -0.0107458895 0.1688573 0.04201131 0.10802527
-0.07053459 -0.2867659 -0.199151 -0.10510748 0.11688747 -0.06274461 -0.2286396 -1.400569
-0.13991635 0.34111226 -0.15327294 0.4059314 -0.08400246 0.08705722 0.041298296 -0.23124295
-0.06500573 -0.09861424 -0.036435112 -0.015842201 0.046087097 -0.09758759 0.085556455 -0.12832497
0.29507118 -1.0241033 0.6312982 -0.30187178 -0.19053766 0.23331311 0.4730956 -0.114433
0.3471101 0.03717209 0.078101985 -0.8884035 0.37859356 -0.15946953 0.4977756 0.09474164
0.26288238 -0.251924 0.028178126 0.5265204 0.3896805 -0.10169493 0.21637781 -0.6303691
-0.43594137 -0.28716522 -0.16534494 -0.7886191 0.2374134 0.5293764 0.2919235 -0.2912903
0.0021921594 0.13392998 0.8174243 0.43914926 0.38918436 -0.08222633 -0.12125864 -0.07582112
0.03788483 -0.08615116 -0.024880793 -0.04241745 -0.036836833 -0.004728964 -0.1321811 0.03495379
-0.2682078 -0.08463312 0.50767094 -0.48787484 0.06100373 -0.2068989 -0.2703185 0.03570793
-0.063993834 -0.20686445 0.053460803 -0.08703025 0.036952566 0.3092813 0.24121459 -0.010981327
0.27622044 0.10143586 0.16364624 0.059772637 -0.005396234 0.070707396 0.30670652 -0.049255945
-0.19390987 -0.087608606 0.19914854 -0.21128815 -0.020610489 -0.06893753 -0.085512646 0.028842201
0.3095054 0.05548976 0.50362414 -0.2714818 0.62459606 0.22984347 0.32180214 -0.52117205
-0.071524754 -0.045514602 -0.08340037 0.08580886 -0.001644364 -0.066945486 -0.077675186 -0.11187678
-0.06987694 0.012439227 0.033084534 0.045201644 -0.053670548 -0.10350022 -0.08913924 0.012912426
-0.09181889 -0.023127727 -0.08535043 0.061079983 -0.0908975 -0.04889488 -0.010743586 -0.06856834
-0.09801866 -0.009944249 -0.093546025 0.011305175 0.06069844 -0.0009329366 -0.014146603 0.05796354
0.00091504154 -0.08245561 0.016310124 0.026083406 0.046507124 0.016040351 0.011977885 -0.02788319
0.08842274 -0.06833827 -0.006814434 -0.078551255 0.07140751 -0.10254827 0.034753248 -0.0934539
-0.0818992 -0.0104469005 0.057773195 0.059213895 -0.009368762 -0.04772341 -0.105171144 -0.10850947
-0.037371732 0.053831864 -0.0036617955 0.074280255 0.061343648 0.005962724 0.044120472 -0.093933746
-0.053729665 0.040937897 -0.048608605 -0.004664191 -0.07426012 -0.030627983 -0.11593958 -0.116964124
0.01918432 -0.01247252 -0.11288736 -0.09273275 -0.015465637 0.016670892 0.022425527 0.07406052
-0.029157091 -0.018041763 0.025485184 -0.01056427 -0.08268223 -0.09110902 0.07006884 -0.04567193
-0.07761357 -0.086516395 -0.06889122 -0.034668595 0.04496338 0.040099304 -0.023732007 0.060985345
-0.06861985 -0.07164243 0.023768146 -0.08481832 -0.11376925 -0.024239253 -0.011842704 0.014143168
-0.052997027 -0.041267365 -0.08901108 -0.09048512 0.052868027 -0.05190121 0.053083528 -0.0642509
0.06776794 0.04130302 -0.006130152 0.019509293 -0.013712882 -0.024738306 -0.09311085 0.07860301
0.50025576 -0.21940674 -0.32408768 -0.04481944 -0.018918158 0.14909643 0.08714521 -0.15296835
0.036250543 -0.12607525 0.2944679 0.33904582 -0.09506264 0.05756548 -0.019394891 -0.049289472
00000000: 3cb0 26bf 0734 943d 288c 213f 83b4 393d
00000010: 870f 30bc eee8 2c3e 0d14 2c3d 5a3c dd3d
00000020: 7074 90bd fbd2 92be 3dee 4bbe 9742 d7bd
00000030: b362 ef3d 3f80 80bd 8020 6abe d845 b3bf
00000040: 3b46 0fbe 44a6 ae3e 95f3 1cbe 3ed6 cf3e
00000050: 7b09 acbd 0e4b b23d 6728 293d f4ca 6cbe
00000060: b921 85bd 43f6 c9bd fc3c 15bd 81c7 81bc
00000070: d3c5 3c3d 01dc c7bd 3938 af3d 9f67 03be
00000080: 9213 973e d115 83bf c29c 213f f08e 9abe
00000090: 4e1c 43be a2e9 6e3e 9639 f23e d95b eabd
000000a0: 6ab8 b13e c341 183d eff3 9f3d 696e 63bf
000000b0: 04d7 c13e fb4b 23be 72dc fe3e e807 c23d
000000c0: 8598 863e 2ffc 80be d0d5 e63c 0aca 063f
000000d0: 3484 c73e 6e45 d0bd 2592 5d3e df5f 21bf
000000e0: b533 dfbe 5207 93be 2f50 29be f1e2 49bf
000000f0: 801c 733e 3685 073f ff76 953e 0124 95be
00000100: 55aa 0f3b f124 093e b842 513f 2cd8 e03e
00000110: 2c43 c73e 4766 a8bd 7356 f8bd 1a48 9bbd
00000120: 202d 1b3d 0570 b0bd ced2 cbbc ecbd 2dbd
00000130: 38e2 16bd 6df5 9abb 7b5a 07be b52b 0f3d
00000140: 8852 89be 2154 adbd b9f6 013f bbca f9be
00000150: 0cdf 793d 4edd 53be 3067 8abe 7a42 123d
00000160: 330f 83bd 46d4 53be b7f9 5a3d ea3c b2bd
00000170: 935b 173d 1e5a 9e3e f500 773e 06eb 33bc
00000180: c46c 8d3e 9bbd cf3d e192 273e 27d4 743d
00000190: e4d2 b0bb 0acf 903d a308 9d3e 9ac0 49bd
000001a0: 4f90 46be 246c b3bd 98ed 4b3e ec5b 58be
000001b0: 54d7 a8bc 1f2f 8dbd 4121 afbd 7b46 ec3c
000001c0: 7e77 9e3e 3b49 633d 83ed 003f aaff 8abe
000001d0: 87e5 1f3f 165c 6b3e 40c3 a43e 886b 05bf
000001e0: 927b 92bd 856d 3abd d0cd aabd 8ebc af3d
000001f0: b387 d7ba b71a 89bd 2b14 9fbd a71f e5bd
00000200: a41b 8fbd e6cd 4b3c a683 073d 5c25 393d
00000210: a6d5 5bbd ecf7 d3bd a28e b6bd a48e 533c
00000220: 8b0b bcbd 5c76 bdbc 35cc aebd 012f 7a3d
00000230: 7828 babd ff45 48bd de05 30bc 8f6d 8cbd
00000240: 02be c8bd 34ed 22bc 0f95 bfbd 5739 393c
00000250: ed9e 783d 5190 74ba 27c7 67bc 2d6b 6d3d
00000260: 66df 6f3a 7dde a8bd cf9c 853c deac d53c
00000270: 417e 3e3d 0e67 833c e43e 443c 4a6b e4bc
00000280: fb16 b53d eff4 8bbd 9e4b dfbb 7bdf a0bd
00000290: 1a3e 923d d404 d2bd 6c59 0e3d c264 bfbd
000002a0: c5ba a7bd 7a29 2bbc 96a3 6c3d 458a 723d
000002b0: 707f 19bc 9f79 43bd f863 d7bd 373a debd
000002c0: 1a13 19bd cd7e 5c3d bcfa 6fbb 3f20 983d
000002d0: 7a43 7b3d f462 c33b abb7 343d 5660 c0bd
000002e0: a313 5cbd 7fae 273d d119 47bd 12d6 98bb
000002f0: b115 98bd 89e7 fabc bb71 edbd e38a efbd
00000300: 6f28 9d3c 8a59 4cbc 7d31 e7bd abea bdbd
00000310: 9563 7dbc 6591 883c bdb5 b73c 0bad 973d
00000320: dada eebc 52cc 93bc 4ec6 d03c c315 2dbc
00000330: 4d55 a9bd 5e97 babd 4180 8f3d 7d12 3bbd
00000340: ddf3 9ebd 822f b1bd d716 8dbd a800 0ebd
00000350: 852b 383d 2b3f 243d a069 c2bc c5cb 793d
00000360: 9088 8cbd 44b9 92bd 6ab5 c23c 3ab5 adbd
00000370: daff e8bd 6691 c6bc e707 42bc bfb8 673c
00000380: 6913 59bd f807 29bd 714b b6bd 4350 b9bd
00000390: 258c 583d 5d96 54bd 1d6e 593d fa95 83bd
000003a0: ebc9 8a3d 5b2d 293d 71df c8bb f4d1 9f3c
000003b0: ffab 60bc fda7 cabc e7b0 bebd 9dfa a03d
000003c0: c310 003f 29ac 60be d2ee a5be 9794 37bd
000003d0: 41fa 9abc bcac 183e 3079 b23d bca3 1cbe
000003e0: 737b 143d df19 01be 7fc4 963e 6a97 ad3e
000003f0: 34b0 c2bd c8c9 6b3d 09e2 9ebc c2e3 49bd

bias f4 [40]
0.053107403 -0.033753496 -0.15238598 -0.05367955 -0.06557253 0.010049822 -0.042225182 -0.14161189
0.17721201 -0.12877166 -0.1326238 0.15543935 0.07299524 -0.052314915 -0.10421466 0.173585
-0.018011305 -0.14134252 -0.124210894 0.09767933 0.35534257 0.13690257 0.09333881 0.011592309
0.17267995 0.12613404 0.047718525 -0.050977036 0.097555876 0.08304756 -0.25225618 -0.20414141
0.036367375 0.043358207 0.0109915985 0.038808428 -0.12545031 0.17361706 0.23333092 0.099018164
00000000: 2687 593d 1b41 0abd 120b 1cbe 16df 5bbd
00000010: e44a 86bd 02a8 243c 50f4 2cbd b502 11be
00000020: 1177 353e b8dc 03be 89ce 07be 7e2b 1f3e
00000030: 877e 953d 2a48 56bd 7f6e d5bd 44c0 313e
00000040: 728c 93bc 18bc 10be 4862 febd 1a0c c83d
00000050: 76ef b53e 3030 0c3e 6b28 bf3d abed 3d3c
00000060: 03d3 303e 4829 013e 8074 433d 4ccd 50bd
00000070: 60cb c73d d714 aa3d b927 81be 720a 51be
00000080: f5f5 143d 6098 313d 1b16 343c 96f5 1e3d
00000090: 0c76 00be acc8 313e 4dee 6e3e 09ca ca3d

weight f4 [40, 40, 3]
-0.302167 0.20623817 -0.34517106 0.001223831 -0.018599305 -0.047756847 0.09291125 0.18739635
-0.03067247 0.0060044057 0.13096578 0.08394581 0.08390977 -0.053119093 -0.044190098 -0.40794984
0.16485402 0.26873323 -0.06904256 -0.13021605 0.7382635 0.022808667 -0.20409265 0.051514573
-0.0036501163 -0.08577753 -0.11588695 -0.22871906 0.11523076 -0.03467701 0.102105595 0.09794578
0.104355045 -0.066809565 -0.24674623 -0.19060452 0.05368969 -0.11770223 0.10942481 0.019714832
-0.19308403 -0.2016965 0.2938978 -0.050020136 -0.5234137 -0.1333242 -0.14578764 -0.20107652
0.042629935 -0.17935379 0.48169884 0.08988852 -0.09620658 -0.22030878 0.004134554 -0.14242801
-0.10982707 0.056404382 -0.3109379 -0.19173558 -0.05093349 -0.2464443 -0.20657207 0.07901178
-0.011654692 0.009798553 -0.17387354 -0.1754384 -0.20503718 0.06731058 -0.08086634 -0.009061236
-0.12517637 -0.0013719051 0.10054725 0.15532298 0.065015264 0.18431616 -0.10788703 -0.11377148
-0.0800975 -0.06694831 0.031982064 -0.112200886 0.06377777 0.17257492 0.039996278 0.032087434
-0.046625096 0.12985767 -0.018006144 -0.4008132 0.052700154 0.059191618 -0.16962016 -0.05784635
0.22235163 0.25702158 0.0826564 0.05347847 -0.022610636 -0.046616394 -0.06382875 -0.16343904
-0.27986804 0.07482647 0.00023910386 0.0019727831 -0.029250018 -0.08192841 0.16799612 -0.115688086
0.15784162 0.04454203 -0.03959308 0.13368902 0.093801655 -0.04962253 -0.39393786 0.28538138
-0.08746592 -0.0051257014 0.06302063 0.026597241 -0.009462806 -0.057842005 0.027534967 -0.08605343
0.043827306 -0.019018231 -0.058380138 0.045343947 -0.04085656 -0.044907276 -0.08554114 -0.10396906
-0.08531767 0.06709452 -0.029777365 0.013707524 0.058096536 -0.05952465 0.0072169993 -0.117493354
0.04364333 -0.049796335 0.008268205 -0.053450126 0.0012363577 -0.08630593 -0.064847745 -0.011812175
0.026737483 -0.040785886 -0.10306436 0.059959687 0.05028121 -0.0952697 0.06759156 -0.023176853
-0.016127266 -0.074851304 -0.05140675 0.048924986 -0.034113772 -0.03388381 -0.080505796 0.05112335
0.043893658 -0.035342243 0.05535626 -0.063741855 0.008865765 -0.0054609748 -0.060721867 -0.036569644
-0.0587859 -0.07084268 0.06644162 0.0004725598 -0.062097684 0.027048709 -0.048465163 -0.094918184
0.054413095 0.05175776 0.035668697 0.06212804 0.004861818 -0.094165266 -0.06911868 -0.100584954
-0.078904785 -0.09973644 0.052217677 -0.012711234 0.010806097 0.053139925 0.007911942 -0.070124425
-0.08913953 0.024830034 -0.02570155 0.04149007 -0.024294436 0.03603116 -0.10555572 -0.021857867
-0.04236346 0.036628567 -0.02673899 0.0052689817 -0.050620716 0.03956923 0.0019671703 -0.08891323
0.042375542 -0.05175271 0.04343221 -0.049616512 -0.058516555 -0.11515175 0.011018995 -0.0026390164
0.05608821 0.04527606 -0.052695986 -0.06406689 0.03661393 -0.081550606 0.051303525 0.030734323
-0.076274924 -0.061714772 -0.008736229 -0.038849793 0.035859276 0.034629848 -0.10874292 -0.0074807145
0.037952676 -0.010350732 -0.024220467 -0.073507726 -0.10989507 -0.07715838 0.086518206 -0.064315945
-0.059670314 -0.05488707 0.07861843 0.08176844 -0.136402 -0.11713107 -0.08572469 -0.06879665
00000000: a2b5 9abe 1930 533e 43ba b0be f468 a03a
00000010: 925d 98bc af9c 43bd 4148 be3d d4e4 3f3e
00000020: d544 fbbc 9bc0 c43b e51b 063e c8eb ab3d
00000030: e3d8 ab3d 6893 59bd ad00 35bd cdde d0be
00000040: 7ecf 283e 6797 893e 3066 8dbd 5b57 05be
00000050: d6fe 3c3f 3ed9 ba3c aafd 50be f200 533d
00000060: ca36 6fbb 21ac afbd 2356 edbd 5435 6abe
00000070: 1bfe eb3d 7b09 0ebd bd1c d13d cc97 c83d
00000080: 19b8 d53d 74d3 88bd 0bab 7cbe d52d 43be
00000090: b8e9 5b3d de0d f1bd 1d1a e03d 0081 a13c
000000a0: d2b7 45be 8789 4ebe c679 963e eae1 4cbd
000000b0: 71fe 05bf 2486 08be 5b49 15be 01e7 4dbe
000000c0: ba9c 2e3d 85a8 37be 3ba1 f63e 7917 b83d
000000d0: f507 c5bd a098 61be 277b 873b a6d8 11be
000000e0: 04ed e0bd 4808 673d 4133 9fbe 5556 44be
000000f0: a39f 50bd e55b 7cbe a187 53be eed0 a13d
00000100: 52f3 3ebc 1c8a 203c e80b 32be 20a6 33be
00000110: 44f5 51be 21da 893d 409d a5bd 9475 14bc
00000120: 3c2e 00be 7fd1 b3ba b7eb cd3d fd0c 1f3e
00000130: b926 853d 60bd 3c3e e0f3 dcbd 0601 e9bd
00000140: 280a a4bd 321c 89bd a0ff 023d 94c9 e5bd
00000150: eb9d 823d 7bb7 303e 23d3 233d 1d6e 033d
00000160: f5f9 3ebd 69f9 043e 9f81 93bc 6337 cdbe
00000170: 1edc 573d e972 723d e8b0 2dbe 4bf0 6cbd
00000180: 25b0 633e 5598 833e c247 a93d 3d0c 5b3d
00000190: f139 b9bc d5f0 3ebd a6b8 82bd 905c 27be
000001a0: dd4a 8fbe 9f3e 993d f4b7 7a39 cf49 013b
000001b0: bc9d efbc 15ca a7bd 2d07 2c3e e0ed ecbd
000001c0: 3ca1 213e b471 363d 5a2c 22bd c6e5 083e
000001d0: 151b c03d fe40 4bbd 39b2 c9be 821d 923e
000001e0: 5521 b3bd 80f5 a7bb f610 813d 75e2 d93c
000001f0: e309 1bbc bdeb 6cbd 0391 e13c c83c b0bd
00000200: 4384 333d 1fcc 9bbc 0320 6fbd 93ba 393d
00000210: 3559 27bd b1f0 37bd 3130 afbd bbed d4bd
00000220: 08bb aebd da68 893d a9ef f3bc 8695 603c
00000230: a2f6 6d3d 1fd0 73bd 947c ec3b 5ba0 f0bd
00000240: 59c3 323d 3ef7 4bbd 5e77 073c 85ee 5abd
00000250: 480d a23a 2ac1 b0bd e5ce 84bd da87 41bc
00000260: 9108 db3c 1a0f 27bd 6813 d3bd 4a98 753d
00000270: acf3 4d3d c31c c3bd 726d 8a3d 62dd bdbc
00000280: 541d 84bc a44b 99bd e28f 52bd 9165 483d
00000290: e2ba 0bbd c0c9 0abd 39e0 a4bd b866 513d
000002a0: d6c9 333d 07c3 10bd 3fbd 623d 178b 82bd
000002b0: b741 113c faf1 b2bb 7eb7 78bd 0dca 15bd
000002c0: 7cc9 70bd f815 91bd 8b12 883d e7c1 f739
000002d0: 245a 7ebd 4195 dd3c 6883 46bd 7764 c2bd
000002e0: 44e0 5e3d f2ff 533d 5719 123d f979 7e3d
000002f0: e34f 9f3b b8d9 c0bd 188e 8dbd 7cff cdbd
00000300: d598 a1bd 9e42 ccbd 34e2 553d c842 50bc
00000310: 0e0c 313c 40a9 593d 17a1 013c 659d 8fbd
00000320: c98e b6bd 5b68 cb3c 0f8c d2bc 7ef1 293d
00000330: 2005 c7bc 6995 133d 992d d8bd 450f b3bc
00000340: 4f85 2dbd d607 163d ba0b dbbc 6ca7 ac3b
00000350: ab57 4fbd 5813 223d a4eb 003b 2418 b6bd
00000360: fa91 2d3d a6fa 53bd f9e5 313d af3a 4bbd
00000370: 0eaf 6fbd aed4 ebbd 0489 343c 59f3 2cbb
00000380: c0bc 653d 6473 393d bfd7 57bd 8035 83bd
00000390: 7df8 153d 0104 a7bd a523 523d 8cc6 fb3c
000003a0: 0736 9cbd a1c8 7cbd 6622 0fbc f620 1fbd
000003b0: 2de1 123d 07d8 0d3d 9cb4 debd c820 f5bb
000003c0: 4474 1b3d 1e96 29bc 006a c6bc 388b 96bd
000003d0: ab10 e1bd 3605 9ebd 7530 b13d 14b8 83bd
000003e0: dc68 74bd 44d1 60bd b302 a13d 3676 a73d
000003f0: f7ac 0bbe 6ae2 efbd 6d90 afbd 42e5 8cbd

bias f4 [40]
0.066487335 0.0034386956 0.035163976 -0.037110988 0.08821665 -0.028255928 0.026881935 -0.010970185
0.18184014 -0.064676985 -0.045693193 0.030354641 0.24481575 -0.041861977 -0.11042159 0.16745327
0.016554074 0.024310678 -0.11471512 0.013059616 -0.037948098 -0.10865443 0.10917223 -0.044485446
0.1097822 -0.105858095 0.0669683 0.057561472 0.09283012 0.06218967 0.044452764 -0.021615721
0.21854605 -0.039491616 0.0689493 -0.040473785 -0.08679075 0.07779252 -0.06720857 -0.035219606
00000000: 832a 883d bd5b 613b 1a08 103d b101 18bd
00000010: eeaa b43d fa78 e7bc 8137 dc3c 4abc 33bc
00000020: 4d34 3a3e 5e75 84bd c928 3bbd 4caa f83c
00000030: fbb0 7a3e 7777 2bbd b724 e2bd df78 2b3e
00000040: 699c 873c 3027 c73c c3ef eabd 00f8 553c
00000050: 776f 1bbd 3786 debd b195 df3d 5f36 36bd
00000060: 7dd5 e03d 21cc d8bd ad26 893d 94c5 6b3d
00000070: b81d be3d 98ba 7e3d 1a14 363d 7413 b1bc
00000080: 89ca 5f3e f6c1 21bd 4a35 8d3d d7c7 25bd
00000090: 59bf b1bd af51 9f3d a6a4 89bd 6f42 10bd

weight f4 [20, 40, 3]
-0.0011251239 0.109618604 0.43059924 -0.38882458 0.11170007 0.18118297 -0.38962632 -0.043757293
0.023196405 -0.026321895 -0.20170303 0.06271774 -0.11205177 -0.06978331 -0.15930116 -0.103841506
-0.036126204 -0.28690693 0.046608936 -0.08977366 -0.06980827 -0.14653507 0.14247286 0.051063284
0.051677264 0.22325476 0.18775062 0.05710029 -0.028592627 0.25267154 -0.23651253 0.14435117
-0.23130147 0.18288286 0.27159894 -0.055873077 -0.14298306 -0.019124964 -0.05942962 0.14751725
-0.018980378 0.031773068 -0.4098572 0.07694624 0.11118241 -0.16309278 0.17687465 0.18461657
0.16654572 -0.32486856 -0.16134764 -0.123176455 -0.052843876 -0.15486287 -0.2154564 0.59516746
0.027653284 -0.04980639 0.047659174 -0.14938588 0.27862358 -0.0016835695 -0.031102048 -0.112178095
0.03734515 0.04217861 -0.1740775 0.01396813 -0.16904394 -0.08584019 0.09033636 -0.1500104
0.011666209 0.09506289 0.20259532 -0.12205265 -0.1194341 0.24776305 -0.0092667565 -0.25155023
0.054639593 -0.10977001 0.31849933 -0.033671785 -0.09852213 0.020229317 0.031165475 0.03542272
-0.050739672 0.12452163 -0.055805422 -0.5582242 0.11321157 -0.13496982 -0.095044725 -0.10637972
-0.250196 0.112487674 0.064463206 -0.24685547 -0.10241775 -0.05569388 0.10294387 0.17918523
0.09753917 -0.012142685 0.17224169 -0.14140189 0.31279558 0.3032255 -0.08857026 -0.23732899
0.01755405 0.07069231 -0.12662275 0.13965583 0.18427141 -0.28721917 0.6274857 0.27387667
0.23173343 -0.65550023 -0.1904095 0.16259407 -0.07520677 -0.20103095 -0.048414942 -0.027349345
0.017871844 0.03326301 -0.043116335 -0.08426476 0.027334936 -0.06900866 -0.00017486325 -0.12908359
0.0966939 -0.013740316 0.14748302 -0.02763429 0.03170868 0.01152671 -0.039014813 0.07060388
0.12641096 -0.040162638 0.12273461 0.08302663 -0.1646175 0.03314758 -0.8377739 -0.093661636
0.11534572 -0.039559722 -0.021740483 -0.109998524 0.10071022 0.11488374 0.06496002 0.16390865
-0.060822908 0.07705788 0.06839788 0.1570968 -0.11441652 -0.09568214 -0.24265078 -0.079157986
-0.5123859 0.021205166 0.25461012 -0.15315324 0.18034583 -0.22096884 -0.06466028 -0.34763652
-0.09021918 0.25390425 0.09016819 -0.03832581 0.2555216 0.20401753 0.06486341 -0.037597302
-0.0026967195 0.02366332 0.09741217 -0.064662196 -0.07597162 0.018273057 -0.119872026 -0.033458572
-0.26753056 0.1233903 -0.2799244 -0.023591409 -0.15922801 -0.03368141 0.044034492 -0.20707062
0.069278955 0.06511789 -0.077591285 -0.115236 -0.0581722 0.03508045 -0.10000819 -0.12038104
0.10940821 -0.23342673 0.089871 0.10085195 0.10484467 -0.013563493 -0.25441736 0.003662662
0.022377685 0.07669233 0.087129496 0.017791696 -0.15878057 -0.17208743 0.13194391 -0.007760938
0.056054816 0.040750366 0.0001356247 -0.0076305624 -0.14811584 0.16515882 -0.14471099 -0.096065
-0.0016333228 -0.018049099 0.037880875 0.06772643 0.20395422 0.16425599 0.34427777 -0.07764336
0.17068326 -0.22698466 0.025354244 -0.07352375 0.009357729 0.032956336 -0.018595243 0.19414234
-0.031884618 -0.19364053 -0.4651637 0.2066941 -0.009523201 -0.08728399 -0.04823244 0.08942117
00000000: e578 93ba b87f e03d 8177 dc3e 0414 c7be
00000010: 02c3 e43d 0788 393e 1a7d c7be d93a 33bd
00000020: 6306 be3c 04a1 d7bc 3d8b 4ebe 2972 803d
00000030: 667b e5bd 8dea 8ebd d81f 23be dbaa d4bd
00000040: 12f9 13bd 77e5 92be 03e9 3e3d 41db b7bd
00000050: a3f7 8ebd 4a0d 16be 68e4 113e bc27 513d
00000060: 8aab 533d e59c 643e b341 403e fee1 693d
00000070: 163b eabc 2a5e 813e 5730 72be cbd0 133e
00000080: 4bda 6cbe a545 3b3e 040f 8b3e 2bdb 64bd
00000090: 276a 12be f5ab 9cbc 796c 73bd c30e 173e
000000a0: bd7c 9bbc 7a24 023d ced8 d1be fe95 9d3d
000000b0: 9ab3 e33d cb01 27be a11e 353e 200c 3d3e
000000c0: f68a 2a3e 2c55 a6be 5138 25be f043 fcbd
000000d0: d272 58bd 5f94 1ebe 9aa0 5cbe e55c 183f
000000e0: 2489 e23c c901 4cbd 4436 433d 9df8 18be
000000f0: c0a7 8e3e 38ab dcba b9c9 febc a1bd e5bd
00000100: 3af7 183d 7ac3 2c3d 5f41 32be 95da 643c
00000110: db19 2dbe fbcc afbd 4502 b93d 549c 19be
00000120: a123 3f3c 55b0 c23d 2675 4f3e bdf6 f9bd
00000130: de99 f4bd 99b5 7d3e 98d3 17bc 31cb 80be
00000140: c4cd 5f3d 19cf e0bd 5812 a33e 6deb 09bd
00000150: f8c5 c9bd f4b7 a53c bd4e ff3c 6a17 113d
00000160: 67d4 4fbd 3205 ff3d 3a94 64bd c8e7 0ebf
00000170: 78db e73d 8735 0abe cfa6 c2bd 9cdd d9bd
00000180: b119 80be f05f e63d 4905 843d aec7 7cbe
00000190: 66c0 d1bd 441f 64bd 3cd4 d23d 557c 373e
000001a0: 9ec2 c73d 1df2 46bc 2060 303e a8cb 10be
000001b0: be26 a03e 5f40 9b3e 5364 b5bd 5f06 73be
000001c0: 83cd 8f3c 21c7 903d 65a9 01be f001 0f3e
000001d0: a5b1 3c3e 640e 93be e7a2 203f 9039 8c3e
000001e0: 874b 6d3e ddce 27bf b5fa 42be 0f7f 263e
000001f0: 0206 9abd 0fdb 4dbe bf4e 46bd bc0b e0bc
00000200: f967 923c cb3e 083d c19a 30bd 0193 acbd
00000210: 84ed df3c 6a54 8dbd 7f5b 37b9 7d2e 04be
00000220: 7407 c63d 101f 61bc ca05 173e 4e61 e2bc
00000230: f6e0 013d 87da 3c3c ffcd 1fbd c498 903d
00000240: e071 013e 9481 24bd 495c fb3d de09 aa3d
00000250: 7d91 28be c2c5 073d 5a78 56bf acd1 bfbd
00000260: 603a ec3d 6009 22bd 1919 b2bc e846 e1bd
00000270: 2941 ce3d 2b48 eb3d c209 853d abd7 273e
00000280: 7121 79bd 86d0 9d3d 3014 8c3d fcdd 203e
00000290: 3553 eabd fff4 c3bd 7279 78be 951d a2bd
000002a0: b92b 03bf 75b6 ad3c 425c 823e 34d4 1cbe
000002b0: 94ac 383e a845 62be 9c6c 84bd 6afd b1be
000002c0: d5c4 b8bd bdff 813e 1aaa b83d 86fb 1cbd
000002d0: bad3 823e f9e9 503e 1cd7 843d a1ff 19bd
000002e0: 72bb 30bb 94d9 c13c 0880 c73d 9d6d 84bd
000002f0: 0297 9bbd 61b1 953c 777f f5bd db0b 09bd
00000300: c4f9 88be 0eb4 fc3d 4052 8fbe c542 c1bc
00000310: ab0c 23be 85f5 09bd 835d 343d 520a 54be
00000320: 20e2 8d3d 875c 853d 2ee8 9ebd da00 ecbd
00000330: f945 6ebd 85b0 0f3d 18d1 ccbd 568a f6bd
00000340: 6911 e03d 6b07 6fbe 490e b83d 788b ce3d
00000350: cdb8 d63d 6a39 5ebc fe42 82be 4609 703b
00000360: 6851 b73c de10 9d3d f370 b23d e4bf 913c
00000370: 6097 22be b037 30be 4e1c 073e 774f febb
00000380: bc99 653d dbe9 263d 7a36 0e39 cc09 fabb
00000390: aeab 17be 651f 293e 1e2f 14be babd c4bd
000003a0: 3815 d6ba b4db 93bc fa28 1b3d 28b4 8a3d
000003b0: 60d9 503e b932 283e 2d45 b03e 7b03 9fbd
000003c0: 98c7 2e3e ab6e 68be b4b3 cf3c 9f93 96bd
000003d0: 2951 193c 39fd 063d 0d55 98bc 40cd 463e
000003e0: 7299 02bd b449 46be f029 eebe 9ea7 533e
000003f0: 3307 1cbc f3c1 b2bd 618f 45bd 7222 b73d

weight f4 [40, 20, 1]
-0.32365596 -0.6399043 -0.04486138 -0.07669285 -0.2555187 -0.32586944 -0.075794026 0.27863565
-0.18365581 -0.06478601 -0.114870355 -0.14192507 -0.27530044 0.21553627 0.05311408 0.123898394
-0.30832866 0.04117258 -0.2691926 0.45921457 0.4630208 0.05730576 -0.51770484 0.0808842
-0.09314264 -0.062157366 -0.15558568 -0.22195867 -0.15300262 0.22706884 0.13560903 -0.2418514
-0.18450223 0.003455539 0.14802134 0.059559174 -0.15070394 0.16708662 0.131935 -0.042414762
0.47633386 0.0810538 -0.039355196 -0.058248177 0.16058956 -0.088147335 0.26109287 -0.1829119
-0.18824947 -0.06267332 -0.049585193 -0.15322644 -0.1818771 0.062442996 -0.15386261 -0.10811748
0.017081931 0.035822768 -0.19216645 0.111213826 -0.19467576 -0.3058688 0.21889672 -0.033113178
0.02142662 -0.0072734975 -0.016533548 -0.07345247 -0.14511095 -0.040778164 -0.11860352 0.26385078
-0.06822845 -0.053638995 0.008620242 0.11952141 0.11590057 0.18997543 -0.005279743 0.044469707
0.15047194 0.7315937 0.23783654 -0.11907733 0.033600774 -0.14124638 -0.2507926 0.024631137
0.103686936 -0.06568021 0.14015453 0.18992184 0.23740566 -0.06274028 -0.1671715 -0.07503447
0.1508879 -0.19693251 0.0074611926 -0.110148996 0.13959351 -0.16323262 -0.08685718 0.12164216
-0.20077063 -0.17076991 0.15990496 -0.13281491 0.19114341 -0.19489266 0.1777863 0.23841332
0.13012671 -0.19879948 -0.16589865 -0.13095513 -0.11526624 -0.060311355 -0.08444441 0.27750155
0.1271243 -0.07011712 -0.013384124 0.025706911 -0.0059640813 -0.073648155 0.009705331 0.09566999
0.006190011 0.045306753 0.095090166 -0.44563606 -0.036905494 0.10859447 0.10851083 -0.09122943
-0.057062082 0.09250903 0.12489698 -0.063600615 -0.36793667 0.2993783 0.3320909 0.34162202
0.19792469 -0.1324416 -0.1854014 0.12513295 -0.058666233 0.062056266 -0.20030794 -0.14612812
-0.05157972 0.112578556 0.13658616 0.21011251 0.035822622 -0.122200966 0.45643038 -0.25382614
0.10074644 -0.08710156 -0.13862848 0.10370886 -0.02824519 0.20934772 0.33341023 -0.032409523
0.063200116 -0.19384277 0.06669837 0.036937557 0.23984991 0.005349464 -0.16988248 -0.12684543
-0.13724561 -0.042553883 0.08577695 -0.07246648 0.21583918 0.32444343 -0.08164136 0.060705423
-0.07575003 -0.02066022 -0.07707729 0.088461146 -0.017483063 -0.06953574 -0.11952662 0.03848401
-0.01456853 0.11191883 -0.08055496 -0.09342317 0.029531414 -0.22406949 -0.26593438 0.10970381
-0.37041003 -0.24159017 0.093811736 0.007711108 -0.13834018 -0.4364903 0.05353184 -0.06941001
-0.056985997 0.19133948 0.018127935 -0.016391007 -0.21430227 -0.06800889 -0.008374531 -0.21959923
0.08988102 -0.115353815 0.5626506 -0.006119345 -0.1943913 0.099773444 0.24440533 -0.05180528
-0.091734506 -0.11931325 0.20919164 0.17863141 0.063319474 -0.0843277 0.19558798 0.1962034
-0.011751365 0.24906841 0.0860344 -0.09276826 -0.12710257 -0.2561602 0.17213595 -0.11116759
0.32238224 -0.45556515 -0.03663099 0.2523801 0.7644457 0.12899125 0.12323446 -0.10368708
-0.038481455 -0.08999975 -0.012973832 -0.025441522 -0.15153353 0.064149015 0.18924408 -0.052213892
00000000: 3cb6 a5be c5d0 23bf 91c0 37bd 2411 9dbd
00000010: 59d3 82be 5cd8 a6be e639 9bbd 55a9 8e3e
00000020: 4510 3cbe 87ae 84bd 2641 ebbd ce54 11be
00000030: 2ef4 8cbe 8ab5 5c3e 268e 593d 71be fd3d
00000040: 41dd 9dbe 94a4 283d 9dd3 89be 2c1e eb3e
00000050: 1011 ed3e 72b9 6a3d 4e88 04bf 9ea6 a53d
00000060: 92c1 bebd b998 7ebd da51 1fbe 2249 63be
00000070: b8ac 1cbe bc84 683e 18dd 0a3e e5a7 77be
00000080: 27ee 3cbe 5376 623b e892 173e 52f4 733d
00000090: 2252 1abe c118 2b3e f819 073e 1abb 2dbd
000000a0: 08e2 f33e 89ff a53d ea32 21bd a495 6ebd
000000b0: 9771 243e 9786 b4bd f7ad 853e 424d 3bbe
000000c0: 78c4 40be df5a 80bd d819 4bbd 64e7 1cbe
000000d0: fe3d 3abe 3ac4 7f3d 298e 1dbe b36c ddbd
000000e0: 68ef 8b3c e5ba 123d 48c7 44be 13c4 e33d
000000f0: 1559 47be d69a 9cbe 7626 603e afa1 07bd
00000100: e186 af3c 8556 eebb 5d71 87bc 406e 96bd
00000110: f797 14be 0107 27bd 67e6 f2bd 7317 873e
00000120: 5cbb 8bbd 90b4 5bbd ea3b 0d3c a4c7 f43d
00000130: 475d ed3d eb88 423e b201 adbb de25 363d
00000140: 5115 1a3e ba49 3b3f 6c8b 733e d1de f3bd
00000150: f7a0 093d e4a2 10be e367 80be 3dc7 c93c
00000160: d159 d43d 5983 86bd ab84 0f3e df7a 423e
00000170: 781a 733e fa7d 80bd 012f 2bbe acab 99bd
00000180: 5c82 1a3e ada8 49be 057d f43b cc95 e1bd
00000190: 9af1 0e3e 7426 27be 2de2 b1bd 861f f93d
000001a0: d196 4dbe 4fde 2ebe 20be 233e a200 08be
000001b0: 19bb 433e f191 47be 9d0d 363e 9f22 743e
000001c0: f03f 053e 1792 4bbe 56e1 29be 1a19 06be
000001d0: b510 ecbd 0a09 77bd 31f1 acbd af14 8e3e
000001e0: df2c 023e 9199 8fbd 1649 5bbc 4d97 d23c
000001f0: 576e c3bb d8d4 96bd 1c03 1f3c a1ee c33d
00000200: 93d5 ca3b 9393 393d a2be c23d 692a e4be
00000210: 372a 17bd c766 de3d ed3a de3d 7fd6 babd
00000220: eeb9 69bd 6075 bd3d fdc9 ff3d 0a41 82bd
00000230: 3262 bcbe 1d48 993e d207 aa3e 15e9 ae3e
00000240: c5ac 4a3e c59e 07be ddd9 3dbe da22 003e
00000250: 014c 70bd b62e 7e3d 861d 4dbe 9ca2 15be
00000260: 4245 53bd 968f e63d 3edd 0b3e bc27 573e
00000270: beba 123d 8044 fabd 3eb1 e93e 80f5 81be
00000280: 2654 ce3d 4d62 b2bd a0f4 0dbe 5065 d43d
00000290: 7562 e7bc 405f 563e bfb4 aa3e d9bf 04bd
000002a0: 106f 813d b87e 46be 2899 883d d64b 173d
000002b0: 379b 753e 8e4a af3b acf5 2dbe c5e3 01be
000002c0: 1d8a 0cbe fb4c 2ebd d3ab af3d 4e69 94bd
000002d0: f204 5d3e 731d a63e 9633 a7bd 40a6 783d
000002e0: d522 9bbd 9f3f a9bc b3da 9dbd 1e2b b53d
000002f0: a438 8fbc c168 8ebd 5fca f4bd 69a1 1d3d
00000300: d8b0 6ebc b335 e53d 00fa a4bd a654 bfbd
00000310: ddeb f13c 7972 65be 8d28 88be 64ac e03d
00000320: 62a6 bdbe 6a63 77be 5e20 c03d 76ad fc3b
00000330: 0ca9 0dbe a87b dfbe 3444 5b3d d626 8ebd
00000340: 266a 69bd 7fee 433e 0981 943c 6f46 86bc
00000350: 0e72 5bbe 3f48 8bbd 5435 09bc 9fde 60be
00000360: 8a13 b83d 9f3e ecbd df09 103f c984 c8bb
00000370: 830e 47be 0556 cc3d 6445 7a3e c631 54bd
00000380: 4ddf bbbd 815a f4bd 5536 563e 27eb 363e
00000390: a4ad 813d 00b4 acbd 3748 483e 8be9 483e
000003a0: cc88 40bc ca0b 7f3e ce32 b03d 49fd bdbd
000003b0: 2d27 02be 6e27 83be 6844 303e d5ab e3bd
000003c0: 490f a53e d63f e9be 610a 16bd f737 813e
000003d0: b7b2 433f 4816 043e 5962 fc3d e459 d4bd
000003e0: bb9e 1dbd ca51 b8bd 3290 54bc bd6a d0bc
000003f0: 9b2b 1bbe 8f60 833d 33c9 413e 3cde 55bd
