models/model_speech.pt (torch, 448924 bytes, 25 tensors)

weight f4 [40, 201, 3]
0	0x3a1e0c09	0.0006029015
1	0xbda5d6fa	-0.08097644
2	0xbd7238a7	-0.05913606
3	0x3da94810	0.08265698
4	0x3d58ad4b	0.05289964
5	0x3d6be0fe	0.057587616
6	0x3d131b05	0.03591444
7	0xbcc878ed	-0.024471724
8	0xbd009c49	-0.031399045
9	0xbdd27145	-0.10275511
10	0x3dac43e7	0.08411389
11	0x3d599024	0.05311598
12	0x3d93470d	0.07191286
13	0xbda13201	-0.078708656
14	0xbbe10be2	-0.0068678716
15	0xbda3918a	-0.07986744
16	0x3d8598e3	0.065233015
17	0x3b2ff94c	0.0026851473
18	0x3da97825	0.08274869
19	0xbdc1227f	-0.09430408
20	0xbd12feac	-0.035887405
21	0xbd0002de	-0.031252734
22	0xbc316f00	-0.010829687
23	0xbd2604e8	-0.040532023
24	0xbd1866e0	-0.037207484
25	0xbda5c82b	-0.0809482
26	0xbdd195d5	-0.10233656
27	0x3c685419	0.014180207
28	0xbd2dbae9	-0.04241458
29	0xbce264d3	-0.027635967
30	0x3b1d49cc	0.0024000285
31	0x3c743bbc	0.01490682
32	0xbcf49a83	-0.029858833
33	0x3d6f91b7	0.058488574
34	0x3d2f6484	0.04282047
35	0xbda5bb37	-0.08092349
36	0xbcb8d9f8	-0.022564873
37	0x3d51878c	0.05115466
38	0xbd59ffad	-0.053222347
39	0xbac5d987	-0.0015094735
40	0xbc076f96	-0.00826635
41	0x3c345f93	0.011009115
42	0xbd8f67e9	-0.07002241
43	0x3daa3d84	0.083125144
44	0x3da89ccd	0.082330324
45	0xbdc2cfc1	-0.09512282
46	0x3caff0ed	0.021477187
47	0x3c06fbad	0.008238715
48	0x3d9a5828	0.07536346
49	0xbd27f6ff	-0.04100704
50	0xbd89bf3b	-0.067259274
51	0xbdb02d2a	-0.08602364
52	0xbd29e9ab	-0.04148261
53	0x3d453924	0.048150197
54	0xbda96086	-0.082703635
55	0xbd0d79c3	-0.03453995
56	0xbb0c71fe	-0.002143025
57	0xbda255a4	-0.07926491
58	0x3d511314	0.051043585
59	0x3d9c9cd3	0.07647099
60	0xbcb89779	-0.022533165
61	0xbbebe6e6	-0.007199156
62	0xbd5fa4cd	-0.054600526
63	0xbd335192	-0.043778963
64	0x3d769acc	0.06020622
65	0x3d04ba63	0.032404315
66	0x3d739412	0.059467383
67	0xbd876df8	-0.06612772
68	0x3c089a54	0.008337576
69	0x3d18e5c5	0.0373285
70	0xbd46faff	-0.048579212
71	0xbd7829c0	-0.06058669
72	0x3d18f7a8	0.03734556
73	0x3d0a8fee	0.03382867
74	0x3cfec915	0.031101743
75	0xbcf3e978	-0.029774413
76	0xbd27793a	-0.040887095
77	0xbd407f79	-0.046996567
78	0xbd6d039f	-0.05786478
79	0x3dc37da2	0.09545447
80	0x3d9e1bb4	0.07720128
81	0x3da6805c	0.08129951
82	0xbcacfc9f	-0.021116553
83	0xbd280bbb	-0.041026812
84	0xbda2afa8	-0.0794366
85	0x3d52082b	0.05127732
86	0x3d47d371	0.04878563
87	0xbc4222df	-0.011849134
88	0xb78694f9	-1.6043416e-05
89	0xbcee3306	-0.029077064
90	0x3d8ff21c	0.070286006
91	0x3d53f91e	0.05175125
92	0xbda3f100	-0.080049515
93	0x3d7a2c49	0.06107739
94	0xbcca637f	-0.024705647
95	0xbc3a82cb	-0.011383723
96	0xbc92149e	-0.017832097
97	0xbd7faff8	-0.062423676
98	0x3d7676a8	0.060171753
99	0x3cabc5d7	0.02096836
100	0x3d714bb9	0.058910105
101	0x3d939c1f	0.07207512
102	0x3d1a40bc	0.03765939
103	0xbd8196f6	-0.06327622
104	0xbd4d1e5d	-0.050077785
105	0xbd3e9ff9	-0.04653928
106	0x3daca5ba	0.08430047
107	0x3d951ed8	0.072812736
108	0xbcd20432	-0.025636766
109	0x3b99bda5	0.004691797
110	0x3d44a5b0	0.048009574
111	0xbc66d843	-0.014089647
112	0x3cdcf566	0.026972484
113	0x3d412f15	0.04716404
114	0x3d539d31	0.05166358
115	0x3d79620a	0.060884513
116	0xbcd71b79	-0.026258217
117	0x3c9637a4	0.018337078
118	0x3c43c3e1	0.011948557
119	0x3d8b82a1	0.06812025
120	0x3cb2c801	0.021823885
121	0x3d7670d3	0.06016619
122	0xbca5147e	-0.020151373
123	0x3d42ce65	0.047560114
124	0xbca55d72	-0.02018616
125	0x3db22bcb	0.08699759
126	0x3c9eb838	0.019374952
127	0x3ce994d8	0.028513357
128	0x3c8a860e	0.016909625
129	0x3d86ae3c	0.06576201
130	0x3ca9d84d	0.020733023
131	0x3db85b44	0.090017825
132	0x3d1bdeef	0.038054403
133	0x3d46fd4b	0.048581403
134	0x3d0c8ecb	0.034315865
135	0x3da308f9	0.07960696
136	0x3d0ef4a4	0.034901276
137	0x3d2bed9b	0.041974645
138	0xbcd61891	-0.026134761
139	0xbc4df7f9	-0.012571328
140	0x3dbfe8ec	0.09370598
141	0x3b542c20	0.0032374933
142	0x3db9c089	0.09069926
143	0x3da15c43	0.07878926
144	0xbd3e8df8	-0.04652211
145	0xbd5a1329	-0.05324093
146	0xbd4fcdf3	-0.050733518
147	0x3d8ed2a6	0.06973772
148	0x3cfd20e3	0.03089947
149	0xbd068778	-0.032844037
150	0x3daa3ce7	0.083123975
151	0x3c58442a	0.013199845
152	0x3c3a53de	0.011372535
153	0xbd6cca73	-0.057810258
154	0xbd6a3c52	-0.057186432
155	0xbcb99147	-0.022652281
156	0xbd56ed6b	-0.052472513
157	0x3d368226	0.044557713
158	0xbc654348	-0.013993092
159	0x3d4c4009	0.049865756
160	0x3dd22129	0.10260231
161	0x3d8dac2b	0.06917604
162	0x3bfae81c	0.007657064
163	0xbd6fe7c4	-0.05857064
164	0x3d60072b	0.054694336
165	0x3cee52cc	0.029092215
166	0xbd7e268f	-0.06204849
167	0xbccfbfa3	-0.025359934
168	0xbbd01f30	-0.006351374
169	0x3d64a121	0.055817727
170	0x3da5c4c1	0.080941685
171	0xbb4faf7a	-0.0031690286
172	0xbacf2716	-0.0015804495
173	0x3dca3685	0.0987368
174	0x3dc7af55	0.09750239
175	0x3d7dcaa1	0.06196082
176	0xbd6d3043	-0.057907354
177	0xbd174fb5	-0.03694125
178	0xbc961dda	-0.018324781
179	0x3d68ea83	0.056864273
180	0xbdaa8f32	-0.083280936
181	0x3d8423cf	0.064521424
182	0x3d95927d	0.07303331
183	0xbd3b8902	-0.045784958
184	0x3d5f907f	0.05458116
185	0xbd8f6d05	-0.07003216
186	0x3d56f42b	0.05247895
187	0xbc97e8a4	-0.018543549
188	0x3cdf1c82	0.027235273
189	0x3db6c4e8	0.08924276
190	0xbcd95100	-0.026527882
191	0x3da04231	0.07825125
192	0xbd674efd	-0.056471813
193	0x3dccc512	0.09998526
194	0xbc54c801	-0.012987138
195	0x3bc8a9cb	0.0061237565
196	0x3da58453	0.080818795
197	0x3cae5994	0.021282949
198	0x3d74572f	0.059653457
199	0x3cabb967	0.02096243
200	0x3da85d8e	0.08220969
201	0x3d287ead	0.041136432
202	0xbcd5fe63	-0.026122278
203	0x3d246645	0.040136594
204	0x3cdff3c3	0.027337914
205	0x3d48b9c9	0.049005304
206	0xbd091131	-0.03346366
207	0x3d9101b4	0.07080403
208	0x3c935cb6	0.017988544
209	0x3da4e9d3	0.08052411
210	0xbcf4e3f1	-0.029893847
211	0x3ae28e6b	0.0017284876
212	0x3dbb7ea9	0.09155018
213	0x3c835596	0.016032021
214	0x3b21c97d	0.0024686747
215	0xbcfa3b3d	-0.030545825
216	0x3c4bea86	0.012446051
217	0x3dd02086	0.10162453
218	0x3cebd70e	0.02878907
219	0xbd6c3a7b	-0.05767296
220	0xbd1bcae2	-0.03803528
221	0x3cabe144	0.020981438
222	0x3c9c48d2	0.019077692
223	0x3d8fe54e	0.07026158
224	0xbd92ba27	-0.07164412
225	0x3dbb3c5f	0.09142374
226	0x3bd5023f	0.006500512
227	0x3da382e7	0.07983952
228	0xbd98b12b	-0.07455667
229	0x3d892854	0.06697145
230	0x3d9c7587	0.07639604
231	0x3ce1728f	0.027520446
232	0xbcbccf96	-0.023048203
233	0xbd9cd74a	-0.07658251
234	0xbd18dc7f	-0.037319656
235	0xbba41d56	-0.00500838
236	0xbba934a2	-0.005163745
237	0xbd9694be	-0.07352589
238	0x3d881841	0.06645251
239	0x3d964b25	0.073385514
240	0x3cea49ea	0.028599698
241	0x3d0d34d9	0.034474228
242	0x3c99558f	0.018717555
243	0xbd272da2	-0.040815003
244	0x3d893136	0.06698839
245	0xbd4306ad	-0.04761379
246	0xbd8f0bf6	-0.06984703
247	0xbd04e538	-0.032445163
248	0x3dae1463	0.08499982
249	0x3d6886f0	0.05676931
250	0x3d898fe6	0.067168996
251	0x3b979ac9	0.004626606
252	0xbc93bffc	-0.018035881
253	0xbd85904f	-0.06521665
254	0xbd9ab69f	-0.075543635
255	0x3cac045a	0.020998169

bias f4 [40]
0	0x3c990ba6	0.018682312
1	0xbd4161cc	-0.047212407
2	0xbd43057d	-0.047612656
3	0xbc81119d	-0.015755469
4	0x3c90f850	0.01769653
5	0x3c263f5c	0.010146942
6	0x3d5dc7c2	0.054145582
7	0x3db56e3d	0.08858917
8	0xbb8f3523	-0.004370348
9	0xbd57a8fa	-0.052651383
10	0xbd584407	-0.05279925
11	0xbb53b147	-0.003230171
12	0xbd2b49ee	-0.04181855
13	0x3db91d22	0.0903876
14	0x3caeee75	0.02135394
15	0xbc4f0cf2	-0.012637364
16	0x3d8639e1	0.06554008
17	0xbc9dcc30	-0.019262403
18	0xbc244d31	-0.0100281695
19	0xbc63dc4c	-0.013907503
20	0xbd272c6d	-0.040813852
21	0xbd2d3d7e	-0.04229497
22	0x3e2f65f3	0.17128734
23	0xbd115823	-0.035484444
24	0xbcf6b7f6	-0.030117016
25	0x3a0c17d7	0.00053441286
26	0x3c64c495	0.013962884
27	0xbd14c6b3	-0.036322307
28	0xbc7db027	-0.0154838925
29	0x3ba3abd5	0.004994849
30	0xbd2d6724	-0.04233469
31	0x3c9d2606	0.01918317
32	0x3d951c17	0.07280748
33	0x3b3002e8	0.00268572
34	0x3cd59c5b	0.026075533
35	0x3ce12909	0.027485387
36	0xbc77a63e	-0.015115319
37	0xbcc9c95f	-0.024632154
38	0x3ce9b3d2	0.028528128
39	0x3c931bec	0.01795765

weight f4 [40, 40, 3]
0	0xbe1fe41a	-0.15614358
1	0x3d88a2f5	0.066717066
2	0x3deba215	0.11505524
3	0xbcbd440f	-0.023103742
4	0xbe3c8451	-0.1840985
5	0x3e582431	0.21107556
6	0xbdba9f77	-0.09112447
7	0xbd22e4c0	-0.039768934
8	0x3e0f8302	0.1401482
9	0xbe587cce	-0.21141359
10	0xbdb86ff3	-0.090057276
11	0xbd2e1493	-0.04250009
12	0x3de6618f	0.112490766
13	0x3e087cf5	0.13328917
14	0x3e4bdd5c	0.1990866
15	0xbd015a58	-0.0315803
16	0xbc2f26bd	-0.010690388
17	0x3e10e906	0.14151391
18	0x3e382fba	0.17986956
19	0xbe54bab3	-0.20774345
20	0x3d27e4a8	0.040989548
21	0x3dece8be	0.115678295
22	0x3d82b0c3	0.06381371
23	0xbd41749f	-0.04723036
24	0x3dc776d0	0.097394586
25	0xbdbaed73	-0.09127321
26	0xbcf889f5	-0.03033922
27	0xbdb8086b	-0.089859806
28	0xbd9c8b5f	-0.076437704
29	0x3e21900c	0.15777606
30	0xbdd7ff3f	-0.10546731
31	0xbce8ea3f	-0.02843201
32	0x3dab517a	0.0836515
33	0x3d119574	0.03554292
34	0xbe328aef	-0.17435811
35	0xbbf5438d	-0.0074848593
36	0xbd3c76b3	-0.046011638
37	0x3e1056ad	0.14095564
38	0x3d80247b	0.06256958
39	0xbde073b1	-0.109595664
40	0x3c8d3c8a	0.017240781
41	0x3da199b4	0.07890645
42	0xbd15446a	-0.036442198
43	0x3e0c320d	0.13690968
44	0x3e1fc256	0.15601477
45	0x3e344a57	0.17606483
46	0x3ccfdb76	0.025373202
47	0x3e57ae9f	0.21062706
48	0xbd584044	-0.052795663
49	0xbe307815	-0.17233308
50	0xbbf0ff4f	-0.007354654
51	0x3e2a9bf0	0.16661048
52	0x3e25db1c	0.16196865
53	0x3d7c8d64	0.061658278
54	0x3e2b52ee	0.16730854
55	0xbd682bb6	-0.05668231
56	0x3cdaf099	0.026726054
57	0xbe35be35	-0.1774834
58	0x3deefa84	0.11668876
59	0x3dcdde12	0.10052122
60	0xbe4d89af	-0.20072053
61	0x3e0419d1	0.12900473
62	0x3e60a5fb	0.21938317
63	0xbd94d325	-0.07266835
64	0x3dbb322a	0.091404274
65	0x3e12f489	0.14351095
66	0x3e228aa5	0.15873201
67	0xbdc8b624	-0.098003656
68	0x3d30b99a	0.043145753
69	0x3d807242	0.06271793
70	0x3dbe09ff	0.0927925
71	0xbd91e535	-0.07123796
72	0x3da15f49	0.07879502
73	0xbe2437c7	-0.16036902
74	0xbe004373	-0.1252573
75	0x3e25d62d	0.16194983
76	0xbe3f278a	-0.18667427
77	0x3c182062	0.009285064
78	0x3df11bca	0.117728785
79	0xbdbf195a	-0.09331007
80	0xbda7ed99	-0.08199615
81	0xbdf86303	-0.1212826
82	0xbe42c3b8	-0.19019973
83	0xb9920522	-0.00027851114
84	0x3e43cfe3	0.19122271
85	0x3df5ebb5	0.12007848
86	0xbd277664	-0.04088439
87	0x3de83ee7	0.11340123
88	0xbe024087	-0.12719928
89	0xbdc1e895	-0.094681896
90	0x3dcb18a6	0.09916811
91	0x3e3677d0	0.17819142
92	0x3bb5d095	0.0055485466
93	0x3e0f26b8	0.13979614
94	0xbdccf696	-0.1000797
95	0x3e51677d	0.20449634
96	0xbd1a0c69	-0.03760949
97	0x3e16be63	0.14721064
98	0x3cf39a8f	0.029736785
99	0x3e0787d6	0.13235411
100	0xbe4324ac	-0.19056958
101	0x3e124283	0.14283185
102	0x3e1f4a88	0.15555775
103	0x3e17f04c	0.1483776
104	0xbe4d900f	-0.20074485
105	0x3db46bb3	0.088096045
106	0x3db1658e	0.08661948
107	0xbd3335ba	-0.04375241
108	0xbbcb4e33	-0.0062043904
109	0xbd30da2d	-0.04317682
110	0xbe2874a8	-0.16450751
111	0xbe1da355	-0.15394337
112	0x3db92704	0.09040645
113	0xbdefb699	-0.117047496
114	0xbcb0e8c2	-0.021595363
115	0x3d777e5e	0.060423248
116	0x3c3a77fe	0.011381147
117	0x3e312787	0.17300235
118	0xbd645950	-0.055749238
119	0xbe566a24	-0.20938927
120	0xbe4833ce	-0.19551012
121	0xbcb179b4	-0.021664478
122	0x3e24bff5	0.16088851
123	0x3d3dfcaf	0.046383556
124	0xbc9defbc	-0.019279353
125	0x3c08a47c	0.008339997
126	0x3e13eb5b	0.1444525
127	0xbe174937	-0.14774023
128	0xbd696e0e	-0.056989722
129	0x3d9a804a	0.075440004
130	0xbd853d4a	-0.065058306
131	0x3da9c66d	0.082898
132	0xbe54b811	-0.20773341
133	0xbda254c5	-0.07926325
134	0x3e396acd	0.18107148
135	0xbd188375	-0.037234742
136	0x3d806234	0.06268731
137	0xbe7189e7	-0.23587762
138	0x3e2dceb5	0.16973384
139	0x3e4e9b4d	0.2017643
140	0xbe4dffe6	-0.20117149
141	0xbd883d2d	-0.06652293
142	0xbe595533	-0.21223907
143	0x3da339e8	0.07970029
144	0x3c2f64ab	0.010705153
145	0xbde93711	-0.11387456
146	0xbe40ccd3	-0.18828134
147	0xbd984d2f	-0.074365966
148	0xbe5882d6	-0.2114366
149	0x3e2887a5	0.16457994
150	0xbca08af3	-0.019597506
151	0xbe30aa0e	-0.1725237
152	0xbdbe1bd5	-0.09282652
153	0x3e0820dc	0.13293785
154	0x3e25f170	0.16205382
155	0x3d6de425	0.058078904
156	0xbe3c7065	-0.1840225
157	0xbe50dfd0	-0.20397878
158	0xbdae0c06	-0.08498387
159	0xbd7c3c2b	-0.06158082
160	0x3dc32fd6	0.09530608
161	0xbe711e40	-0.23546696
162	0xbdc8137a	-0.0976934
163	0x3e2df6fc	0.16988748
164	0x3d9b2037	0.07574504
165	0xbe087eec	-0.13329667
166	0xbdf21533	-0.1182045
167	0x3e32001c	0.17382854
168	0xbe727c4b	-0.23680227
169	0x3c2ea6ca	0.010659883
170	0x3d69e95d	0.05710732
171	0x3e2a7623	0.16646628
172	0x3d18456a	0.037175573
173	0x3dacb8cc	0.08433685
174	0x3d01aca7	0.031658795
175	0xbe02075d	-0.12698121
176	0xbc8a67f2	-0.016895268
177	0xbe12098a	-0.14261451
178	0xbe568a30	-0.20951152
179	0x3d8cc006	0.06872563
180	0x3d53a3d3	0.051669907
181	0xbb6fcf67	-0.0036592127
182	0x3e0d8912	0.1382182
183	0x3d77e2fe	0.06051921
184	0xbdf5df5a	-0.120054916
185	0xbe759bd7	-0.2398523
186	0xbcd2a810	-0.025714904
187	0xbe197fd6	-0.14990172
188	0xbe8ce8e5	-0.27521434
189	0x3b91ad03	0.0044456734
190	0x3e02abde	0.12760875
191	0xbd417358	-0.04722914
192	0x3c2f09b5	0.010683467
193	0xbe3658a0	-0.17807245
194	0x3e222de5	0.1583782
195	0xbd891cbb	-0.06694933
196	0xbdecf3e7	-0.11569958
197	0xbc402fa2	-0.011730107
198	0xbdb2b85f	-0.08726572
199	0xbd4058b1	-0.046959583
200	0xbe23e908	-0.16006863
201	0xbd815dc4	-0.063167125
202	0xbc3b5431	-0.011433647
203	0xbd432c68	-0.04764977
204	0xbd95038a	-0.07276066
205	0xbabad4d6	-0.0014254104
206	0xbdacfb8b	-0.084464155
207	0x3deda7b3	0.11604252
208	0x3d8f423c	0.06995055
209	0x3df5d13e	0.120028004
210	0xbdd816bd	-0.10551212
211	0xbd4dce1c	-0.05024539
212	0xbcbc283f	-0.02296841
213	0xbe26ae65	-0.16277464
214	0xbe6417f3	-0.22274761
215	0xbdbd1d56	-0.09234111
216	0x3e1f1dd2	0.1553872
217	0x3d904e41	0.07046176
218	0xbc89168d	-0.016734386
219	0x3cd64642	0.026156548
220	0xbe55a388	-0.20863163
221	0xbb8e3555	-0.004339854
222	0xbe35ce30	-0.17754436
223	0x3d8ab186	0.06772141
224	0xbc9721da	-0.018448759
225	0x3d66c876	0.05634352
226	0x3e1388ac	0.14407605
227	0xbe47ab9f	-0.19499062
228	0xbe82304e	-0.2542748
229	0xbe6d45bb	-0.23171131
230	0xbcc3dee6	-0.023909997
231	0x3df618ab	0.12016424
232	0xbe2e73c5	-0.1703635
233	0x3e24d209	0.16095747
234	0xbdd95b05	-0.10613064
235	0xbe433ce4	-0.19066197
236	0xbceb1966	-0.028698634
237	0xbd8beea8	-0.068326294
238	0xbe065479	-0.13118161
239	0x3e01e8a8	0.12686408
240	0xbe57b4c4	-0.2106505
241	0x3d96a610	0.07355893
242	0xbc8e6166	-0.017380428
243	0x3dba4d7b	0.090968095
244	0xbb83333e	-0.0040039113
245	0x3e730cfa	0.23735419
246	0x3defb5d8	0.11704606
247	0x3d2487df	0.04016864
248	0x3e5b87a7	0.21438466
249	0x3d4352ac	0.047686264
250	0x3c02ea19	0.007990384
251	0x3e4d1a4e	0.20029566
252	0x3d1b3758	0.037894577
253	0x3d7260d7	0.059174385
254	0x3e474176	0.19458565
255	0x3e2f5fed	0.17126437

bias f4 [40]
0	0x3ce99006	0.028511059
1	0xbc4bfb1c	-0.012450006
2	0xbd2413bd	-0.040057886
3	0x3d139d7a	0.036038853
4	0xbc2e5e04	-0.010642532
5	0x3d48602e	0.04891985
6	0x3ca3493f	0.019932387
7	0xbde465a8	-0.11152202
8	0xbd6e4195	-0.058168013
9	0xbd3e73cd	-0.046497155
10	0xb994864d	-0.00028328822
11	0xbd9e09df	-0.077167265
12	0xbd9404b6	-0.07227461
13	0xbd3dfb68	-0.046382338
14	0xbc898a6c	-0.016789638
15	0x3d96169a	0.0732853
16	0x3db15669	0.086590596
17	0xbc09225b	-0.008370007
18	0x3d15271a	0.036414243
19	0x3d9b3570	0.07578552
20	0xbd13054c	-0.035893723
21	0x3cb162eb	0.021653613
22	0xbd42fa27	-0.047601845
23	0xbdbfc422	-0.09363581
24	0xbd510450	-0.051029503
25	0xbdc2afeb	-0.0950621
26	0x3dd8dd29	0.10589058
27	0xbd71dcea	-0.05904857
28	0x3b868697	0.0041054
29	0x3da8c93c	0.082415074
30	0xbcab39ef	-0.020901648
31	0x3a68384e	0.00088584877
32	0x3e487ddf	0.19579266
33	0x3c05b4aa	0.008160749
34	0xbc32b89b	-0.010908271
35	0xbb161996	-0.0022903434
36	0xbd557307	-0.05211165
37	0x3d619a5e	0.055078857
38	0x3d5a710d	0.05333047
39	0x3d232409	0.039829288

weight f4 [40, 40, 4]
0	0xbe30727b	-0.17231171
1	0x3e2b3f00	0.16723251
2	0xbe053f2c	-0.1301238
3	0x3c8063de	0.01567262
4	0x3e35b31c	0.17744106
5	0xbe1c8701	-0.15285875
6	0xbd99b942	-0.07506038
7	0xbc38e87a	-0.0112858955
8	0x3d23fa57	0.040033665
9	0xbc6e2668	-0.014535524
10	0x3e0fed41	0.14055349
11	0xbd363722	-0.044486172
12	0x3d8c2f60	0.068449736
13	0xbcfda323	-0.030961579
14	0x3e1137ec	0.14181489
15	0x3d569c45	0.052395124
16	0xbe2cdab7	-0.16880308
17	0xbe29fcb9	-0.16600312
18	0xbdc663fa	-0.09687038
19	0xbe4a395d	-0.19748445
20	0x3d857d1a	0.06518002
21	0xbcdcb47b	-0.026941529
22	0xbcfeb491	-0.03109196
23	0x3e102b5f	0.14079045
24	0xbc4ee8d1	-0.01262875
25	0xbe3d5955	-0.18491109
26	0x3c9582e3	0.018250888
27	0x3d9f593b	0.07780691
28	0x3e0de953	0.13858537
29	0x3d9e0662	0.07716061
30	0xbdb8435d	-0.089972235
31	0x3e2e5f18	0.17028463
32	0x3e31a594	0.1734832
33	0xbd9b997b	-0.075976335
34	0xbd9807fc	-0.07423398
35	0xbddc7958	-0.10765332
36	0xbe000e3c	-0.1250543
37	0x3dce74f2	0.10080899
38	0xbe388806	-0.18020639
39	0x3e324dca	0.17412487
40	0x3e05078f	0.12991165
41	0xbd40a530	-0.047032535
42	0xbd98fbdd	-0.07469914
43	0x3dedd25f	0.11612391
44	0x3d599ebd	0.0531299
45	0x3dbf9156	0.093538925
46	0x3e230826	0.15921077
47	0xbd2fd537	-0.042927947
48	0xbda59993	-0.080859326
49	0xbd83e341	-0.064398296
50	0x3d72be10	0.05926329
51	0x3b987c60	0.0046534985
52	0xbd09072c	-0.033454105
53	0x3c7d7352	0.015469389
54	0x3caa2afe	0.020772453
55	0x3dea22e4	0.11432436
56	0x3e1f971a	0.15584984
57	0xbdcae6c0	-0.09907293
58	0x3db23d24	0.08703068
59	0x3dcfd53a	0.101480916
60	0x3d16b78a	0.03679613
61	0xbe43919a	-0.19098511
62	0xbdf035d3	-0.11729016
63	0x3b97e0ea	0.004634966
64	0x3def4b15	0.11684243
65	0x3d663315	0.05620106
66	0xbd6b72f7	-0.057482686
67	0xbdbaba14	-0.09117523
68	0xbe4ff3c4	-0.20307833
69	0x3e2ff57f	0.17183493
70	0xbd68b0ef	-0.056809362
71	0x3e2b4eb9	0.16729249
72	0x3dfbd4dd	0.1229646
73	0x3d3f7acc	0.046747968
74	0xbd7adc2a	-0.06124512
75	0x3c78dd22	0.015189441
76	0x3ddd0dbe	0.10793637
77	0x3df1b807	0.118026786
78	0x3c32877b	0.010896559
79	0x3de6ced2	0.112699166
80	0xbe32696e	-0.1742303
81	0xbd301d5c	-0.04299675
82	0xbe3b4f55	-0.18291982
83	0xbc806cfd	-0.01567697
84	0x3dcdf58c	0.100566
85	0x3d92bf2a	0.07165368
86	0x3dd53550	0.10410559
87	0x3d5f6ff6	0.054550134
88	0xbded1596	-0.11576383
89	0x3e045b90	0.12925553
90	0x3daf9323	0.08572986
91	0x3e04007e	0.12890813
92	0xbd8af8e8	-0.06785756
93	0xbbdce6c4	-0.0067413766
94	0x3e02d6d7	0.12777267
95	0xbe15c5ac	-0.14626187
96	0x3df5bfd5	0.1199948
97	0xbd85b75f	-0.06529116
98	0xbe0675e5	-0.1313091
99	0x3e1d6cdc	0.15373558
100	0x3dbaaa86	0.09114556
101	0x3e2b321a	0.16718331
102	0xbdd06f65	-0.10177497
103	0x3cb43823	0.021999424
104	0xbe29de11	-0.16588618
105	0xbe25c002	-0.16186526
106	0x3e0ab102	0.13544086
107	0xbda6aa2b	-0.08137926
108	0xbd28f8e7	-0.041252997
109	0xbd287942	-0.041131265
110	0xbd9eb016	-0.077484295
111	0x3bcd556f	0.006266288
112	0x3e18625a	0.14881268
113	0x3db95436	0.09049265
114	0xbe34d845	-0.17660625
115	0x3e10fd60	0.14159155
116	0xbe4be6e4	-0.19912297
117	0x3d0002b3	0.031252574
118	0xbd93ff02	-0.07226373
119	0xbe27ad5d	-0.16374727
120	0xbe0c6ea7	-0.13714086
121	0xbdde77a8	-0.10862666
122	0xbba71efb	-0.0051001287
123	0x3e15fce3	0.1464725
124	0x3e125295	0.14289315
125	0xbd8211ce	-0.06351052
126	0x3de8068a	0.11329372
127	0xbdd31015	-0.10305802
128	0xbcb7e303	-0.022447115
129	0xbbfca673	-0.007710272
130	0x3d8f2cce	0.06990968
131	0xbdfc359a	-0.12314911
132	0xbc7f8422	-0.015595468
133	0xbdbbeb90	-0.09175789
134	0x3d23b81f	0.039970513
135	0x3d43c596	0.047795855
136	0xbe1d0e2a	-0.15337434
137	0xbe323bae	-0.17405578
138	0x3d2ef54f	0.042714413
139	0x3e1d0802	0.15335086
140	0x3b3eb34c	0.0029098568
141	0x3ddf9652	0.10917343
142	0xbe2d92f7	-0.16950594
143	0x3c8d6116	0.017258208
144	0xbdf5783a	-0.11985822
145	0x3e0593d2	0.1304467
146	0xbd147d93	-0.03625257
147	0xbe504518	-0.20338857
148	0x3d739d01	0.059475902
149	0x3c566881	0.013086439
150	0xbd46adf3	-0.048505735
151	0xbe46991b	-0.19394343
152	0x3d0c3e16	0.034238897
153	0xbe055270	-0.13019729
154	0x3d09d7e9	0.033653174
155	0x3def087d	0.11671541
156	0xbe2a01e4	-0.16602284
157	0x3c9ba48a	0.018999357
158	0x3dd948db	0.10609599
159	0xbe1adc59	-0.15123118
160	0x3d7e48c6	0.06208112
161	0xbe2dca3b	-0.16971676
162	0x3e334196	0.17505488
163	0xbd825029	-0.063629456
164	0xbd88765c	-0.066632
165	0x3dfd7ae2	0.12376954
166	0x3e325b97	0.17417751
167	0xbc6377df	-0.01388356
168	0x3e1a9ca9	0.15098824
169	0x3e23d63e	0.15999696
170	0xbd9803bc	-0.07422587
171	0xbe3f4311	-0.18677928
172	0xbe3c0a8c	-0.18363398
173	0x3dd0e62c	0.10200152
174	0x3e00b9cc	0.12570876
175	0xbc6da62e	-0.014504952
176	0xbd98f92c	-0.07469401
177	0xbcc34f4b	-0.02384152
178	0x3d2caf91	0.04215962
179	0xbde193ec	-0.11014542
180	0x3cf3bc31	0.029752823
181	0xbe277595	-0.16353448
182	0x3d11f552	0.035634346
183	0xbd920914	-0.07130638
184	0xbda2e60e	-0.07954036
185	0xbe359e26	-0.1773611
186	0x3dfe6ad8	0.124227226
187	0xbe4a68fe	-0.19766614
188	0x3d92ad05	0.07161907
189	0xbe0f1f16	-0.13976702
190	0x3cd43b98	0.025907323
191	0x3d13bf4e	0.036071114
192	0x3cc82f26	0.024436545
193	0xbd4d4615	-0.050115664
194	0xbe4588d6	-0.1929048
195	0x3e321e85	0.17394455
196	0x3c9a214e	0.018814709
197	0xbde4ece6	-0.11177997
198	0xbe3ed0b9	-0.18634309
199	0x3cb578f9	0.02215241
200	0xbde1ed5c	-0.11031601
201	0xbc387c7d	-0.011260149
202	0xbd36107b	-0.04444931
203	0x3e31fb5b	0.17381041
204	0x3d843c29	0.06456787
205	0xbd885a00	-0.06657791
206	0xbe373033	-0.1788948
207	0x3daa688a	0.083207205
208	0x3dfd19ca	0.123584345
209	0x3cf2260d	0.02955916
210	0xbe06f7f7	-0.13180529
211	0x3c0a985d	0.008459178
212	0x3dd72f5b	0.10507079
213	0xbdd560ab	-0.104188286
214	0x3dd1f6bc	0.10252139
215	0x3de06930	0.10957563
216	0xbd2472c7	-0.040148523
217	0x3df19acd	0.11797104
218	0xbddd61de	-0.10809682
219	0xbe14978b	-0.14510934
220	0x3ced2450	0.02894798
221	0x3dd59ae8	0.10429937
222	0xbcd24289	-0.025666492
223	0x3d6d0273	0.057863664
224	0x3b37c0ff	0.0028038619
225	0xbe1a2020	-0.15051317
226	0xbdfe87cf	-0.12428247
227	0xbdc248d4	-0.09486547
228	0xbd986140	-0.07440424
229	0xbd77850c	-0.060429618
230	0xbe26bf9a	-0.16284028
231	0x3dba9fce	0.091125116
232	0xbe41500c	-0.18878192
233	0x3debaabb	0.11507174
234	0x3dfbef37	0.12301486
235	0xbc7b0a4c	-0.015322279
236	0x3d7fddeb	0.062467497
237	0xbda25d37	-0.079279356
238	0xbe6d9d2d	-0.23204489
239	0xbdc399ba	-0.095508054
240	0xbc64c8fd	-0.013963935
241	0x3d87ef3e	0.06637429
242	0x3da7fd4d	0.0820261
243	0xbde81a55	-0.113331474
244	0xbd8db3fc	-0.06919095
245	0x3e3317e6	0.17489585
246	0x3d08bd2e	0.03338354
247	0xbe3924ce	-0.18080446
248	0xbe586dad	-0.21135588
249	0x3d8a8d03	0.06765177
250	0xbe2b8b9e	-0.16752478
251	0x3d385ffe	0.04501342
252	0xbe3a15d2	-0.18172386
253	0xbdab81dc	-0.08374378
254	0x3e1df848	0.15426743
255	0x3dcc0b22	0.09963061

bias f4 [40]
0	0xbccbc056	-0.024871986
1	0xbdc01790	-0.09379494
2	0x3d2e664b	0.042578023
3	0x3d8dccc0	0.069238186
4	0x3c2ff8f8	0.010740511
5	0x3ccef9c5	0.025265584
6	0xbcaa0fcc	-0.020759486
7	0x3d7ff16f	0.06248611
8	0xbd38944c	-0.045063302
9	0xbcd8ea80	-0.026479006
10	0xbc4d7616	-0.012540361
11	0xbdb9b1ac	-0.09067091
12	0xbc4851da	-0.012226546
13	0x3d30f833	0.04320545
14	0x3d7ed589	0.06221536
15	0x3de6fcf1	0.112787135
16	0xbdb55d24	-0.08855656
17	0xbd183575	-0.037160356
18	0x3cde8974	0.027165152
19	0x3d394640	0.04523301
20	0xbdafd1fa	-0.08584972
21	0xbd8483d0	-0.06470454
22	0x3dbdd718	0.092695415
23	0xbd94cd3a	-0.07265706
24	0x3d3890a9	0.045059834
25	0x3dc8e048	0.09808403
26	0x3cf2045e	0.029543098
27	0x3cf8ee50	0.030387074
28	0xbd817f62	-0.063231245
29	0x3bcf793b	0.0063315905
30	0x3c848f9b	0.016181758
31	0x3a0464d7	0.00050504267
32	0x3d7d2739	0.061804984
33	0x3d98959d	0.074504115
34	0xbd456c54	-0.048199013
35	0x3d85a9fd	0.06526563
36	0xbd01c84e	-0.031685166
37	0x3ac11514	0.0014731013
38	0x3d883e09	0.06652457
39	0x3ae06e63	0.0017122742

weight f4 [40, 40, 3]
0	0xbe57c7f1	-0.21072365
1	0x3d7605b4	0.060064033
2	0x3e1c7f89	0.15283026
3	0xbe49b381	-0.19697382
4	0xbe1fc543	-0.15602593
5	0xbce5904c	-0.028022908
6	0x3e054ddc	0.13017982
7	0xbd8070a6	-0.06271486
8	0x3d8d2718	0.06892222
9	0x3cf59a69	0.029980855
10	0xbe60afbc	-0.21942037
11	0x3df0f8c7	0.117662005
12	0x3de93e0c	0.113887876
13	0x3e4d0705	0.20022209
14	0xbdcb4848	-0.09925896
15	0xbe636ebb	-0.22210209
16	0xbe017dfa	-0.12645712
17	0x3db7da86	0.08977227
18	0x3e19a9c6	0.1500617
19	0xbe1f7acb	-0.15574186
20	0x3e3f4982	0.18680385
21	0xbdcccb6a	-0.09999736
22	0xbd864caa	-0.06557591
23	0xbd869868	-0.06572038
24	0xbdae1aa3	-0.08501174
25	0x3da57adf	0.080800764
26	0xbda0baa9	-0.078481026
27	0x3d34a4d7	0.044102516
28	0xbd3c47b2	-0.04596681
29	0x3da52ec1	0.08065558
30	0xbe4760c1	-0.19470502
31	0xba80655f	-0.0009795836
32	0xbbca4ef2	-0.006173962
33	0x3e45cc51	0.19316222
34	0xbdc715e6	-0.09720974
35	0xbbb30833	-0.005463624
36	0xbcf6c4a7	-0.030123068
37	0xbe31b77a	-0.17355147
38	0x3cd0cc7b	0.025488129
39	0xbd5baa0b	-0.053628962
40	0xbdacc9f9	-0.08436961
41	0x3dbd4740	0.092421055
42	0xbe552e22	-0.2081838
43	0x3d9eb78c	0.077498525
44	0xbe4c3f8a	-0.19946113
45	0xbe06c165	-0.13159712
46	0x3d022a62	0.0317787
47	0x3e17dff6	0.14831528
48	0x3e070012	0.1318362
49	0x3cf1a82a	0.029499132
50	0x3d6e4b8a	0.05817751
51	0xbe18e119	-0.14929618
52	0xbe5a3519	-0.21309318
53	0xbdd1bbd1	-0.10240901
54	0xbd0e602a	-0.034759678
55	0xbe1c3590	-0.15254807
56	0xbdc8685c	-0.0978553
57	0x3e0c1583	0.13680081
58	0xbe414126	-0.18872508
59	0xbc99616e	-0.018723216
60	0x3d5362b0	0.051607788
61	0xbe4ab2fd	-0.19794841
62	0xbba533f6	-0.0050415946
63	0x3dcffa86	0.101552054
64	0x3cfcfa06	0.03088094
65	0x3ccde1a5	0.02513201
66	0x3c958545	0.018252024
67	0xbcfbcd10	-0.03073743
68	0x3dc5cc31	0.09658087
69	0x3dafad79	0.08578009
70	0x3d891827	0.0669406
71	0x3e0478d3	0.12936716
72	0xbc24265e	-0.010018913
73	0xbe2d8411	-0.1694491
74	0x3d21fba0	0.03954661
75	0x3d56f696	0.052481256
76	0xbdb7795f	-0.089586966
77	0x3d19ddab	0.037564915
78	0x3e0a82ae	0.13526413
79	0xbd8dce01	-0.06924058
80	0xbd6a17b0	-0.057151496
81	0xbe62409a	-0.22094956
82	0xbdd847c5	-0.10560564
83	0xbe1a5fdb	-0.15075628
84	0x3dd0ea73	0.10200968
85	0x3ca1cab2	0.019749973
86	0xbdac88f3	-0.084245585
87	0x3d10a1ba	0.035310484
88	0x3df3502a	0.118805245
89	0xbdc6f0b5	-0.0971388
90	0x3df74eb7	0.120755605
91	0xbdbbed5d	-0.09176133
92	0xbe2bb834	-0.16769487
93	0xbe5c96ea	-0.21541944
94	0xbd8b0c54	-0.06789461
95	0xbe1150fb	-0.14191048
96	0x3ce21cb3	0.027601575
97	0x3e118532	0.14210966
98	0x3c88d115	0.01670126
99	0xbda79186	-0.08182053
100	0xbc0d8fb8	-0.008640222
101	0x3da9ff68	0.08300668
102	0x3dc92fad	0.098235466
103	0xbe36c1c6	-0.17847356
104	0xbc883928	-0.016628817
105	0x3e04c85c	0.12967056
106	0xbd363a4f	-0.0444892
107	0x3d49bc23	0.049251687
108	0xbc7c0d9e	-0.015384106
109	0x3dc28f23	0.094999574
110	0x3e049b61	0.12949897
111	0xbdca1301	-0.09866906
112	0x3dd74f2f	0.1051315
113	0x3d9d1b33	0.076712035
114	0xbd973093	-0.07382312
115	0xbdb61cc7	-0.088922076
116	0xbd9c1c37	-0.07622569
117	0x3e195898	0.14975202
118	0xbe468556	-0.19386801
119	0x3d7700bc	0.060303435
120	0xbcf9c5d3	-0.030489838
121	0xbe1269e7	-0.14298211
122	0xbcea8220	-0.028626502
123	0xbd40fe7b	-0.04711769
124	0xbe428177	-0.189947
125	0xbe184c9a	-0.14872971
126	0x3e36eeed	0.1786458
127	0x3dfcaf1d	0.12338088
128	0x3de6dd30	0.11272657
129	0xbe529f3e	-0.20568559
130	0xbe0fe9e1	-0.14054061
131	0x3cc41bed	0.023939097
132	0xbcc92876	-0.024555426
133	0x3ddb69ac	0.10713515
134	0x3d838c66	0.06423263
135	0x3d8d9ce1	0.06914688
136	0xbe5ec6e3	-0.21755557
137	0x3c4a422b	0.012344877
138	0xbd22633d	-0.039645422
139	0x3c3c6622	0.01149896
140	0x3d8b88b9	0.06813187
141	0x3dafb275	0.0857896
142	0xbe4ae55b	-0.19814055
143	0xbdf8f375	-0.12155811
144	0xbe20d6f0	-0.15706992
145	0x3de46d90	0.1115371
146	0x3e0321c6	0.12805852
147	0x3d435387	0.04768708
148	0x3c9b4ca7	0.01895745
149	0x3df0ff7f	0.11767482
150	0xbe69286a	-0.22769323
151	0x3ca357ff	0.01993942
152	0xbd9e8188	-0.0773955
153	0xbc74392a	-0.014906207
154	0xbcfead9b	-0.03108864
155	0x3d03f3fe	0.03221511
156	0xbe674c4f	-0.22587703
157	0x3da7aa85	0.08186821
158	0xbe56f805	-0.2099305
159	0xbd07364f	-0.033010777
160	0xbe2d030f	-0.16895698
161	0xbb766349	-0.00375958
162	0x3bd84499	0.0065999744
163	0x3c3e2bd8	0.011607133
164	0x3e3e68de	0.18594691
165	0xbe4abfce	-0.1979973
166	0x3d184a66	0.037180327
167	0x3e26a071	0.16272141
168	0xbdfa6489	-0.12226207
169	0x3c679299	0.014134073
170	0x3de53b23	0.1119292
171	0xbe58e0dd	-0.21179529
172	0x3e21bcbf	0.15794657
173	0xbde6fa24	-0.11278179
174	0x3e322970	0.1739862
175	0x3db314ea	0.087442234
176	0x3dcca84d	0.09993038
177	0xbd2c4f7d	-0.042067993
178	0x3e0e6f3f	0.13909625
179	0x3e31f0e2	0.17377046
180	0xbdb73226	-0.08945112
181	0x3e127164	0.14301068
182	0xbdafe137	-0.08587878
183	0xbdcc6fb9	-0.09982247
184	0xbe1fef19	-0.15618552
185	0xbe6544b7	-0.22389494
186	0xbe3acbfa	-0.18241873
187	0x3dc8f341	0.09812022
188	0x3da33cb0	0.079705596
189	0x3c3ffe34	0.011718322
190	0x3e56ee64	0.20989376
191	0xbe1633e5	-0.14668234
192	0xbe5bfa65	-0.21482237
193	0xbcef3e65	-0.029204557
194	0xbe6cb839	-0.2311715
195	0x3bfd1403	0.007723333
196	0x3db24e5b	0.08706351
197	0xbe0f037b	-0.13966171
198	0xbe5535b2	-0.20821264
199	0xbc96f06f	-0.018425195
200	0xbdfaf2a5	-0.12253312
201	0xbd1b6edd	-0.037947524
202	0x3df6d977	0.12053197
203	0x3d6afb9c	0.05736886
204	0x3e2987ae	0.16555664
205	0x3d13c545	0.036076803
206	0xbe5d1ba2	-0.21592572
207	0xbe315a7a	-0.1731967
208	0x3cefc941	0.02927077
209	0xbd43dc90	-0.047817767
210	0x3dc510b9	0.0962233
211	0x3d826ef1	0.06368817
212	0xbde0c6bd	-0.10975406
213	0xbd84a696	-0.06477086
214	0xbd4ed576	-0.05049654
215	0x3e474f6f	0.19463895
216	0xbc5233b2	-0.012829708
217	0xbe20a252	-0.1568692
218	0xb8a006b3	-7.630642e-05
219	0xbe2a5c08	-0.1663667
220	0xbe56444f	-0.20924495
221	0xbd2f2c27	-0.042766716
222	0xbe3373bd	-0.1752462
223	0xbdeac7e3	-0.114639066
224	0x3d829fbd	0.06378124
225	0x3c63766b	0.0138832135
226	0x3e48e281	0.19617654
227	0x3e27d62d	0.16390295
228	0xbe4d8697	-0.20070873
229	0xbe5191da	-0.20465794
230	0x3e045432	0.12922743
231	0xbe15cbe7	-0.14628564
232	0x3dd9d93c	0.10637137
233	0xbe3bea53	-0.18351106
234	0x3e10ba98	0.1413368
235	0x3dc330e1	0.09530807
236	0x3c8beb93	0.017080104
237	0x3cc7ce28	0.024390295
238	0xbe48375b	-0.19552366
239	0x3e2f2050	0.1710217
240	0xbd77fcf8	-0.060543984
241	0xbdecd0da	-0.11563273
242	0xbd560996	-0.052255236
243	0xbe62cd64	-0.22148663
244	0x3c2c1d90	0.010505095
245	0x3e2fa529	0.17152847
246	0xbd30fd40	-0.043210268
247	0xbe11e142	-0.14246085
248	0xbdf91f08	-0.12164122
249	0x3e0f34a9	0.13984932
250	0xbe554805	-0.20828255
251	0x3b8fda9f	0.0043900753
252	0x3d952b69	0.072836705
253	0x3df4e2cb	0.1195732
254	0xbe2682c6	-0.16260824
255	0xbe5887a0	-0.21145487

bias f4 [40]
0	0xbe7b256e	-0.24525997
1	0x3c8aca8d	0.016942287
2	0x3bb8af26	0.0056361137
3	0xbc777062	-0.015102478
4	0x3d417c4a	0.047237672
5	0x3d0bf7ec	0.034171984
6	0xbe25a275	-0.16175254
7	0xb985b7fe	-0.00025504822
8	0x3b6257d5	0.0034537215
9	0xbcdad96d	-0.026715005
10	0x3e8a2939	0.26984575
11	0xbccea57b	-0.025225392
12	0xbd9c320d	-0.07626734
13	0xbdb0be07	-0.08629995
14	0xbdf50e52	-0.11965622
15	0xbe06ca5f	-0.13163136
16	0xbd861f3f	-0.065489285
17	0xbdad9ee1	-0.08477569
18	0x3c4ac1d6	0.012375316
19	0x3dcf6300	0.101263046
20	0xbdcb7fc3	-0.09936478
21	0x3e0f3f67	0.1398903
22	0xbd495ec0	-0.049162626
23	0xbbda973f	-0.006670862
24	0x3d3ed388	0.04658845
25	0x3ba1406c	0.0049210098
26	0x3cb06cf3	0.021536326
27	0x3e8f06ec	0.27934968
28	0x3d8bc39b	0.06824418
29	0x3dc8ce76	0.09805004
30	0xbe062871	-0.13101365
31	0xbc34e7bc	-0.011041578
32	0x3c04b323	0.00809935
33	0xbd4b9d94	-0.049710825
34	0xbe4810f0	-0.19537711
35	0xbb163a2d	-0.002292286
36	0x3d48f30d	0.049059916
37	0xbc2b2ed7	-0.010448179
38	0x3d41efbb	0.047347765
39	0xbd962f24	-0.0733321

weight f4 [40, 40, 3]
0	0xbdb5e414	-0.08881393
1	0xbe2a8fb2	-0.16656378
2	0xbdfebad7	-0.124379806
3	0xbd633ef0	-0.055479944
4	0xbe2df331	-0.16987301
5	0xbcd5745a	-0.026056457
6	0x3d2342d0	0.03985864
7	0xbe551fbb	-0.20812885
8	0x3e1c5867	0.15268098
9	0x3e349345	0.17634304
10	0xbe3f6150	-0.18689466
11	0x3c2bd114	0.01048686
12	0x3e234e81	0.15947916
13	0x3d50c741	0.050971273
14	0x3e2d7c43	0.16941933
15	0x3d8a6a9c	0.067586154
16	0xbd9d0477	-0.07666867
17	0xbdf83fd6	-0.12121551
18	0xbe3aabbd	-0.18229575
19	0xbca55e2d	-0.020186508
20	0xbda025b7	-0.078196935
21	0xbce5e268	-0.02806206
22	0xbcc5ab38	-0.024129495
23	0x3e2aff8c	0.16699046
24	0xbe0faaa8	-0.14029944
25	0xbe3b3efe	-0.18285748
26	0xbe59a2f5	-0.2125357
27	0x3e4511a0	0.19245005
28	0x3d34143a	0.043964602
29	0xbe2699b0	-0.16269565
30	0xbe1b32af	-0.15156053
31	0x3e64b8d1	0.22336127
32	0xbe4463ea	-0.19178739
33	0xbe023195	-0.12714227
34	0x3dd5aaf3	0.104329966
35	0x3e628a8e	0.22123167
36	0xbda49e55	-0.08038012
37	0x3c502510	0.012704149
38	0x3e47b59b	0.1950287
39	0x3e533717	0.20626484
40	0x3da495d0	0.08036387
41	0x3e2dfa63	0.16990046
42	0xbdb10bbc	-0.08644816
43	0xbe5c9fdb	-0.21545355
44	0xbd3fdbc1	-0.046840433
45	0xbd1d1b52	-0.038356133
46	0xbe1a0a82	-0.15043071
47	0x3d1eee96	0.038801752
48	0xbd921296	-0.07132451
49	0x3e0b121e	0.1358113
50	0x3ddbc54d	0.107309915
51	0xbe21c187	-0.15796481
52	0x3e493094	0.19647437
53	0xbc21cf83	-0.009876135
54	0x3e11cf4b	0.14239232
55	0x3d7ffd7e	0.06249761
56	0x3e2db49e	0.16963431
57	0xbe68b0af	-0.2272365
58	0x3e4861d8	0.19568574
59	0x3e226f48	0.15862763
60	0xba474d56	-0.00076027715
61	0xbc537efb	-0.0129086925
62	0xbe15ae6a	-0.14617315
63	0xbe3a117b	-0.18170731
64	0xbbd5b128	-0.006521363
65	0x3e4e0671	0.20119645
66	0xbdb86d77	-0.09005254
67	0xbe0e2d8b	-0.13884561
68	0xbe1855cc	-0.14876479
69	0xbda07594	-0.07834926
70	0xbd0507bc	-0.03247808
71	0x3dbb8e8f	0.0915805
72	0xbe2b3a59	-0.16721477
73	0x3e1144f5	0.14186461
74	0xbe3bc9c5	-0.18338688
75	0x3e3c1f80	0.18371391
76	0x3e36c8ac	0.17849988
77	0x3d3587a2	0.044318803
78	0xbd865cfe	-0.065607056
79	0x3e484a84	0.19559675
80	0x3da72d61	0.08162952
81	0xbe00586a	-0.12533727
82	0xbe488ae4	-0.19584233
83	0x3dbe4b62	0.09291722
84	0xbd4f8b41	-0.050669912
85	0x3e42a9f3	0.19010143
86	0xbe02667b	-0.12734406
87	0x3dec09c5	0.11525301
88	0x3e1b1a98	0.15146863
89	0x3b1e39ba	0.0024143294
90	0xbd09d0c4	-0.03364636
91	0xbdc80eaf	-0.09768426
92	0x3d3466f8	0.04404351
93	0xbd7f290b	-0.062295
94	0xbb58fb64	-0.0033108825
95	0x3d24c4b5	0.040226657
96	0xbdb97696	-0.090558216
97	0xbde3a476	-0.11115353
98	0xbdaf3f36	-0.085569784
99	0x3d1e83a6	0.03869977
100	0x3dc04d89	0.09389789
101	0x3e34cfb7	0.17657362
102	0x3b0e98a5	0.0021758464
103	0x3e2db00a	0.16961685
104	0x3e1bab1c	0.15201992
105	0xbe2b05a0	-0.16701365
106	0x3e248a64	0.16068417
107	0x3b68a9f5	0.0035501693
108	0xbe081b5d	-0.13291688
109	0xbd3dc5c0	-0.046331167
110	0xbe14a5c5	-0.14516361
111	0x3deddded	0.116145946
112	0x3c43bd22	0.011946948
113	0x3dfa6e5d	0.122280814
114	0xbe42f082	-0.19037059
115	0x3d8a3ff5	0.0675048
116	0x3e248a5b	0.16068403
117	0xbe4785ca	-0.1948463
118	0x3cd3c882	0.025852446
119	0xbe0af0b5	-0.13568385
120	0x3d8a02a1	0.06738783
121	0xbcaed8a8	-0.021343544
122	0xbe3cc6fb	-0.1843528
123	0x3e04834d	0.12940712
124	0xbce9d464	-0.028543659
125	0x3e5077c5	0.20358188
126	0x3cdf5668	0.027262881
127	0x3dd69335	0.10477296
128	0x3dad718e	0.084689245
129	0xbe01c7c9	-0.12673868
130	0xbe1ba6f7	-0.15200411
131	0xbe13f7a3	-0.14449935
132	0x3e0db597	0.13838802
133	0x3d2084a9	0.039189015
134	0xbe4e2186	-0.20129976
135	0x3de31a43	0.110889934
136	0x3e143b64	0.1447578
137	0x3da86f51	0.08224357
138	0x3e385aaf	0.18003343
139	0xbd69e8f2	-0.05710692
140	0xbdd61b82	-0.104544654
141	0x3da011d9	0.07815904
142	0xbdbec6c4	-0.09315255
143	0x3dbbd1ad	0.09170852
144	0xbe6731c5	-0.2257758
145	0xbe584799	-0.21121062
146	0xbe07fec8	-0.13280785
147	0xbe47c927	-0.19510327
148	0x3e242f7c	0.16033739
149	0xbe32a4ea	-0.17445722
150	0xbe113316	-0.14179644
151	0x3e535398	0.20637357
152	0x3c0a1dc4	0.008429948
153	0x3e0d4d4b	0.13799016
154	0x3d5c2c73	0.053753328
155	0xbd7fd8b3	-0.06246252
156	0xbd40737a	-0.046985127
157	0xbe5ad193	-0.21369009
158	0x3d98089f	0.07423519
159	0xbdb61bdd	-0.08892033
160	0xbc9a696b	-0.018849095
161	0x3d97200f	0.073791616
162	0x3d90b693	0.07066073
163	0x3e43ce20	0.19121599
164	0xbe6b56e4	-0.22982365
165	0xbe07209a	-0.1319603
166	0x3d996b70	0.07491195
167	0xbe546ffc	-0.20745844
168	0xbd1953e0	-0.037433505
169	0xbdd09a2d	-0.10185657
170	0x3e0db93a	0.1384019
171	0x3de264ae	0.110543594
172	0x3e1ef26a	0.15522161
173	0x3d991e7b	0.07476517
174	0x3df329b7	0.11873191
175	0xbe255dae	-0.16149017
176	0xbc85021f	-0.016236363
177	0x3e276af9	0.163494
178	0xbda2d29e	-0.07950328
179	0xbdc65f29	-0.09686119
180	0x3e2f08fe	0.17093274
181	0x3ceb6f8b	0.028739711
182	0xbe4a1356	-0.19733939
183	0xbd4530bb	-0.048142176
184	0xbe3c4fb3	-0.18389778
185	0xbe6a9379	-0.22907819
186	0x3d474004	0.048645034
187	0xbdac50de	-0.08413862
188	0x3caf5a7a	0.021405447
189	0xbdd25d98	-0.10271758
190	0x3e0faa08	0.14029706
191	0xbcb565c4	-0.022143252
192	0xbdb60b8c	-0.08888921
193	0xbdc1d511	-0.09464467
194	0x3d96c38a	0.07361515
195	0xbd767eeb	-0.060179632
196	0x3c287d94	0.010283846
197	0xb9946228	-0.00028301892
198	0x3d1d49c2	0.03840042
199	0x3d3f48bf	0.046700235
200	0x3d13ba03	0.036066066
201	0xbe8c9b09	-0.27462032
202	0xbe264004	-0.16235358
203	0xbddbccb0	-0.107324004
204	0x3d45d8f0	0.04830259
205	0x3e563ddf	0.2092204
206	0x3dbc7189	0.092013426
207	0xbe0b7a8a	-0.13620964
208	0xbdbffb30	-0.09374082
209	0xbe602582	-0.21889308
210	0xbe4cd448	-0.20002854
211	0xbe52b1b4	-0.20575601
212	0xbca6dcbc	-0.020368926
213	0xbdef3a14	-0.116809994
214	0xbd3a496e	-0.045480184
215	0x3d7b8936	0.06141015
216	0x3dd31cc5	0.10308222
217	0x3e0b09cb	0.13577954
218	0xbd418d62	-0.047253974
219	0x3c7719b5	0.015081813
220	0xbe444b8c	-0.19169444
221	0x3db085ef	0.08619296
222	0x3e0c550e	0.13704321
223	0x3c910d01	0.017706396
224	0xbd5c2afe	-0.053751938
225	0x3c8f9397	0.017526431
226	0xbe009d38	-0.12559974
227	0xbd8643ad	-0.06555877
228	0xbe634361	-0.22193672
229	0x3cc18b1c	0.023625903
230	0xbd4420fc	-0.04788302
231	0xbe1f6fde	-0.15570018
232	0x3e0be43b	0.13661282
233	0xbe31caf0	-0.17362571
234	0x3d449355	0.04799207
235	0xbd6c45e3	-0.057683837
236	0xbcacd5d8	-0.021098062
237	0xbe0ef3a6	-0.13960132
238	0x3e00f9ea	0.12595335
239	0x3e09aaea	0.13444105
240	0xbe26454b	-0.1623737
241	0xbd256dbf	-0.040387865
242	0x3dacbb74	0.08434191
243	0x3e0e6528	0.13905776
244	0x3e44f223	0.19232993
245	0x3df9042f	0.12159001
246	0xbe2e1f97	-0.17004238
247	0xbd3e077a	-0.04639385
248	0xbd96a79a	-0.07356186
249	0xbbba5225	-0.005686062
250	0x3cec09ed	0.028813327
251	0xbe1dbdff	-0.15404509
252	0xbc240041	-0.010009826
253	0xbd4ed112	-0.050492354
254	0x3e46bb68	0.19407427
255	0xbd8ed6d8	-0.06974572

bias f4 [40]
0	0xbe052150	-0.13000989
1	0xbd97cc82	-0.07412054
2	0xbdba01bb	-0.09082361
3	0xbd522496	-0.051304422
4	0x3d8b5cba	0.068047956
5	0xbd4fe17a	-0.05075214
6	0x3d52cf8a	0.051467456
7	0xbad878d8	-0.0016515506
8	0x3d3b0f40	0.04566884
9	0xbdb4330f	-0.08798801
10	0xbd17826a	-0.036989607
11	0xbc91e2a4	-0.017808266
12	0x3bbc45f6	0.0057456447
13	0xbdd8da00	-0.10588455
14	0xbd64bea8	-0.055845886
15	0xbde85977	-0.11345189
16	0xbdb670e7	-0.08908253
17	0xbaf5bd6c	-0.0018748469
18	0xbd2ba7e1	-0.04190815
19	0x3e2f6baf	0.17130922
20	0x3d946f3c	0.07247779
21	0x3eb93863	0.36175832
22	0x3e329fc9	0.17443766
23	0xbdb4ea19	-0.08833713
24	0xbde9ac40	-0.11409807
25	0x3da41209	0.080112524
26	0xbd91d9f2	-0.07121648
27	0xbe1b8539	-0.15187539
28	0xbdaee74c	-0.0854021
29	0xbda26e43	-0.07931187
30	0xbde658fb	-0.112474404
31	0x3edc7265	0.43056026
32	0xbda95ac6	-0.08269267
33	0x3e1e75f6	0.15474686
34	0xbb82290a	-0.0039721774
35	0xbde031a6	-0.1094697
36	0x3ec6b5cc	0.38810575
37	0xbd909da8	-0.070613205
38	0xbd89a53e	-0.067209706
39	0xbe0c716d	-0.13715144

weight f4 [20, 40, 3]
0	0xbe256e1c	-0.16155285
1	0xbcedd997	-0.029034419
2	0xbdee8249	-0.11645944
3	0x3d337c85	0.043819923
4	0x3d90bd9b	0.070674144
5	0xbcc37851	-0.023861082
6	0x3e3e550c	0.1858713
7	0xbe380aff	-0.17972945
8	0xbba67dd5	-0.0050809183
9	0xbe36a372	-0.17835787
10	0xbe306862	-0.17227319
11	0xbe37229e	-0.17884299
12	0xbd8fdc1a	-0.07024403
13	0x3dfdc3e6	0.1239088
14	0x3d82b392	0.063819066
15	0x3d8f596a	0.06999476
16	0xbe3b5533	-0.1829422
17	0x3cbdb81b	0.023159077
18	0xbc82ae44	-0.015952237
19	0xbdc9a3b7	-0.09845679
20	0x3cdf2e4c	0.027243756
21	0x3e34dc7a	0.1766223
22	0xbe285eb0	-0.1644237
23	0xbe0cca6a	-0.1374909
24	0xbb622d1e	-0.0034511755
25	0xbe389e34	-0.180291
26	0x3ddd4b07	0.10805326
27	0x3ceb3cd6	0.028715532
28	0xbe116bd8	-0.14201295
29	0xbc740ec7	-0.014896101
30	0x3de19239	0.11014218
31	0xbd744347	-0.059634473
32	0xbd72000b	-0.059082072
33	0xbd912921	-0.07087923
34	0x3e3f75e5	0.18697317
35	0x3e2467d2	0.1605523
36	0x3cbf2f17	0.023337884
37	0xbe419311	-0.18903758
38	0xbe20b0f2	-0.156925
39	0xbdf413b8	-0.119178236
40	0xbd5c750e	-0.05382257
41	0xbd85cf9f	-0.06533741
42	0x3e31ac7a	0.17350951
43	0x3d80f56e	0.06296812
44	0x3e1d4116	0.1535686
45	0xbe2c8172	-0.16846254
46	0xbd682687	-0.056677368
47	0x3d91f86f	0.07127463
48	0x3e10ff09	0.14159788
49	0x3c3352c2	0.010945024
50	0x3d46f353	0.048571896
51	0xbc60ed73	-0.013728487
52	0xbe39210c	-0.18079013
53	0xbe1368f8	-0.14395511
54	0x3d62fa89	0.05541471
55	0xbe1721e9	-0.1475903
56	0xbc665ed3	-0.014060694
57	0xbdca34c6	-0.09873347
58	0xbe24bfff	-0.16088866
59	0xbcf1450b	-0.029451868
60	0xbe161fae	-0.14660522
61	0x3d5f4b5b	0.054515224
62	0x3e4620d0	0.19348454
63	0x3de330ad	0.110932685
64	0xbc9498a8	-0.018139198
65	0xbd731142	-0.05934263
66	0x3c584976	0.013201108
67	0x3de98b62	0.11403538
68	0xbe8b6f69	-0.27233437
69	0x3e5173ab	0.2045428
70	0x3dc05dd7	0.093928985
71	0xbd21665c	-0.039404258
72	0xbdf85dd8	-0.12127274
73	0xbe62c213	-0.22144346
74	0x3e4b4554	0.19850665
75	0x3e264697	0.16237865
76	0x3dac18f1	0.08403195
77	0xbe5ac514	-0.21364242
78	0x3e47fee9	0.19530834
79	0x3d0ce667	0.034399416
80	0x3d0d72ba	0.03453324
81	0x3d82b8e2	0.0638292
82	0xbe0c9e04	-0.13732153
83	0xbe517b97	-0.20457302
84	0xbe489ac5	-0.1959029
85	0x3d48f99d	0.049066175
86	0xbc53b5c5	-0.012921755
87	0xbdcbb282	-0.09946157
88	0xbdae7510	-0.08518422
89	0xbe1eb667	-0.15499268
90	0x3e2111a7	0.1572939
91	0x3dede5db	0.11616107
92	0xbe4083c6	-0.18800268
93	0x3e3816d0	0.17977452
94	0xbe33c1c7	-0.17554389
95	0xbe2bb51c	-0.16768306
96	0x3d0ae252	0.033907242
97	0xbd419829	-0.04726425
98	0x3df0ec13	0.117637776
99	0x3cb711aa	0.02234729
100	0x3df4c820	0.11952233
101	0x3db6999f	0.0891602
102	0xbe5885f4	-0.21144849
103	0xbe1fa275	-0.15589316
104	0x3e34e7bd	0.17666526
105	0x3cf72fc8	0.030174151
106	0x3e0a0e52	0.13482025
107	0x3cdb44dd	0.026766235
108	0x3e55cee3	0.20879702
109	0x3d2b2e12	0.041791983
110	0xbdc94918	-0.09828395
111	0xbdbcc34b	-0.09216937
112	0x3de598ba	0.11210771
113	0xbb166242	-0.002294675
114	0x3ceb6713	0.028735673
115	0xbda91f16	-0.08257882
116	0xbe0d10fb	-0.13776009
117	0x3e1e7e60	0.15477896
118	0x3cf15ccd	0.029463196
119	0xbde4c1a1	-0.11169744
120	0x3dc30762	0.095228925
121	0x3e500a42	0.20316413
122	0xbe4b166c	-0.19832772
123	0x3d5a0417	0.053226557
124	0x3d521608	0.051290542
125	0xbdabdc8d	-0.08391676
126	0x3e1b0612	0.15139034
127	0x3e352e6c	0.1769349
128	0xbe4d5606	-0.20052347
129	0xbd0d38ab	-0.03447787
130	0x3d8f1db9	0.06988091
131	0xbd938314	-0.072027355
132	0xbe4c7375	-0.19965918
133	0x3d9a4656	0.07532947
134	0x3d47f822	0.048820622
135	0xbc57d066	-0.013172245
136	0xbd89966d	-0.067181446
137	0xbda76abb	-0.08174654
138	0xbc20cab7	-0.009813956
139	0x3e40f26f	0.18842481
140	0x3d2cc39b	0.04217873
141	0x3cd01cbd	0.025404328
142	0x3e5ae3f7	0.21376024
143	0x3c97b4f3	0.0185189
144	0x3e609dd5	0.21935208
145	0xbddfdcc4	-0.109307796
146	0xbe42f295	-0.1903785
147	0x3e063539	0.1310624
148	0x3e416da0	0.18889475
149	0x3e507f5d	0.20361085
150	0xbdde7d1e	-0.10863708
151	0x3c5da672	0.013528453
152	0xbe2be835	-0.16787799
153	0x3df1965f	0.11796259
154	0xbe1fe9d7	-0.15616547
155	0x3e258d13	0.16167097
156	0x3d837008	0.06417853
157	0x3e5fb5bb	0.21846668
158	0xbdb25fb9	-0.08709664
159	0xbda85ce2	-0.08220841
160	0x3e156b95	0.1459182
161	0x3e4ab701	0.19796373
162	0xbda494dc	-0.08036205
163	0xbc2883dc	-0.010285344
164	0xbe1d6f99	-0.15374602
165	0x3df205fe	0.11817549
166	0x3d49c950	0.049264252
167	0xbe2cc469	-0.168718
168	0xbe3821f4	-0.17981702
169	0xbd9efb7d	-0.07762811
170	0x3c5cf43a	0.0134859625
171	0x3d8b99ca	0.06816442
172	0xbe2863e5	-0.16444357
173	0xbdf35dbc	-0.11883113
174	0x3dbd9332	0.09256591
175	0xbe3777be	-0.17916772
176	0x3e12929f	0.14313744
177	0x3e0f18be	0.13974282
178	0xbc694d29	-0.014239588
179	0xbe16c53c	-0.14723676
180	0xbde63ee1	-0.11242462
181	0xbd9eae45	-0.07748083
182	0x3d8b91ec	0.06814942
183	0xbe36b4ab	-0.17842357
184	0x3c07c7b9	0.008287364
185	0xbe0d7069	-0.13812412
186	0x3d3207ef	0.043464597
187	0xbd837db7	-0.064204626
188	0x3dfa304b	0.122162424
189	0xbcaff1b4	-0.021477558
190	0x3d27474e	0.040839486
191	0xbdf1f6e9	-0.118146725
192	0xbe54d693	-0.20784979
193	0xbe13c404	-0.14430243
194	0x3d97c327	0.07410269
195	0x3de44a4f	0.11146986
196	0x3e223d2b	0.15843646
197	0x3da6ae4d	0.08138714
198	0x3c7a1f46	0.015266245
199	0x3e027fad	0.12744017
200	0xbe086073	-0.13318042
201	0xbdef3fb9	-0.11682076
202	0xbd794af5	-0.0608625
203	0x3d9b0d39	0.075708814
204	0xbd22e825	-0.03977217
205	0x3da917ec	0.08256516
206	0x3e3e149a	0.18562546
207	0x3de39a75	0.11113445
208	0xbbfc9d04	-0.0077091474
209	0xbddaf01c	-0.106903285
210	0xbe2827dd	-0.16421457
211	0xbd1081df	-0.035280105
212	0x3e0f1323	0.13972144
213	0x3e55a54a	0.20863834
214	0x3dd3b538	0.10337299
215	0x3c949d41	0.01814139
216	0xbd3726c5	-0.044714708
217	0xbd8a5fe0	-0.06756568
218	0x3d439401	0.04774857
219	0xbe605162	-0.21906045
220	0xbdf51fc3	-0.11968949
221	0x3e18be24	0.14916283
222	0xbe41e494	-0.18934852
223	0xbe05f581	-0.13081934
224	0x3d085982	0.033288486
225	0x3d4c5737	0.049887862
226	0xbdbccd4e	-0.09218846
227	0xbdcdfb11	-0.10057653
228	0x3e04fd84	0.12987334
229	0xbddb5c75	-0.10710994
230	0xbe2ec02d	-0.17065497
231	0x3dfe8493	0.1242763
232	0x3dd9272e	0.10603176
233	0xbd910892	-0.07081713
234	0xbd99d104	-0.0751057
235	0xbe4f99c8	-0.20273507
236	0x3c9e7863	0.019344514
237	0xbe244af3	-0.16044216
238	0xbe357cc9	-0.17723383
239	0xbe6874dd	-0.2270083
240	0xbe035a97	-0.12827526
241	0x3d3a8f7c	0.045546994
242	0xbe352b3b	-0.17692272
243	0xbdf20dbf	-0.11819028
244	0xbe18ebcf	-0.14933704
245	0xbd5225bf	-0.05130553
246	0xbe52a785	-0.20571716
247	0xbcacc3fc	-0.021089546
248	0xbe45572b	-0.19271533
249	0xbd9b132f	-0.07572018
250	0x3ddcb8de	0.10777448
251	0xbdb54c14	-0.088524014
252	0xbd59b874	-0.053154424
253	0xbe4ca75a	-0.19985715
254	0xbe34cdd7	-0.17656647
255	0x3e1cc822	0.1531072
