models/model_rir.pt (torch, 526981 bytes, 24 tensors)

weight f4 [40, 500, 3]
0.04790808 -0.2573355 0.0032210157 0.05310897 0.053119075 -0.29113293 0.09179702 -0.045991234
-0.023773523 0.027504006 -0.22716306 0.042548187 -0.09892351 -0.13911913 -0.1403747 0.0367146
-0.039975237 0.2468938 0.072626375 -0.027393155 -0.4900293 0.09065614 -0.36329132 -0.053879965
-0.05845171 -0.08283287 0.006624956 -0.15913077 0.1404065 -0.15040885 0.024441985 -0.0329079
-0.014582764 -0.0028078954 -0.10212809 -0.04510191 0.06636413 -0.0058365767 -0.14638813 -0.22843182
0.039547224 0.10003095 -0.067413166 0.037686482 -0.089416124 -0.110828064 0.18017234 0.08258738
-0.00096080353 0.12871039 0.047042597 0.043935064 0.08659787 0.03407967 -0.008603366 -0.02822722
-0.05281295 -0.16958198 0.09140855 -0.019961229 -0.008064777 0.0728005 0.008939442 0.038632385
0.0077001867 -0.18158384 0.04773925 -0.015601564 0.06413247 -0.16626166 0.24858627 -0.06264175
0.030894915 0.050854445 -0.110482566 0.0486795 0.10716202 0.08855958 -0.01630098 -0.038807523
0.06510687 -0.039591696 0.16793476 -0.1474574 0.06875522 0.07632119 -0.27582964 0.01113931
-0.039654847 -0.23813081 0.10417063 0.03493281 0.05794498 0.0062015927 0.04015762 0.18530996
-0.08538401 0.045138624 0.0054766703 -0.01819945 0.10119172 0.03784621 0.092276804 0.06664366
-0.14451244 -0.14640898 -0.020514358 -0.00068430195 -0.08590821 -0.05427301 -0.07739527 -0.09467323
-0.17305206 -0.09030962 -0.17137052 0.074312 0.1578329 -0.114497535 -0.071077004 0.11594232
0.014193413 -0.076577395 0.011608867 0.06053608 -0.0029037716 0.088275164 -0.080132104 -0.11883546
0.050971996 0.035549548 0.04642438 -0.2488707 0.0038500044 -0.18588759 0.106561646 -0.10713575
0.0912891 0.09178789 -0.20636846 -0.33106697 -0.07261906 -0.024938047 0.07461034 0.007061745
0.021791661 0.11658783 -0.036547992 0.07658035 0.022395851 0.06203669 0.0021027494 0.018583242
-0.07845206 -0.048329018 -0.13784823 0.014995727 -0.13472617 -0.17669936 -0.01041916 0.013102451
-0.030931855 0.09017294 0.037291244 -0.12881127 -0.032596402 -0.11197663 0.05246017 -0.12681893
-0.07711362 0.068780534 0.036325593 0.013864151 -0.17514423 0.010824736 -0.01291709 0.07084824
0.081090495 0.12260335 -0.063977696 0.1097524 -0.08879303 0.21376431 0.010818875 0.12661275
0.073286764 -0.014362554 -0.017394977 0.02694518 -0.062544204 -0.057809807 0.0254104 0.13028142
-0.16803412 -0.14791311 0.0885084 -0.0145702185 0.035812974 0.082204044 -0.14340019 0.024042474
-0.01624738 -0.01896891 0.014416167 0.12325556 0.14508043 0.10647645 0.11733554 0.027266337
-0.078409776 -0.15105776 0.00019115821 0.02068437 -0.23466678 -0.122938566 -0.12956153 0.048889633
0.020348987 -0.35447884 0.04449597 -0.054408137 0.12102709 -0.29358834 0.15121816 0.06637183
0.16878365 -0.0062054866 0.02477575 0.10722842 0.06814369 -0.0855473 0.012825129 0.016996924
-0.11730705 0.09750614 0.044307634 -0.12064845 -0.012163082 0.11344909 -0.03034846 -0.040642872
-0.12366348 0.09898113 0.013029604 0.14421706 0.046707805 0.117882065 0.08073999 -0.01992879
0.040229093 -0.08932907 -0.21013266 -0.0909388 -0.035221267 0.010947376 -0.04336736 -0.20051342
00000000: 433b 443d 7bc1 83be ad17 533b cb88 593d
00000010: 6393 593d 600f 95be 1300 bc3d 4e61 3cbd
00000020: b1c0 c2bc 1550 e13c 6f9d 68be 0247 2e3d
00000030: 6998 cabd 3f75 0ebe 63be 0fbe 0c62 163d
00000040: 13bd 23bd bad1 7c3e 23bd 943d 9c67 e0bc
00000050: 1fe5 fabe eda9 b93d 5201 babe 3db1 5cbd
00000060: 0f6b 6fbd 48a4 a9bd 2916 d93b 2df3 22be
00000070: b9c6 0f3e c704 1abe 8f3a c83c 6fca 06bd
00000080: 8cec 6ebc ab04 38bb 8828 d1bd c8bc 38bd
00000090: ebe9 873d c140 bfbb c5e6 15be 08ea 69be
000000a0: 45fc 213d 07dd cc3d ea0f 8abd 245d 1a3d
000000b0: cd1f b7bd d3f9 e2bd 197f 383e 9323 a93d
000000c0: 6fde 7bba a8cc 033e bdaf 403d 41f5 333d
000000d0: 395a b13d 2097 0b3d 22f5 0cbc c53c e7bc
000000e0: 6452 58bd e6a6 2dbe 6834 bb3d bb85 a3bc
000000f0: 2022 04bc 6e18 953d bd76 123c fe3c 1e3d
00000100: d951 fc3b 1df1 39be 3b8a 433d b49d 7fbc
00000110: e257 833d 7f40 2abe 668d 7e3e 514a 80bd
00000120: 5517 fd3c c04c 503d af44 e2bd 2864 473d
00000130: c377 db3d ba5e b53d a289 85bc a3f4 1ebd
00000140: c056 853d e72a 22bd 17f7 2b3e 13ff 16be
00000150: 89cf 8c3d 494e 9c3d 8b39 8dbe a781 363c
00000160: 1f6d 22bd 90d8 73be 6957 d53d b515 0f3d
00000170: b757 6d3d bb36 cb3b 517c 243d e5c1 3d3e
00000180: d0dd aebd 47e3 383d a475 b33b 0317 95bc
00000190: 9b3d cf3d a104 1b3d 9ffb bc3d 797c 883d
000001a0: 12fb 13be 3cec 15be ba0d a8bc ba62 33ba
000001b0: a5f0 afbd 604d 5ebd 6981 9ebd 0ae4 c1bd
000001c0: 8f34 31be 40f4 b8bd c17b 2fbe e430 983d
000001d0: f39e 213e af7d eabd d290 91bd 2b73 ed3d
000001e0: 7d8b 683c 9cd4 9cbd 1e33 3e3c aef4 773d
000001f0: 344d 3ebb 9cc9 b43d 4d1c a4bd 0160 f3bd
00000200: 03c8 503d 679c 113d 7e27 3e3d f6d7 7ebe
00000210: 5b50 7c3b 5159 3ebe fe3c da3d fd69 dbbd
00000220: c8f5 ba3d 4afb bb3d 4152 53be 9c81 a9be
00000230: 4db9 94bd e04a ccbc 4ecd 983d 3666 e73b
00000240: 6d84 b23c 9ac5 ee3d 59b3 15bd 29d6 9c3d
00000250: 8177 b73c 2f1a 7e3d 48ce 093b e23b 983c
00000260: 79ab a0bd a6f4 45bd 1628 0dbe a3b0 753c
00000270: a8f5 09be adf0 34be 20b5 2abc aaab 563c
00000280: cd64 fdbc 97ac b83d b4be 183d 1ae7 03be
00000290: ce83 05bd 0154 e5bd 7ae0 563d d2dc 01be
000002a0: bfed 9dbd cfdc 8c3d 25ca 143d 7726 633c
000002b0: 0259 33be 3c5a 313c 34a2 53bc e218 913d
000002c0: c612 a63d 7717 fb3d bd06 83bd dec5 e03d
000002d0: 1fd9 b5bd 08e5 5a3e a741 313c c6a6 013e
000002e0: 5f17 963d eb50 6bbc e97f 8ebc 23bc dc3c
000002f0: 2d17 80bd fac9 6cbd 7929 d03c 7e68 053e
00000300: 2311 2cbe 8976 17be e443 b53d edb7 6ebc
00000310: a0b0 123d 985a a83d 80d7 12be b9f4 c43c
00000320: 3a19 85bc b064 9bbc c931 6c3c 696d fc3d
00000330: f78f 143e 5310 da3d 9e4d f03d a75d df3c
00000340: 4e95 a0bd e3ae 1abe a471 4839 4572 a93c
00000350: 7d4c 70be 37c7 fbbd c7ab 04be 7f40 483d
00000360: ebb2 a63c 407e b5be 6841 363d 11db 5ebd
00000370: 0ddd f73d 3651 96be efd8 1a3e f4ed 873d
00000380: 9fd5 2c3e 6557 cbbb 83f6 ca3c 939a db3d
00000390: eb8e 8b3d 6c33 afbd 7d20 523c 223d 8b3c
000003a0: ae3e f0bd 4db1 c73d ec7b 353d 8916 f7bd
000003b0: aa47 47bc ff57 e83d 559d f8bc 2479 26bd
000003c0: 4743 fdbd 9eb6 ca3d 1f7a 553c a3ad 133e
000003d0: af50 3f3d 276c f13d 025b a53d b441 a3bc
000003e0: 43c7 243d 29f2 b6bd 042d 57be 1f3e babd
000003f0: 2d44 10bd 9f5c 333c f9a1 31bd 6453 4dbe

bias f4 [40]
-0.26083508 -0.30360577 -0.27067092 -0.023061726 -0.48186257 -0.30399302 0.017389413 -0.37692434
-0.3228635 -0.32593623 -0.58883005 -0.26148233 -0.500122 -0.38132757 -0.23835813 -0.62518054
-0.3839748 -0.18377176 -0.031471312 -0.37753525 -0.45603096 0.015947377 -0.07334782 -0.28876662
0.024021681 -0.1405206 -0.3986207 -0.7487295 -0.2861489 0.0018267573 -0.016328288 -0.1997479
-0.086387455 0.045460694 -0.23008655 -0.6272214 -0.25222483 -0.3891636 -0.27579567 -0.13725193
00000000: 2d8c 85be 3772 9bbe 6195 8abe f2eb bcbc
00000010: b1b6 f6be f9a4 9bbe 3e74 8e3c 3afc c0be
00000020: 5d4e a5be 1de1 a6be 91bd 16bf 03e1 85be
00000030: ff07 00bf 5e3d c3be 2714 74be d50b 20bf
00000040: 5898 c4be aa2e 3cbe 10e8 00bd 4d4c c1be
00000050: e47c e9be 13a4 823c 6237 96bd 38d9 93be
00000060: 1ec9 c43c a2e4 0fbe 0318 ccbe bdac 3fbf
00000070: 1c82 92be ce6f ef3a e7c2 85bc b78a 4cbe
00000080: e8eb b0bd fe34 3a3d cf9b 6bbe 9591 20bf
00000090: 9d23 81be 7440 c7be 1735 8dbe c58b 0cbe

weight f4 [40, 40, 3]
-0.31501663 0.035731386 0.04289483 -0.27830487 -0.097246274 0.115538605 0.22954725 0.071146786
0.086103186 0.008212637 0.054492477 0.20007008 -0.050308928 -0.035693686 0.03651883 0.05638612
0.08939456 0.064723805 0.14970715 -0.038446497 -0.21975395 -0.012693249 0.0016677768 0.19028176
-0.025910148 -0.07765311 0.008223539 -0.15408576 -0.0133758215 -0.09310423 -0.14286423 0.13842231
-0.038396385 -0.15568076 -0.13855791 -0.098189525 0.123857796 0.16708797 -0.24194813 -0.014115765
-0.19864711 0.12987909 -0.11722096 0.1407878 -0.18315151 -0.24184567 -0.09211109 -0.22528714
-0.2506567 -0.037436202 0.10816642 0.20334978 0.09163005 0.12636897 -0.06548797 -0.15793286
0.034985043 -0.21553628 0.025424812 -0.0013809087 -0.013867524 -0.12836288 0.034187943 -0.013666661
0.06828994 0.04225639 -0.2897261 0.20670566 0.061861567 -0.17047909 0.03578805 0.12114786
-0.15227139 -0.034601778 -0.32414106 0.06056643 -0.07488295 -0.068409316 0.16901737 -0.12356583
0.050790384 -0.088707045 0.12040463 0.042018652 -0.04845366 -0.14097968 0.12756348 -0.012075165
0.19315611 -0.14916064 0.13477461 0.1428734 0.18036631 -0.20020196 -0.113252304 -0.006902935
-0.083180465 0.043718383 0.19237079 -0.014891821 -0.2551901 -0.14206842 -0.3164823 -0.09520699
0.03560227 -0.097010046 0.00029949655 0.34056973 -0.26032624 0.060648635 -0.15466674 0.13823944
-0.2840888 -0.024916919 0.07227806 -0.011015664 -0.10851244 0.0483819 0.07775957 -0.06311698
0.07833824 0.14979593 -0.09199656 -0.111142926 -0.05641466 0.030367559 -0.090714745 -0.14682849
0.19010104 -0.14466016 0.0700594 -0.08747627 0.118267134 0.032534797 -0.13631858 -0.23742807
-0.08857503 0.01373343 0.032255087 0.0641349 -0.09759205 -0.341626 -0.08641504 0.061619617
-0.14193423 -0.0006859888 -0.15019055 -0.17189611 -0.04566339 -0.06522293 -0.16131166 0.18909329
-0.14906833 -0.13683538 0.2108615 0.064450115 -0.10484587 0.0046495246 -0.17623977 0.027874531
0.12111284 0.0144220125 0.3280236 0.11583971 -0.12572674 -0.030837875 -0.26717073 0.024315845
-0.23965241 0.19984269 0.043076303 0.047621615 -0.08397447 -0.122025914 -0.029318547 0.13859329
-0.24976929 -0.20942444 -0.004364053 0.30694133 -0.1072831 -0.04964491 -0.17934734 -0.4331037
0.045900844 -0.18779965 0.113433644 0.1983514 -0.0752218 0.07064733 -0.18031168 -0.09120812
-0.110565946 0.28483167 0.065725565 -0.29550445 0.20731139 0.12463555 -0.020297736 0.16845055
0.09943871 -0.2420406 0.20039336 -0.2794295 -0.30019864 -0.14889796 0.22372423 0.119188786
0.06854046 -0.17731468 -0.19177943 -0.056233425 0.11015623 -0.30800197 -0.0021438375 -0.015829055
-0.025065666 0.00017559655 0.13121174 -0.16659051 0.02558004 -0.14817779 -0.08202892 -0.21483438
0.21764165 0.23136152 0.022766372 0.0287264 -0.19220428 0.05326043 0.065065265 -0.22057112
0.049778376 -0.10966903 -0.03330302 -0.1471979 0.116858825 -0.18996377 -0.05637344 -0.15841238
-0.0471175 -0.12614483 0.016044114 -0.26257437 0.087583214 -0.1049401 0.058939017 -0.03914178
0.14145824 -0.0627454 0.17579594 -0.045251176 0.176017 0.0602492 0.18691644 0.029619098
00000000: dc49 a1be 135b 123d 7db2 2f3d fa7d 8ebe
00000010: 0e29 c7bd 819f ec3d 6f0e 6b3e 68b5 913d
00000020: de56 b03d 4c8e 063c 8133 5f3d 2cdf 4c3e
00000030: bc10 4ebd 8b33 12bd c594 153d 22f5 663d
00000040: 7f14 b73d ea8d 843d d54c 193e 137a 1dbd
00000050: 2e07 61be 58f7 4fbc 4e99 da3a 39d9 423e
00000060: 8541 d4bc 9808 9fbd 06bc 063c a8c8 1dbe
00000070: 4326 5bbc 6ead bebd 004b 12be 94be 0d3e
00000080: 8745 1dbd c76a 1fbe 20e2 0dbe 9717 c9bd
00000090: 28a9 fd3d 1c19 2b3e 40c1 77be cf45 67bc
000000a0: 266a 4bbe 06ff 043e 8b11 f0bd ad2a 103e
000000b0: 128c 3bbe 64a6 77be bda4 bcbd acb1 66be
000000c0: 1356 80be b456 19bd 5b86 dd3d ed3a 503e
000000d0: 89a8 bb3d de66 013e 8f1e 86bd 27b9 21be
000000e0: 7a4c 0f3d 8bb5 5cbe b247 d03c 9bff b4ba
000000f0: 9d34 63bc 8f71 03be a808 0c3d 22ea 5fbc
00000100: 99db 8b3d 0915 2d3d fb56 94be a6aa 533e
00000110: 8e62 7d3d 1292 2ebe 7e96 123d 5f1c f83d
00000120: 08ed 1bbe 98ba 0dbd d1f5 a5be 8114 783d
00000130: 3b5c 99bd 2f1a 8cbd e412 2d3e 1510 fdbd
00000140: 9409 503d 0aac b5bd b496 f63d c01b 2c3d
00000150: 5877 46bd fa5c 10be 00a0 023e ead6 45bc
00000160: b7ca 453e 91bd 18be 5b02 0a3e 684d 123e
00000170: f2b1 383e be01 4dbe d3f0 e7bd 0432 e2bb
00000180: 855a aabd 0c12 333d d9fc 443e d3fc 73bc
00000190: 47a8 82be 627a 11be f809 a2be e2fb c2bd
000001a0: b0d3 113d 34ad c6bd bf05 9d39 285f ae3e
000001b0: 7b49 85be b46a 783d f560 1ebe a48e 0d3e
000001c0: 1674 91be 911e ccbc 8506 943d 0b7b 34bc
000001d0: c53b debd 192c 463d 6940 9f3d 7a43 81bd
000001e0: cd6f a03d 1b64 193e b168 bcbd e79e e3bd
000001f0: 0f13 67bd 63c5 f83c a7c8 b9bd 355a 16be
00000200: d9a9 423e cb21 14be 4d7b 8f3d c226 b3bd
00000210: 0a36 f23d 3543 053d 1997 0bbe 5820 73be
00000220: d366 b5bd 2e02 613c e91d 043d 2959 833d
00000230: 57de c7bd 9ae9 aebe 5efa b0bd da64 7c3d
00000240: 3557 11be eed3 33ba 8dcb 19be 8905 30be
00000250: 8909 3bbd 9993 85bd e22e 25be aca1 413e
00000260: 5ea5 18be 931e 0cbe 14ec 573e 6cfe 833d
00000270: 6eb9 d6bd 0a5b 983b 3378 34be 2159 e43c
00000280: 020a f83d 4e4a 6c3c b6f2 a73e 5f3d ed3d
00000290: 83be 00be b69f fcbc 9aca 88be 0632 c73c
000002a0: 7167 75be 90a3 4c3e c770 303d e20e 433d
000002b0: cffa abbd b9e8 f9bd 732d f0bc 66eb 0d3e
000002c0: 85c3 7fbe 5c73 56be 5400 8fbb 6a27 9d3e
000002d0: 3eb7 dbbd 7658 4bbd d4a6 37be c5bf ddbe
000002e0: 8602 3c3d 8d4e 40be e64f e83d a11c 4b3e
000002f0: e30d 9abd 8caf 903d a0a3 38be 53cb babd
00000300: 6670 e2bd 75d5 913e 209b 863d 5c4c 97be
00000310: 7049 543e ec40 ff3d 7047 a6bc 4d7e 2c3e
00000320: 86a6 cb3d 7ed9 77be eb33 4d3e 6211 8fbe
00000330: a3b3 99be b578 18be f717 653e 4019 f43d
00000340: f15e 8c3d fb91 35be d461 44be 0555 66bd
00000350: 9799 e13d 6fb2 9dbe a07f 0cbb efab 81bc
00000360: 8356 cdbc 5720 3839 5f5c 063e b496 2abe
00000370: 3b8d d13c ebbb 17be c7fe a7bd 8bfd 5bbe
00000380: 74dd 5e3e 09ea 6c3e 8b80 ba3c a153 eb3c
00000390: 33d1 44be 9c27 5a3d f040 853d 65dd 61be
000003a0: 69e4 4b3d 289a e0bd bf68 08bd 0cbb 16be
000003b0: ae53 ef3d dd85 42be d6e7 66bd db36 22be
000003c0: 48fe 40bd 1c2c 01be f26e 833c 2670 86be
000003d0: d45e b33d d6ea d6bd 0a6a 713d 2253 20bd
000003e0: 6eda 103e a980 80bd da03 343e 4c59 39bd
000003f0: cd3d 343e ddc7 763d 0667 3f3e c0a3 f23c

bias f4 [40]
0.04651995 0.14972106 -0.12604658 -0.229903 -0.25704974 0.030087968 0.0016635832 -0.03159051
0.14396021 -0.18629584 -0.27748114 0.12230733 -0.23877761 0.21727456 0.06292965 -0.063688315
-0.0034215634 0.029485863 0.024257239 0.009750151 0.043454163 -0.1020925 0.00050358166 -0.09284159
-0.07286296 0.1924806 -0.15420192 0.17397206 0.0973357 -0.16122591 -0.17335905 0.082591705
0.009578238 0.072465114 0.06453934 0.045037534 -0.14535984 0.14886369 0.032333884 -0.20313542
00000000: b48b 3e3d 7a50 193e 5b12 01be b16b 6bbe
00000010: 069c 83be 0b7b f63c 970c da3a 0d65 01bd
00000020: 4e6a 133e 56c4 3ebe 0212 8ebe 447c fa3d
00000030: 1e82 74be 397d 5e3e 43e1 803d 056f 82bd
00000040: 4f3c 60bb 568c f13c 1eb7 c63c 19bf 1f3c
00000050: fefc 313d df15 d1bd cb02 043a bb23 bebd
00000060: 2d39 95bd a219 453e 1ce7 1dbe bb25 323e
00000070: f157 c73d 6818 25be 0985 31be d725 a93d
00000080: 0bee 1c3c 9768 943d 342d 843d 4779 383d
00000090: 36d9 14be b96f 183e 8970 043d bb02 50be

weight f4 [40, 40, 4]
0.067313045 0.035966415 -0.021166975 -0.03707275 0.013087509 -0.036415193 0.08115669 0.047417395
0.1197202 0.08270401 0.04848976 0.022730108 -0.015624331 0.07448842 0.018501887 -0.053403173
0.037008278 0.077192865 0.07023447 0.070621826 0.0292105 -0.023707993 -0.021256872 0.104003586
0.04712663 -0.07937782 0.009942116 0.009186 -0.0016847369 0.015139374 -0.062125392 -0.041603964
-0.049810547 -0.049003374 0.00398588 -0.037421376 0.057765007 0.008756945 -0.06896173 -0.06688108
0.027570847 -0.0020954562 0.062893264 0.07336009 0.009449879 -0.008841703 -0.06349846 0.059253156
0.03278717 -0.07078174 0.0030223222 0.05770179 -0.0453559 0.0036202448 0.041990418 0.017581165
0.0482809 0.021613965 0.045028258 -0.050559968 0.036642842 -0.025021795 0.111902595 -0.047993347
0.0070446087 -0.038923487 0.047378384 0.0064744684 0.02948545 -0.007124117 0.052972395 0.037212446
0.001399452 0.04646712 -0.06349504 -0.022664873 0.010164343 0.051907513 0.035573874 -0.048864067
-0.0050862264 0.02263588 0.062288623 -0.030863917 0.041401334 0.034343243 0.073110975 0.010176945
0.007931639 0.014817995 0.012801633 -0.024422873 -0.020382864 0.08866776 0.06621893 0.0086419275
-0.006070499 0.01165719 -0.015696347 -0.067889936 -0.016509006 0.017999077 -0.013503684 -0.0013210019
0.0018502118 0.0021314025 -0.016604785 0.06578133 0.0078524 0.042221814 0.051089607 -0.051629238
-0.05480564 0.02315665 0.08118907 -0.063081495 0.0019003571 0.024455292 0.052336067 0.024298087
0.039184783 -0.06597488 0.027011003 0.116038345 0.03994212 -0.062154233 -0.0075218775 0.063071504
0.021898298 -0.060504813 0.050599575 0.014846181 0.032525472 -0.08540542 0.031948984 0.046938322
0.04869285 0.01277992 0.037671454 0.02137568 0.032707326 0.05413451 -0.064627126 -0.0869247
-0.031866368 0.03302665 -0.0068273605 0.044630706 -0.034828685 -0.04136239 0.033350874 0.029935349
0.060630154 0.009299675 -0.00011182173 0.0006917661 0.00020548842 -0.009434341 0.109371886 0.0876744
0.035426468 0.067328826 0.0125284 0.073751256 0.029460924 -0.11784633 -0.054664753 0.021780245
0.023569264 -0.098500356 -0.0927195 -0.05795966 -0.057075858 -0.1263038 0.09520192 0.1040024
-0.040622965 -0.06783012 -0.074516326 -0.14206196 -0.03434838 -0.012138998 0.0926945 -0.008878663
-0.0053822044 0.05508673 0.009065574 0.052043043 -0.011445468 -0.076662414 0.008532676 0.02592359
0.017174814 -0.097407624 0.032815408 0.019390834 -0.008660064 0.061666343 0.04207462 0.060227323
0.0858602 0.06981243 -0.03479876 0.10729055 -0.062338337 0.019904932 0.017216334 0.08514689
-0.048316095 0.10063949 -0.18977521 -0.010777879 -0.047402132 0.029878668 0.07101362 0.10660907
-0.004214674 0.08260827 0.04957315 -0.069260776 0.010234689 0.09288969 -0.12521909 0.031140119
-0.0058848783 0.07014261 0.0056744856 -0.002164311 -0.059353497 -0.02404857 0.08186288 0.04528091
0.07004195 0.0016643272 0.095217414 -0.057007782 0.08380159 -0.12336277 -0.031361114 -0.025506366
-0.10139138 -0.05892811 -0.01849704 0.13220365 0.07521649 0.07907211 -0.02585421 -0.041106507
0.07799447 -0.056009848 0.0024563507 -0.053695757 0.01322242 -0.011871622 0.027671257 -0.114118055
00000000: 6cdb 893d 8551 133d 5d66 adbc 99d9 17bd
00000010: fe6c 563c 1928 15bd 7b35 a63d be38 423d
00000020: dd2f f53d b860 a93d 339d 463d 7e34 ba3c
00000030: 32fd 7fbc 628d 983d 4591 973c 49bd 5abd
00000040: fe95 173d 4b17 9e3d 17d7 8f3d 2da2 903d
00000050: dc4a ef3c 4437 c2bc e422 aebc d5ff d43d
00000060: da07 413d d790 a2bd 42e4 223c e080 163c
00000070: 64d2 dcba 230b 783c 3277 7ebd eb68 2abd
00000080: 2506 4cbd c3b7 48bd fc9b 823b 2847 19bd
00000090: 009b 6c3d 4a79 0f3c cf3b 8dbd f3f8 88bd
000000a0: 42dc e13c ec53 09bb 2fce 803d d13d 963d
000000b0: aad3 1a3c cadc 10bc 7b0b 82bd 70b3 723d
000000c0: d74b 063d 04f6 90bd 2712 463b b658 6c3d
000000d0: 1cc7 39bd a141 6d3b 25fe 2b3d 6006 903c
000000e0: 31c2 453d c50f b13c 8d6f 383d f817 4fbd
000000f0: ce16 163d 82fa ccbc 302d e53d ac94 44bd
00000100: 76d6 e63b 3c6e 1fbd d60f 423d c727 d43b
00000110: 788b f13c 6d71 e9bb 95f9 583d 146c 183d
00000120: d16d b73a 4f54 3e3d b009 82bd afab b9bc
00000130: 5888 263c f99c 543d e9b5 113d b025 48bd
00000140: 5caa a6bb e26e b93c 5b22 7f3d 53d6 fcbc
00000150: 7294 293d 80ab 0c3d 35bb 953d 33bd 263c
00000160: b5f3 013c 2dc7 723c f1bd 513c 7a12 c8bc
00000170: f7f9 a6bc 7197 b53d ca9d 873d df96 0d3c
00000180: 09eb c6bb ccfd 3e3c a095 80bc e109 8bbd
00000190: e53d 87bc cd72 933c 8e3e 5dbc 7825 adba
000001a0: ce82 f23a 00af 0b3b c206 88bc 5db8 863d
000001b0: 5aa7 003c c8f0 2c3d 5643 513d 2e79 53bd
000001c0: e17b 60bd 04b3 bd3c 7546 a63d df30 81bd
000001d0: 6715 f93a 7756 c83c 585e 563d c80c c73c
000001e0: 3980 203d d61d 87bd 2e46 dd3c 83a5 ed3d
000001f0: 599a 233d 7095 7ebd 157a f6bb a22b 813d
00000200: 0f64 b33c e5d3 77bd 8041 4f3d 653d 733c
00000210: 6e39 053d 09e9 aebd f0dc 023d 6642 403d
00000220: 2772 473d df62 513c 624d 1a3d 0d1c af3c
00000230: 1ef8 053d 26bc 5d3d 3a5b 84bd 9405 b2bd
00000240: 4f86 02bd f446 073d 0db8 dfbb b0ce 363d
00000250: 86a8 0ebd 9c6b 29bd ed9a 083d fa3a f53c
00000260: 5357 783d aa5d 183c d681 eab8 a357 353a
00000270: 6178 5739 7f92 1abc 5efe df3d a38e b33d
00000280: 581b 113d b2e3 893d eb43 4d3c e60a 973d
00000290: 0958 f13c 6b59 f1bd 26e8 5fbd 7c6c b23c
000002a0: 5414 c13c 8eba c9bd b9e3 bdbd 1c67 6dbd
000002b0: 60c8 69bd c955 01be 39f9 c23d 36ff d43d
000002c0: 4464 26bd 85ea 8abd 049c 98bd b178 11be
000002d0: e3b0 0cbd a6e2 46bc 9dd6 bd3d d077 11bc
000002e0: 345d b0bb 9fa2 613d c687 143c 162b 553d
000002f0: c685 3bbc 2f01 9dbd a3cc 0b3c b55d d43c
00000300: 32b2 8c3c a67d c7bd 7369 063d 87d9 9e3c
00000310: f1e2 0dbc d995 7c3d 7056 2c3d edb0 763d
00000320: 79d7 af3d d2f9 8e3d 2589 0ebd 26bb db3d
00000330: 7c56 7fbd ab0f a33c 4509 8d3c 7e61 ae3d
00000340: 19e7 45bd 141c ce3d 6f54 42be b395 30bc
00000350: bd28 42bd 1cc4 f43c 976f 913d db55 da3d
00000360: 3f1b 8abb 862e a93d 370d 4b3d 98d8 8dbd
00000370: 66af 273c f33c be3d 6f39 00be 9019 ff3c
00000380: f0d5 c0bb eea6 8f3d 09f1 b93b 1dd7 0dbb
00000390: a71c 73bd 8201 c5bc baa7 a73d 7a78 393d
000003a0: 2772 8f3d 8e25 da3a 5901 c33d fe80 69bd
000003b0: 2ba0 ab3d 9fa5 fcbd 8374 00bd baf2 d0bc
000003c0: 49a6 cfbd 9a5e 71bd 1b87 97bc 6560 073e
000003d0: 1a0b 9a3d 8ff0 a13d 35cc d3bc 4c5f 28bd
000003e0: 91bb 9f3d 956a 65bd bafa 203b 15f0 5bbd
000003f0: d9a2 583c 3181 42bc d5ae e23c bab6 e9bd

bias f4 [40]
-0.070182584 -0.01402252 -0.07169221 0.11444641 0.06179112 0.1286118 -0.082336254 0.10501165
0.021373069 0.01783837 -0.012770265 0.10488527 0.07438684 0.027699644 -0.07513428 0.02434402
-0.08085304 0.15086854 -0.09015511 0.040172048 -0.12680788 0.15698057 0.04758409 0.0696443
-0.18156259 -0.030513478 0.089143895 -0.06607252 -0.20154956 0.025697716 -0.17671171 0.17006968
-0.03090467 0.10378 0.01043544 -0.21544416 0.28318712 0.07658058 0.03061536 -0.009525718
00000000: e3bb 8fbd b6be 65bc 5ed3 92bd e162 ea3d
00000010: af18 7d3d d0b2 033e e99f a8bd 5910 d73d
00000020: 9316 af3c c621 923c 603a 51bc 17ce d63d
00000030: 2158 983d 5dea e23c 00e0 99bd 1c6d c73c
00000040: 4796 a5bd 487d 1a3e 3ea3 b8bd 728b 243d
00000050: edd9 01be 84bf 203e 89e7 423d aca1 8e3d
00000060: 8beb 39be 67f7 f9bc 1391 b63d 0851 87bd
00000070: 0263 4ebe 0484 d23c eaf3 34be bf26 2e3e
00000080: ca2b fdbc 9c8a d43d 68f9 2a3c 659d 5cbe
00000090: e7fd 903e 47d6 9c3d 10cd fa3c c211 1cbc

weight f4 [40, 40, 3]
0.078066334 -0.11941806 0.019081647 -0.07763493 -0.072096616 0.14133224 0.34404173 0.8311705
0.046823993 -0.14061837 0.2931196 -0.22868726 0.17563501 0.014790492 -0.14745948 -0.13134395
0.07225769 -0.03049695 0.0033448522 0.052075315 0.076380745 -0.2387325 -0.0889579 -0.11965688
-0.11600358 -0.015210628 -0.11459967 0.13453779 -0.050662596 0.15137851 0.06617543 -0.017341139
-0.0030110462 0.0580459 -0.046444252 -0.11812107 0.17929372 0.20812619 0.12746274 0.17198455
0.06158694 -0.124235965 0.08446541 0.0001769251 0.105274454 0.051806517 -0.087510005 0.041100487
-0.33794326 0.17022038 0.17306548 0.15866762 0.034114342 0.04842211 0.1748598 -0.20772237
0.08976883 -0.18356523 0.050466947 -0.0013767091 -0.061299335 0.100960806 -0.013474302 -0.11534831
-0.27675524 0.0034943111 -0.00023666576 0.21136677 -0.03415899 -0.09459193 -0.025459202 -0.12434303
-0.13038659 0.06763437 0.074394494 -0.04371962 0.33687127 -0.03669817 0.097428866 -0.024002941
-0.08276444 0.07690821 0.11116242 0.057665363 0.044760596 -0.11173599 0.110584304 -0.15079887
-0.0113496 -0.2812233 -0.16960894 -0.23122393 0.14612727 -0.2195967 0.026708411 0.21740241
-0.048748985 0.52796376 -0.105172776 0.13280953 -0.003781751 0.03135551 0.011464105 -0.040465914
0.016255481 0.026146604 0.25660062 0.0531536 0.052213304 0.019757064 0.05421318 0.05039074
0.13237655 -0.26265946 -0.01803556 -0.21429859 0.09571988 0.0054176627 -0.43824348 0.09582724
0.0015017075 -0.00575175 -0.047842514 0.062085092 -0.13271166 -0.0755045 -0.32913378 0.29764605
-0.30990326 -0.25138086 -0.018918466 -0.2383106 0.018050674 0.13096842 -0.086824685 0.004092321
-0.09520314 -0.117328234 0.29196543 0.21787028 -0.21776718 0.18939158 -0.057513773 -0.13265531
-0.20293795 -0.036076106 -0.6113308 0.13760872 -0.19868961 0.089334995 0.022389326 0.012495428
-0.19449311 -0.096731625 0.31199163 0.06458605 -0.10867244 -0.061952062 -0.16237195 -0.025221156
0.09629238 0.015123653 0.2008553 0.11856911 -0.07683793 -0.149174 -0.18992487 0.07351668
0.094379544 -0.025705144 0.39392012 0.13449776 0.14574286 -0.038663656 0.09796897 -0.05092686
-0.041040953 0.1340452 0.046809968 -0.2540069 -0.07351007 -0.36981344 0.02444647 0.14168185
-0.28301504 -0.051898308 -0.15180662 0.06047953 0.23130225 0.030056216 0.018033452 -0.058979467
0.16975288 -0.03233332 -0.2669714 -0.21534462 0.025905322 -0.15558471 -0.14836289 -0.022689745
0.1660987 0.0651085 -0.026262078 -0.062193464 0.20923685 -0.0032514092 0.17842616 -0.0020014257
-0.2644713 -0.10081705 -0.18416148 -0.15662396 0.012468622 0.031105932 -0.42835107 0.0707374
0.3063766 -0.21285804 -0.17757635 0.0065392703 -0.012064942 -0.25848597 0.1333047 -0.15969421
-0.23019919 -0.066762246 0.2555093 0.21198435 0.020811554 -0.60439456 0.36054757 -0.13588805
0.12714213 0.106502086 0.030725457 -0.31384948 0.10757059 -0.20217831 -0.1860885 -0.4741038
0.025803635 0.11933063 -0.056864385 -0.008791953 0.003613964 -0.031923648 0.26210207 0.024282806
-0.13973475 -0.43208033 -0.03087509 -0.5166486 -0.34837377 -0.49236056 -0.27797043 0.040504355
00000000: 3ee1 9f3d 7591 f4bd 1d51 9c3c 10ff 9ebd
00000010: 64a7 93bd 66b9 103e 3d26 b03e 97c7 543f
00000020: 84ca 3f3d 43fe 0fbe c613 963e fe2c 6abe
00000030: aad9 333e d253 723c 9eff 16be 077f 06be
00000040: d7fb 933d bdd4 f9bc 4f35 5b3b ed4c 553d
00000050: 826d 9c3d 4b76 74be 8f2f b6bd ab0e f5bd
00000060: 4993 edbd ff35 79bc 3bb3 eabd 46c4 093e
00000070: 9583 4fbd f802 1b3e fc86 873d 010f 8ebc
00000080: f954 45bb 8ac1 6d3d 543c 3ebd 76e9 f1bd
00000090: c698 373e 081f 553e 9885 023e b81c 303e
000000a0: 9642 7c3d 6d6f febd 33fc ac3d f884 3939
000000b0: 229a d73d 1233 543d 7238 b3bd fc58 283d
000000c0: e606 adbe 404e 2e3e 1438 313e c479 223e
000000d0: 7bbb 0b3d 4356 463d 730e 333e 2cb5 54be
000000e0: b8d8 b73d 86f8 3bbe 6eb6 4e3d b172 b4ba
000000f0: 0315 7bbd 8ac4 ce3d 52c3 5cbc bc3b ecbd
00000100: ddb2 8dbe d000 653b 7b29 78b9 8870 583e
00000110: 4cea 0bbd 6ab9 c1bd d18f d0bc 8fa7 febd
00000120: 1084 05be e383 8a3d 245c 983d 5813 33bd
00000130: 647a ac3e d250 16bd c988 c73d d1a1 c4bc
00000140: 6780 a9bd 0d82 9d3d 1fa9 e33d 8432 6c3d
00000150: e356 373d d7d5 e4bd 067a e23d 056b 1abe
00000160: acf3 39bc 80fc 8fbe f7ad 2dbe f7c5 6cbe
00000170: 63a2 153e f5dd 60be 99cb da3c bd9e 5e3e
00000180: 04ad 47bd a228 073f d364 d7bd 39ff 073e
00000190: 41d7 77bb a36e 003d f1d3 3b3c 96bf 25bd
000001a0: 372a 853c 6731 d63c 2861 833e 97b7 593d
000001b0: 9edd 553d 91d9 a13c a40e 5e3d 8566 4e3d
000001c0: b88d 073e 4d7b 86be 50bf 93bc 1771 5bbe
000001d0: c908 c43d a686 b13b 7361 e0be 1241 c43d
000001e0: f1d4 c43a 2d79 bcbb 83f6 43bd f04c 7e3d
000001f0: 91e5 07be 1aa2 9abd 3984 a8be 1065 983e
00000200: a4ab 9ebe feb4 80be e6fa 9abc b207 74be
00000210: 02df 933c 961c 063e 24d1 b1bd e018 863b
00000220: ddf9 c2bd c949 f0bd 7e7c 953e 6319 5f3e
00000230: 5cfe 5ebe deef 413e 9093 6bbd cbd6 07be
00000240: f7ce 4fbe 8ac4 13bd 2d80 1cbf 4de9 0c3e
00000250: 4a75 4bbe 44f5 b63d d269 b73c a0b9 4c3c
00000260: 3429 47be 3b1b c6bd 5ebd 9f3e b145 843d
00000270: a88f debd 72c1 7dbd d544 26be 999c cebc
00000280: f034 c53d 33c9 773c 03ad 4d3e 5dd4 f23d
00000290: 345d 9dbd 12c1 18be aa7b 42be ea8f 963d
000002a0: 104a c13d 9893 d2bc e6af c93e c8b9 093e
000002b0: 9e3d 153e c85d 1ebd f5a3 c83d af98 50bd
000002c0: 8f1a 28bd 2543 093e cfbb 3f3d 310d 82be
000002d0: 738c 96bd 3058 bdbe f743 c83c 0c15 113e
000002e0: 59e7 90be 5293 54bd 3273 1bbe 62b9 773d
000002f0: 7fda 6c3e 7438 f63c e4ba 933c 7494 71bd
00000300: b3d3 2d3e f16f 04bd 7ab0 88be 4d83 5cbe
00000310: 6637 d43c 9951 1fbe 71ec 17be d8df b9bc
00000320: c715 2a3e 9b57 853d 9223 d7bc 93be 7ebd
00000330: 2f42 563e 9815 55bb 59b5 363e 5a2a 03bb
00000340: c868 87be 2b79 cebd d494 3cbe 0862 20be
00000350: 3149 4c3c ded1 fe3c d550 dbbe c5de 903d
00000360: 65dd 9c3e 75f7 59be 93d6 35be 6047 d63b
00000370: 09ac 45bc 4658 84be 0781 083e e186 23be
00000380: 56b9 6bbe a5ba 88bd 1dd2 823e 6d12 593e
00000390: fe7c aa3c 9ab9 1abf b199 b83e 3d26 0bbe
000003a0: 8c31 023e c41d da3d f4b3 fb3c e1b0 a0be
000003b0: f84d dc3d d507 4fbe fc8d 3ebe bcbd f2be
000003c0: 2562 d33c 9e63 f43d a1ea 68bd 200c 10bc
000003d0: 41d8 6c3b 5fc2 02bd 3e32 863e bcec c63c
000003e0: a016 0fbe a239 ddbe c2ed fcbc 1543 04bf
000003f0: 0c5e b2be af16 fcbe 2452 8ebe e5e7 253d

bias f4 [40]
-0.021419246 0.29790753 0.2669186 0.04343128 0.11172421 0.4133121 0.023211367 0.122788936
0.03297749 -0.1216339 -0.05021642 0.12498342 0.16221435 0.13296187 0.050780118 0.38762227
0.015255705 0.0856652 0.022196624 0.0258005 0.1474881 0.044200193 -0.70915055 0.09060977
0.10983497 0.15260234 0.25118652 -0.14290582 -0.0014792634 -0.083415434 0.03841373 -0.5066061
0.2108707 0.2198773 0.12549263 0.10514458 0.1434834 0.21653032 0.123523414 -0.120477736
00000000: 6a77 afbc 5687 983e 8ea9 883e ffe4 313d
00000010: aacf e43d a59d d33e c425 be3c c478 fb3d
00000020: 6813 073d 321b f9bd bcaf 4dbd 4ff7 ff3d
00000030: 851b 263e 2827 083e d0fe 4f3d 6d76 c63e
00000040: 11f3 793c 3d71 af3d b2d5 b53c 925b d33c
00000050: 1f07 173e 430b 353d e48a 35bf 9d91 b93d
00000060: 28f1 e03d ca43 1c3e 859b 803e e755 12be
00000070: d8e3 c1ba b6d5 aabd b757 1d3d f0b0 01bf
00000080: 7dee 573e 8427 613e 2481 003e 0b56 d73d
00000090: 50ed 123e 20ba 5d3e d8f9 fc3d 08bd f6bd

weight f4 [40, 40, 3]
0.0051282807 -0.16190611 0.0021050847 -0.008497299 -0.045178995 0.051805012 0.071857095 0.10864583
-0.06561445 0.10654073 0.13894643 0.12142407 0.15363172 0.07225049 -0.0012679765 0.07168647
-0.09069555 0.06463302 0.13178489 0.2222145 0.100131854 -0.055713277 0.027169459 0.21833722
0.035409536 0.019576618 0.15194336 0.009408593 -0.017697133 0.025351083 0.18770473 -0.024321424
0.06261528 0.06398554 0.13840818 0.03370807 -0.019439632 -0.052394055 -0.23890959 -0.008235233
-0.03547164 -0.10416116 0.067296654 0.049184393 -0.051845826 0.04522799 0.010019754 0.0660912
-0.16048694 -0.35772485 0.08397609 0.043170612 0.055858053 0.02465732 0.14064415 -0.08689586
0.0014029817 0.006003608 0.016057802 0.15969309 0.05871255 0.06732655 0.030398421 -0.0771172
0.15758334 -0.2034594 0.0549188 -0.091753006 -0.08977263 0.011672486 -0.048691068 0.06674455
-0.0074951984 0.053501274 -0.040566064 -0.025523221 -0.101145685 -0.060121957 -0.04367981 0.018692208
-0.014784303 0.18438233 0.016820284 -0.034994915 -0.11297899 0.13683116 -0.09436043 0.059997395
0.08938075 0.042056024 0.14654715 -0.12262726 0.3881969 -0.06551329 0.06413484 0.067782834
-0.08404019 0.017627075 0.05569478 0.14123827 0.029641014 0.14225763 -0.00040446402 -0.016510181
0.06943082 0.010364128 0.06561137 0.084545374 0.202086 0.11724402 -0.03589792 -0.07069951
-0.057557624 0.0068609295 -0.031475693 0.13352376 0.0057180896 -0.032547113 -0.018503048 -0.066892855
-0.082290724 -0.0027639498 -0.08210188 0.0025965108 -0.012911836 -0.0062508304 -0.07117723 -0.10265213
-0.05104694 -0.05508184 -0.031564757 0.059128847 0.09336797 0.034200262 0.033717725 0.04027995
-0.09823486 -0.12236619 -0.027994784 -0.052538358 -0.08542708 -0.032171953 0.0050698197 0.0072627286
-0.005529933 0.016179264 0.0029777798 -0.0002305507 -0.07524488 -0.07718723 -0.1153996 -0.055534292
0.017965823 0.030148469 -0.04472873 -0.10138759 -0.0801479 0.065220326 -0.021033349 -0.075235404
0.021672532 -0.057629533 -0.035538863 -0.07149461 -0.08389996 0.020747513 -0.06647957 0.04215008
-0.06577313 0.04517094 -0.030393824 -0.104152136 -0.100722164 -0.05539077 0.038084086 -0.0826329
-0.046869133 -0.026822569 -0.11681011 0.03913275 -0.004086304 -0.05655171 -0.05671243 -0.054766573
0.0037893748 0.0022326983 -0.02917351 0.0410884 0.03132408 -0.065872185 -0.057589367 -0.03879541
0.0013624452 0.031124977 -0.028196877 0.031240294 0.012966705 0.0034432325 -0.0074756104 -0.057981506
0.019863833 0.06513636 -0.031326547 -0.104164205 -0.10183378 -0.04395594 -0.004109924 -0.066692606
0.026183715 -0.018254677 -0.088749476 -0.053585783 -0.016907383 -0.036264412 0.021160679 0.046153814
-0.02432912 -0.060740847 -0.019317498 -0.054743186 0.03856207 -0.07097081 -0.08202675 -0.009257646
-0.11213889 -0.034255575 0.001278769 -0.091091685 -0.09712332 0.03637832 -0.077323884 -0.09204063
-0.11105129 -0.07821748 0.013545972 -0.088294886 -0.092422076 -0.04858076 -0.05298803 -0.03419404
-0.079534896 -0.05829142 -0.10584513 -0.0777502 0.16172649 -0.13520586 -0.3383381 0.07897004
-0.056360897 -0.061053865 -0.49320763 -0.023692679 0.00663888 -0.36441547 0.36774552 0.1684677
00000000: 230b a83b b7ca 25be 76f5 093b 4138 0bbc
00000010: 9c0d 39bd 7e31 543d d029 933d b481 de3d
00000020: de60 86bd 0732 da3d f947 0e3e 2fad f83d
00000030: a251 1d3e 11f8 933d 3b32 a6ba 5bd0 923d
00000040: 97be b9bd 515e 843d 9ef2 063e 338c 633e
00000050: ee11 cd3d 9b33 64bd 7c92 de3c cb93 5f3e
00000060: 9709 113d 255f a03c 0a97 1b3e 8026 1a3c
00000070: 94f9 90bc 13ad cf3c ab35 403e b93d c7bc
00000080: 713c 803d da0a 833d e0ba 0d3e 7911 0a3d
00000090: dd3f 9fbc 269b 56bd b7a4 74be 12ed 06bc
000000a0: b64a 11bd 7252 d5bd d4d2 893d 9375 493d
000000b0: 4a5c 54bd fc40 393d e529 243c d35a 873d
000000c0: b056 24be b627 b7be a8fb ab3d abd3 303d
000000d0: 6acb 643d 26fe c93c 0505 103e 75f6 b1bd
000000e0: 41e4 b73a eab9 c43b a78b 833c 9686 233e
000000f0: 927c 703d 81e2 893d 1c06 f93c 9fef 9dbd
00000100: 875d 213e a957 50be 89f2 603d 00e9 bbbd
00000110: b6da b7bd f43d 3f3c 4970 47bd 5eb1 883d
00000120: 489a f5bb 2724 5b3d 9a28 26bd 1316 d1bc
00000130: 7825 cfbd 7142 76bd 9ae9 32bd 6720 993c
00000140: dc39 72bc b9ce 3c3e b1ca 893c d456 0fbd
00000150: 8761 e7bd 781d 0c3e 0b40 c1bd d4bf 753d
00000160: 410d b73d f042 2c3d 7510 163e 0024 fbbd
00000170: bec1 c63e d52b 86bd 2159 833d bad1 8a3d
00000180: 431d acbd a866 903c 3620 643d c4a0 103e
00000190: b6d1 f23c fcab 113e 3e0e d4b9 5c40 87bc
000001a0: bf31 8e3d 4ece 293c 415f 863d 2026 ad3d
000001b0: a2ef 4e3e a21d f03d b309 13bd e8ca 90bd
000001c0: 8bc1 6bbd a6d1 e03b a8ec 00bd 74ba 083e
000001d0: d05e bb3b 1f50 05bd b493 97bc 1fff 88bd
000001e0: 0a88 a8bd 6223 35bb 0825 a8bd 392a 2a3b
000001f0: 2a8c 53bc c4d3 ccbb 5ec5 91bd 483b d2bd
00000200: 9916 51bd 7f9d 61bd 0c4a 01bd 1731 723d
00000210: b537 bf3d 9315 0c3d 991b 0a3d 97fc 243d
00000220: 5c2f c9bd 209b fabd 5155 e5bc 7632 57bd
00000230: 65f4 aebd bdc6 03bd bb20 a63b 2ffc ed3b
00000240: 7134 b5bb 608a 843c db26 433b fbbf 71b9
00000250: fd19 9abd 5714 9ebd a056 ecbd ed77 63bd
00000260: 102d 933c ecf9 f63c 7935 37bd 4ca4 cfbd
00000270: 9524 a4bd 3c92 853d 214e acbc 0515 9abd
00000280: 988a b13c f20c 6cbd 3391 11bd c46b 92bd
00000290: bed3 abbd b0f6 a93c 7126 88bd 90a5 2c3d
000002a0: 10b4 86bd 2a05 393d 78fc f8bc b74d d5bd
000002b0: 6c47 cebd 6fe1 62bd 0ffe 1b3d 703b a9bd
000002c0: d9f9 3fbd 01bb dbbc 243a efbd aa49 203d
000002d0: 67e6 85bb c4a2 67bd 4b4b 68bd ea52 60bd
000002e0: 2957 783b 7652 123b 49fd eebc 4f4c 283d
000002f0: ae4d 003d ffe7 86bd d4e2 6bbd f0e7 1ebd
00000300: 1394 b23a cff9 fe3c 23fd e6bc a5eb ff3c
00000310: 4d72 543c dba7 613b f7f5 f4bb 047e 6dbd
00000320: 7ab9 a23c 3666 853d 4450 00bd 0b54 d5bd
00000330: 3b8e d0bd 250b 34bd 8bac 86bb 2296 88bd
00000340: 3b7f d63c d58a 95bc 49c2 b5bd c47c 5bbd
00000350: 5a81 8abc fe89 14bd 2959 ad3c c80b 3d3d
00000360: dd4d c7bc 65cb 78bd bb3f 9ebc 643a 60bd
00000370: 43f3 1d3d 2559 91bd a4fd a7bd 62ad 17bc
00000380: 13a9 e5bd 934f 0cbd 5e9c a73a 478e babd
00000390: 97e8 c6bd 6f01 153d fc5b 9ebd cc7f bcbd
000003a0: dc6e e3bd 7c30 a0bd edef 5d3c f3d3 b4bd
000003b0: c947 bdbd 9efc 46bd fa09 59bd 0d0f 0cbd
000003c0: 31e3 a2bd fcc2 6ebd 55c5 d8bd 7f3b 9fbd
000003d0: a19b 253e 6873 0abe a73a adbe 0bbb a13d
000003e0: afda 66bd 9e13 7abd b685 fcbe 2617 c2bc
000003f0: f68a d93b aa94 babe 2449 bc3e cc82 2c3e

bias f4 [40]
0.0052523664 0.0068891086 0.1478467 0.04538061 -0.08713505 0.46790832 -0.02129001 -0.0051492085
-0.12673196 -0.33762532 -0.029079359 -0.1303847 -0.033846788 -0.2579763 0.2535727 0.12337028
-0.14258368 -0.020955691 -0.03345535 -0.04786604 -0.5426116 0.0100052385 -0.0010911952 0.074048266
0.022825697 -0.047759634 0.100660995 -0.057011634 -0.039277926 -0.023993563 0.0036362866 0.3887552
0.0935001 0.17806518 -0.10001784 -0.0727649 0.12153712 0.27333057 0.13160142 -0.4518327
00000000: 0b1c ac3b 08be e13b 2065 173e 05e1 393d
00000010: dc73 b2bd ae91 ef3e 6368 aebc b1ba a8bb
00000020: 06c6 01be 3add acbe d637 eebc 9183 05be
00000030: eea2 0abd 7815 84be 48d4 813e 8fa9 fc3d
00000040: 7501 12be 45ab abbc 7a08 09bd 2e0f 44bd
00000050: 98e8 0abf 03ed 233c 6f06 8fba 9ea6 973d
00000060: f5fc ba3c 9b9f 43bd 5a27 ce3d 0885 69bd
00000070: e4e1 20bd 268e c4bc c44e 6e3b ec0a c73e
00000080: fb7c bf3d b856 363e 27d6 ccbd c405 95bd
00000090: 74e8 f83d fcf1 8b3e 86c2 063e 9e56 e7be

weight f4 [20, 40, 3]
-0.36388037 -0.18151456 -0.3208781 -0.2515007 0.21307082 0.21423161 -0.30374482 0.38811696
0.5269462 0.22799751 0.044108022 0.14542964 0.071544334 0.2829149 0.14799677 -0.027815646
-0.1958142 -0.0053480817 0.16239396 0.090157844 -0.09519332 -0.052991245 0.12474524 0.12742817
-0.19098079 0.07835168 0.20461658 -0.23131047 -0.21268445 -0.16804542 0.1783524 -0.11092435
-0.0767927 0.17388451 -0.09718616 0.17315498 0.03708573 0.038524523 0.105182156 -0.031193202
-0.1880713 -0.111798905 -0.03266136 0.0071888654 -0.024876313 0.20406206 0.08922689 0.09854308
0.057077456 0.017780092 0.08011829 -0.20821765 0.059383746 -0.065946594 0.12062129 0.047275953
0.038776476 0.0889396 0.053088475 0.08106545 -0.15749861 -0.00532649 0.060290616 -0.05768464
0.15370405 0.0013103101 -0.16947487 -0.23793657 -0.16970913 0.079232335 -0.010790714 -0.22348136
0.1665478 0.049528968 0.16872782 0.17973533 0.11360743 0.22970177 -0.012525541 0.06998749
0.09372443 -0.0969357 0.07147955 -0.14266627 -0.13579223 0.11527089 -0.04127148 0.033054873
-0.104171 -0.1196554 -0.029881092 0.21917266 0.0021202664 0.04707098 -0.28081793 -0.25700483
-0.043785598 0.07706513 -0.37077835 0.09486703 -0.06617914 0.07148298 -0.2999385 -0.24307536
-0.055887274 0.04153957 -0.02361517 -0.007043616 0.22768675 -0.07299174 -0.15323442 -0.18626109
-0.07946396 0.04702542 0.1487584 -0.21323347 -0.31818038 -0.008401037 -0.0704754 0.2949727
0.023706185 0.07649673 0.07856327 0.010435491 -0.19075054 -0.00846313 -0.24025427 0.31073672
0.16310836 0.22091807 0.2512973 -0.2194279 -0.14684136 -0.13685298 -0.10822669 0.1973202
0.13404626 0.15934917 0.07355876 -0.06812527 0.11211028 -0.08502961 -0.10631661 -0.16049042
0.09814434 -0.10352054 -0.18933882 0.02690699 0.040699556 0.073749684 -0.14168768 0.005661624
-0.027609477 0.4425568 0.0150606185 -0.161226 -0.0016204442 -0.00864543 -0.040743258 0.114924915
-0.0865794 0.08144492 -0.026275929 0.10314526 0.024023363 0.002670834 0.08437973 0.15607
-0.028356675 0.06649799 -0.19695124 0.07786991 -0.0023528603 0.13181356 -0.20009284 0.023322739
-0.13630578 0.07978185 -0.10886755 -0.040001336 -0.29469883 -0.20014393 -0.1802987 0.0008588277
0.09578842 0.3444598 -0.015688324 0.090400435 -0.01408534 0.048108652 0.018237269 0.22381102
0.0009058729 0.043729596 0.054876823 0.0334523 0.05179492 -0.06523356 0.20289797 -0.031249594
0.11031964 0.11899609 -0.16122869 -0.05863103 -0.13765103 -0.12543459 -0.01908069 -0.095402464
-0.104913816 -0.03507375 0.10902832 0.07159297 -0.120404154 0.12752782 0.02753763 0.11269645
0.28041804 -0.19406997 0.020986224 -0.11068197 -0.14684473 0.15778928 0.14828257 -0.032550976
0.23315842 0.09303497 0.06263379 0.043605488 0.21028088 0.03787953 -0.08867097 0.1833556
0.16973567 -0.04237682 -0.009312481 -0.037472155 -0.085858084 -0.25254583 -0.12728934 0.102299064
-0.08190367 0.008117667 0.012878486 -0.009952686 -0.11085296 -0.06498627 0.31468296 0.18337364
0.08514242 -0.30343097 -0.07769066 0.18163556 0.041138396 -0.19946492 0.038553774 -0.051301166
00000000: 874e babe f4de 39be 224a a4be b3c4 80be
00000010: 3d2f 5a3e 885f 5b3e 7184 9bbe 44b7 c63e
00000020: f2e5 063f 2e78 693e 9daa 343d 82eb 143e
00000030: d685 923d 39da 903e 778c 173e a3dd e3bc
00000040: 8583 48be f63e afbb 9a4a 263e ada4 b83d
00000050: b7f4 c2bd 590d 59bd 6f7a ff3d 887c 023e
00000060: 7890 43be d876 a03d 0287 513e a7dc 6cbe
00000070: f4c9 59be 1914 2cbe 03a2 363e 4e2c e3bd
00000080: 7e45 9dbd c80e 323e 8a09 c7bd 8a4f 313e
00000090: 35e7 173d e4cb 1d3d be69 d73d e388 ffbc
000000a0: c395 40be d3f6 e4bd ebc7 05bd 9390 eb3b
000000b0: 69c9 cbbc a5f5 503e 96bc b63d f4d0 c93d
000000c0: 0dca 693d 8ea7 913c 0f15 a43d 0237 55be
000000d0: 5f3c 733d 020f 87bd 4b08 f73d 6ea4 413d
000000e0: 15d4 1e3d f725 b63d 4d73 593d a505 a63d
000000f0: 5147 21be d689 aebb 4bf3 763d bb46 6cbd
00000100: 9864 1d3e b6be ab3a d28a 2dbe a5a5 73be
00000110: 3bc8 2dbe 9044 a23d 89cb 30bc 4cd8 64be
00000120: 828b 2a3e e3de 4a3d fcc6 2c3e 8a0c 383e
00000130: 03ab e83d f136 6b3e ed37 4dbc 9a55 8f3d
00000140: 98f2 bf3d 3986 c6bd df63 923d 1b17 12be
00000150: 1e0d 0bbe 2513 ec3d 490c 29bd 8c64 073d
00000160: 9b57 d5bd e40d f5bd 31c9 f4bc cc6e 603e
00000170: 2bf4 0a3b 80cd 403d 5ec7 8fbe 2396 83be
00000180: 8758 33bd 53d4 9d3d a9d6 bdbe a549 c23d
00000190: ee88 87bd ab65 923d 8a91 99be bfe8 78be
000001a0: 0eea 64bd 6525 2a3d 9a74 c1bc 22ce e6bb
000001b0: b726 693e b27c 95bd 7ce9 1cbe 3abb 3ebe
000001c0: 00be a2bd ba9d 403d 1f54 183e e059 5abe
000001d0: 8ae8 a2be 81a4 09bc 6855 90bd a906 973e
000001e0: 7933 c23c 51aa 9c3d c8e5 a03d 9ff9 2a3c
000001f0: 1c54 43be f1a8 0abc 3705 76be e218 9f3e
00000200: e105 273e 5938 623e 0aaa 803e b5b1 60be
00000210: 955d 16be 3023 0cbe f4a5 ddbd 4e0e 4a3e
00000220: 6c43 093e 6e2c 233e faa5 963d 4385 8bbd
00000230: 139a e53d 0124 aebd 86bc d9bd 9a57 24be
00000240: e6ff c83d 9402 d4bd 09e2 41be 0c6c dc3c
00000250: 94b4 263d 130a 973d 9316 11be 2585 b93b
00000260: 452d e2bc ce96 e23e d0c0 763c 6e18 25be
00000270: 1665 d4ba 90a5 0dbc 67e2 26bd c15d eb3d
00000280: 8a50 b1bd 98cc a63d 9e40 d7bc d23d d33d
00000290: a5cc c43c 2909 2f3b 48cf ac3d d0d0 1f3e
000002a0: 424c e8bc 1930 883d 96ad 49be 427a 9f3d
000002b0: 7232 1abb 22fa 063e 23e5 4cbe 540f bf3c
000002c0: be93 0bbe ab64 a33d f3f5 debd 71d8 23bd
000002d0: c4e2 96be 88f2 4cbe 39a0 38be f422 613a
000002e0: b82c c43d 095d b03e cd84 80bc dd23 b93d
000002f0: 33c6 66bc 940d 453d 5366 953c b72e 653e
00000300: 1a78 6d3a ce1d 333d 85c6 603d 4705 093d
00000310: e926 543d 2c99 85bd 7cc4 4f3e 26ff ffbc
00000320: 43ef e13d 39b4 f33d 2219 25be 1727 70bd
00000330: 64f4 0cbe ed71 00be 1b4f 9cbc 5e62 c3bd
00000340: 0edd d6bd 7ea9 0fbd 3d4a df3d 569f 923d
00000350: 7496 f6bd a796 023e 9996 e13c 65cd e63d
00000360: f492 8f3e 47ba 46be 4deb ab3c 3bad e2bd
00000370: 775e 16be 8393 213e 63d7 173e 2c54 05bd
00000380: 15c1 6e3e 1e89 be3d 2546 803d ab9b 323d
00000390: df53 573e 9127 1b3d 2099 b5bd 92c1 3b3e
000003a0: 30cf 2d3e 5193 2dbd 6093 18bc 677c 19bd
000003b0: 5dd6 afbd b04d 81be 2358 02be 2c82 d13d
000003c0: 1dbd a7bd f7ff 043c 4900 533c 9710 23bc
000003d0: e006 e3bd 8617 85bd 201e a13e 4dc6 3b3e
000003e0: 265f ae3d 4e5b 9bbe 481c 9fbd acfe 393e
000003f0: bc80 283d 8840 4cbe 90ea 1d3d 2c21 52bd

weight f4 [40, 20, 1]
-0.055071224 -0.12932093 0.1486152 0.10094886 0.11590187 -0.06843866 -0.18797371 0.057040688
-0.29004335 -0.42031723 0.09197277 -0.34585267 0.19970493 0.07901906 0.063756205 0.11592761
0.0019494733 0.09033198 -0.07828718 -0.40305647 0.95491576 0.2670381 -0.20175652 1.0429645
1.4185259 -0.17472902 -0.40711525 0.051281992 -0.014084094 -0.28419676 0.09075734 -0.27043056
0.37759784 0.2777187 -0.0031034718 1.724406 0.96926403 -0.9056241 0.13957645 -0.4238653
-0.1925504 0.21541046 -0.11052889 0.36279213 0.9957842 0.13073096 0.036930263 0.025915973
-0.050376516 -0.46960723 0.015829075 -0.63886166 -0.5022637 -0.50458395 0.28998578 1.1396426
0.7043584 -0.20386076 -0.66159326 0.19403437 -0.16665483 0.17557025 -0.084371515 -0.8760034
0.7405974 0.024026472 -0.06086617 -0.0450733 -0.46164083 0.14214249 0.0040793596 0.21576588
-0.09726588 -0.28428227 0.35784653 -0.23880221 0.04672928 -0.07154392 -0.9570026 0.17190674
0.28663868 -0.07029208 -0.19555081 0.72718203 0.17807052 -0.12124744 -0.15608165 0.14495337
-0.22178696 -0.3644408 -0.03674579 0.048707254 -0.066088855 0.14011703 -0.003870895 -0.00025792044
0.26241362 -0.08384689 0.080103494 0.047608968 -0.109062925 -0.0027883127 0.31894478 -0.20008534
-0.10848983 -0.15013163 0.17769463 -0.0069415467 -0.07411452 -0.39563745 -0.029194301 -0.17362678
-0.19348802 -0.23681399 0.12677036 -0.47635245 -0.20569867 -0.10981448 0.18193336 0.0493501
-0.09188894 -0.22119167 -0.022899218 -0.087941654 0.12217509 -0.3354865 0.249598 0.120224096
0.24205768 0.0031242208 0.23804666 -0.2823223 -0.17125799 0.0556111 -0.112306915 -0.20265763
-0.042612042 -0.16573186 0.14556125 -0.073749244 0.08556999 -0.05658866 -0.10960916 0.3779437
0.1513568 0.18662247 -0.11608743 0.05966393 -0.052762914 -0.074471034 0.21585047 -0.1792877
0.031926762 -0.14519422 -0.027623102 0.04146762 0.17698748 0.018062124 -0.28932956 0.20977761
-0.041559502 -0.0024075396 0.08533647 0.5188266 0.41430238 -0.1542876 -0.21976513 0.18817586
-0.51075876 -0.3897551 -0.05651851 0.0047886004 -0.21735118 -0.42849347 0.27777255 0.4699297
0.0747925 -0.34733394 -0.016493326 0.36148134 -0.9325187 0.15114085 -0.13069114 -0.1346635
-0.17587556 -0.040550627 -0.4392269 0.074647866 0.08253522 -0.00095921336 -0.04484786 -0.52039135
0.1259434 -0.15616257 0.20799944 -1.1261859 -0.9607732 0.3681383 0.09763788 -0.17926942
0.089126535 0.27761564 -0.73406935 0.25601774 0.2046118 -0.12710544 -0.10668764 -0.079294235
-0.1931495 -0.37548265 -0.20467682 0.4944031 -0.059808996 0.26457295 -0.26474282 -0.021799292
-0.18198167 -0.6725036 0.35219193 -0.46322867 -0.039701503 -0.27030593 -0.05632169 0.17977509
-0.0056876065 -0.08710636 0.21051359 -0.048793852 0.14280471 -0.24292883 0.038700704 0.44289628
0.18098722 -0.08531637 0.0018448976 0.5008011 -0.013730262 -0.14227858 -0.04956836 0.57928365
0.30017903 0.070543855 -0.58165157 0.38046587 0.56567466 -0.026225751 0.115730114 -0.14175516
-0.05261146 -0.76593286 -0.102894895 0.1902177 0.015215452 0.07585516 0.090577 0.243487
00000000: 5d92 61bd b56c 04be 952e 183e 47be ce3d
00000010: f65d ed3d 9129 8cbd 2e7c 40be 7fa3 693d
00000020: 9080 94be d233 d7be 385c bc3d 9a13 b1be
00000030: 737f 4c3e bfd4 a13d 9d92 823d 746b ed3d
00000040: 7885 ff3a f9ff b83d 0755 a0bd 6b5d cebe
00000050: 5c75 743f 38b9 883e 4399 4ebe dc7f 853f
00000060: 4292 b53f 2aec 32be 6971 d0be 110d 523d
00000070: f9c0 66bc 3d82 91be fcde b93d e075 8abe
00000080: 8154 c13e 2531 8e3e 9e63 4bbb 56b9 dc3f
00000090: b021 783f fbd6 67bf 21ed 0e3e df04 d9be
000000a0: ef2b 45be 8f94 5c3e f85c e2bd e4bf b93e
000000b0: b7eb 7e3f 56de 053e 3044 173d bc4d d43c
000000c0: 9b57 4ebd 5c70 f0be faab 813c 708c 23bf
000000d0: 5b94 00bf 6a2c 01bf 0479 943e cfdf 913f
000000e0: d550 343f e0c0 50be 2d5e 29bf f2b0 463e
000000f0: 90a7 2abe b0c8 333e f9ca acbd c241 60bf
00000100: cb97 3d3f 2ad3 c43c ce4e 79bd c89e 38bd
00000110: 305c ecbe cd8d 113e 26ac 853b bbf1 5c3e
00000120: 5533 c7bd 728d 91be a937 b73e 9188 74be
00000130: 3467 3f3d 9e85 92bd 1ffe 74bf 5208 303e
00000140: 4ec2 923e 4bf5 8fbd 793e 48be 9a28 3a3f
00000150: 1e58 363e 9450 f8bd ded3 1fbe a86e 143e
00000160: 1f1c 63be fc97 babe c182 16bd 4281 473d
00000170: 9859 87bd d77a 0f3e d7ae 7dbb 7f39 87b9
00000180: 145b 863e ebb7 abbd 4d0d a43d 9f01 433d
00000190: 625c dfbd 20bc 36bb bb4c a33e 2ce3 4cbe
000001a0: ea2f debd 1bbc 19be 95f5 353e ea75 e3bb
000001b0: 5ac9 97bd fe90 cabe e328 efbc 38cb 31be
000001c0: b921 46be 5e7f 72be 17d0 013e 78e4 f3be
000001d0: aca2 52be 6ae6 e0bd bd4c 3a3e 5523 4a3d
000001e0: 4530 bcbd 1280 62be 2497 bbbc c11a b4bd
000001f0: ef36 fa3d e3c4 abbe 9e96 7f3e 0d38 f63d
00000200: f8dd 773e babf 4c3b 81c2 733e 8c8c 90be
00000210: 415e 2fbe 77c8 633d 2b01 e6bd 7b85 4fbe
00000220: f789 2ebd 9db5 29be 020e 153e d809 97bd
00000230: 523f af3d 83c9 67bd c47a e0bd d681 c13e
00000240: 47fd 1a3e f619 3f3e 3fbf edbd 2a62 743d
00000250: ed1d 58bd 4584 98bd e807 5d3e 3297 37be
00000260: a3c5 023d cbad 14be d849 e2bc f3d9 293d
00000270: 353c 353e 05f7 933c 0123 94be f1cf 563e
00000280: 4c3a 2abd d0c7 1dbb e3c4 ae3d d2d1 043f
00000290: 711f d43e 92fd 1dbe 1c0a 61be 2cb1 403e
000002a0: 16c1 02bf fb8d c7be f47f 67bd b1e9 9c3b
000002b0: 4f91 5ebe 7f63 dbbe 3438 8e3e a09a f03e
000002c0: cf2c 993d c1d5 b1be 031d 87bc 1514 b93e
000002d0: 8cb9 6ebf abc4 1a3e e6d3 05be 3be5 09be
000002e0: b918 34be 6a18 26bd 59e2 e0be fbe0 983d
000002f0: 3a08 a93d b873 7bba 64b2 37bd 5e38 05bf
00000300: 4ff7 003e 15e9 1fbe cefd 543e dc26 90bf
00000310: 3cf5 75bf a07c bc3e 5ef6 c73d 6792 37be
00000320: f987 b63d a323 8e3e f8eb 3bbf c214 833e
00000330: c185 513e ee27 02be 0d7f dabd 0465 a2bd
00000340: fcc8 45be 433f c0be cd96 51be 6722 fd3e
00000350: 47fa 74bd 1b76 873e 5f8c 87be 6e94 b2bc
00000360: 6759 3abe 3229 2cbf 8052 b43e 4f2c edbe
00000370: 0b9e 22bd 8a65 8abe 93b1 66bd f616 383e
00000380: 1a5f babb d264 b2bd e090 573e 10dc 47bd
00000390: 663b 123e 56c2 78be a184 1e3d 4dc3 e23e
000003a0: b754 393e 59ba aebd 7ed0 f13a 8034 003f
000003b0: e5f4 60bc 7ab1 11be 3108 4bbd ef4b 143f
000003c0: 11b1 993e 4c79 903d 1ee7 14bf 6ccc c23e
000003d0: 0ed0 103f 63d7 d6bc e903 ed3d 4428 11be
000003e0: 1d7f 57bd 2d14 44bf 8fba d2bd 6ec8 423e
000003f0: 3b4a 793c f359 9b3d 6f80 b93d a854 793e
