models/model_300k_iters_st.pt (torch, 615612 bytes, 47 tensors)

_encoder._conv_1.weight f4 [40, 80, 3]
0.18221727 0.028403245 -0.32529926 0.34517783 -0.036546722 -0.06225909 0.15600508 0.051174786
-0.026045227 0.022654347 -0.09863201 -0.31748122 0.021668188 0.081383176 -0.07345122 0.010294594
-0.026823075 0.07189453 0.33740515 -0.028683346 -0.3625847 0.3076239 -0.035285074 -0.3590209
-0.122137435 -0.0525935 0.17623655 -0.066128574 0.0096031455 0.40153882 0.025636557 -0.14191818
-0.028476037 0.021074763 -0.118583016 -0.11716059 -0.3386466 -0.12544255 0.5089725 -0.2647654
-0.07005105 0.37930453 0.042775437 -0.014721531 -0.17385978 0.11400016 0.011680984 -0.07270148
0.09478735 0.1888731 -0.12716325 -0.17374311 0.16027673 0.15335919 -0.38322216 0.03421639
0.2939924 -0.13284315 0.19262299 0.07831322 0.27713722 0.030785862 0.057602335 0.2637701
-0.019691637 -0.02352367 -0.11965848 -0.09524404 0.00079836213 -0.26504707 0.1514736 -0.046204433
-0.036621816 0.17811836 0.14647834 -0.24840061 -0.056137968 0.18059985 -0.24359453 0.050627116
-0.08533268 -0.10830438 0.018475462 -0.08892155 0.21168205 0.06706661 -0.013186391 0.061987147
-0.11003495 0.22425327 -0.096892886 -0.31544536 -0.025671445 0.08935656 -0.28567585 -0.35621244
0.17268775 0.027317531 0.0027190573 0.34332854 0.057671346 0.13346827 0.14966227 0.0055691893
-0.23313263 -0.24647026 0.08560265 -0.17880163 -0.23128363 0.47672185 0.13604873 -0.29388753
0.18410985 0.15530121 -0.10066759 0.031563055 -0.039525267 -0.17398506 0.20797609 0.22506648
-0.3980743 0.16749379 0.15163514 -0.16096161 0.04319354 0.13843371 -0.19868109 0.015635582
0.12681256 -0.24901715 0.12975167 0.13517722 -0.16842654 -0.022390688 0.06333413 -0.18714485
0.18778777 0.12716971 -0.14872454 0.10055531 -0.03049955 -0.13341314 -0.07136066 0.23633382
-0.21608967 -0.13110651 0.0361984 0.070957385 0.09102925 0.017552251 -0.13601793 0.20632164
-0.13658671 0.21449879 0.13222103 0.092976235 0.086851075 -0.014041795 -0.11587426 -0.07453579
-0.12495007 -0.079456106 -0.0281711 0.15152639 -0.016629262 -0.041934315 0.071035095 -0.02118767
-0.16733164 0.038020734 0.1684586 -0.043065205 0.14722835 -0.008717954 -0.24392475 0.07687843
0.13777317 0.09204394 0.166606 0.11311376 -0.13311815 -0.13232066 -0.008755341 -0.08342438
0.03773987 0.081115305 0.0108246105 -0.16781676 0.012551075 -0.013553495 -0.10643839 0.022181327
0.0028702223 -0.13282588 0.0048300987 -0.06462027 -0.042977303 -0.031786878 -0.117281705 -0.13103399
-0.014561616 -0.22109702 0.015741853 0.16705821 -0.009099592 0.1337799 0.03924534 0.11148508
0.02225305 0.16681577 0.12708534 0.07585514 0.09888668 0.11291356 -0.08556406 0.01493563
0.14935486 0.15492594 -0.11528058 0.2121069 0.00948151 -0.06825196 0.076773584 -0.101844676
-0.07715482 0.096471585 -0.10697194 -0.21372898 -0.0749595 -0.15686902 -0.20123658 0.0632879
-0.20013632 -0.08182102 0.17879495 -0.002696035 -0.07109325 0.07500651 -0.08517782 -0.034583367
0.09053823 -0.06655641 -0.1454614 0.47161222 -0.04819054 -0.33412805 0.07023409 -0.20068605
-0.10473478 0.19060127 0.021296488 0.18878284 -0.022754746 -0.26745734 -0.1478281 -0.16499795
00000000: 2a97 3a3e ecad e83c a08d a6be 26bb b03e
00000010: 04b2 15bd 6303 7fbd ccbf 1f3e a79c 513d
00000020: cd5c d5bc 9c95 b93c 94ff c9bd e68c a2be
00000030: 7c81 b13c 39ac a63d 986d 96bd a8aa 283c
00000040: 11bc dbbc 703d 933d 5ec0 ac3e 56f9 eabc
00000050: b4a4 b9be e180 9d3e 1587 10bd 96d1 b7be
00000060: 3123 fabd 486c 57bd 5b77 343e 6b6e 87bd
00000070: 8356 1d3c 7f96 cd3e c203 d23c 0053 11be
00000080: 9446 e9bc fba4 ac3c a7db f2bd e4f1 efbd
00000090: 1663 adbe 0374 00be 064c 023f 558f 87be
000000a0: ed76 8fbd 3434 c23e 4c35 2f3d 9432 71bc
000000b0: 4c08 32be ea78 e93d 9961 3f3c 83e4 94bd
000000c0: df1f c23d f367 413e 1537 02be b7e9 31be
000000d0: 951f 243e 310a 1d3e b235 c4be 7c26 0c3d
000000e0: 2c86 963e 0908 08be f63e 453e ae62 a03d
000000f0: eee4 8d3e a232 fc3c 6df0 6b3d e00c 873e
00000100: 5b50 a1bc b6b4 c0bc 810f f5bd 4f0f c3bd
00000110: 2d49 513a 40b4 87be e51b 1b3e dc40 3dbd
00000120: c200 16bd a964 363e 6bfe 153e bb5c 7ebe
00000130: edf0 65bd 2bef 383e d870 79be 615e 4f3d
00000140: e6c2 aebd b0ce ddbd da59 973c 801c b6bd
00000150: 2ec3 583e 385a 893d bc0b 58bc 3ce6 7d3d
00000160: 015a e1bd a6a2 653e c76f c6bd 0e82 a1be
00000170: ec4c d2bc 9200 b73d 1b44 92be 7a61 b6be
00000180: 0fd5 303e 04c9 df3c 3632 323b c2c8 af3e
00000190: ca38 6c3d e8ab 083e 1141 193e bf7d b63b
000001a0: 52ba 6ebe b362 7cbe 7150 af3d c617 37be
000001b0: 9ed5 6cbe e314 f43e 5c50 0b3e 6d78 96be
000001c0: 4b87 3c3e 4807 1f3e cf2a cebd 4348 013d
000001d0: 3fe5 21bd 2429 32be aff7 543e d477 663e
000001e0: 65d0 cbbe 7e83 2b3e 3e46 1b3e 1fd3 24be
000001f0: b6eb 303d 91c1 0d3e 0e73 4bbe 3116 803c
00000200: 27db 013e 5afe 7ebe 9fdd 043e e66b 0a3e
00000210: 0278 2cbe ad6c b7bc 53b5 813d e6a2 3fbe
00000220: 704b 403e c738 023e 3f4b 18be f1ef cd3d
00000230: 31da f9bc 749d 08be 8a25 92bd 7e01 723e
00000240: 9c46 5dbe c940 06be c644 143d 1b52 913d
00000250: 8b6d ba3d bdc9 8f3c 4948 0bbe fb45 533e
00000260: 63dd 0bbe 92a5 5b3e f364 073e 536a be3d
00000270: fade b13d 8f0f 66bc 7c4f edbd 38a6 98bd
00000280: d3e5 ffbd e2b9 a2bd 14c7 e6bc bc29 1b3e
00000290: 173a 88bc 51c3 2bbd d97a 913d c491 adbc
000002a0: fc58 2bbe a1bb 1b3d 6980 2c3e 2465 30bd
000002b0: 07c3 163e c0d5 0ebc 69c7 79be 7072 9d3d
000002c0: 6914 0d3e 8981 bc3d c39a 2a3e 30a8 e73d
000002d0: 2050 08be 117f 07be 9072 0fbc 67da aabd
000002e0: 1f95 1a3d c81f a63d b559 313c 28d8 2bbe
000002f0: 06a3 4d3c 7a0f 5ebc 5ffc d9bd 9db5 b53c
00000300: 571a 3c3b 8203 08be ce45 9e3b a257 84bd
00000310: f808 30bd f532 02bd 6431 f0bd c62d 06be
00000320: d893 6ebc 4267 62be 0ff5 803c 4f11 2b3e
00000330: 7516 15bc 99fd 083e b9bf 203d 4a52 e43d
00000340: 074c b63c c1d1 2a3e a922 023e f159 9b3d
00000350: 1a85 ca3d 393f e73d 363c afbd 93b4 743c
00000360: 7bf0 183e e8a4 1e3e 3a18 ecbd 8d32 593e
00000370: 5658 1b3c afc7 8bbd 783b 9d3d f193 d0bd
00000380: 5903 9ebd e592 c53d 1b14 dbbd c5db 5abe
00000390: 5e84 99bd 46a2 20be f610 4ebe 169d 813d
000003a0: 89f0 4cbe c791 a7bd 0616 373e f6af 30bb
000003b0: 5699 91bd 039d 993d b571 aebd 4aa7 0dbd
000003c0: 1c6c b93d ba4e 88bd d5f3 14be 2877 f13e
000003d0: 7263 45bd d512 abbe e4d6 8f3d a580 4dbe
000003e0: 307f d6bd fb2c 433e f975 ae3c 4a50 413e
000003f0: 2968 babc 2bf0 88be 4060 17be 39f5 28be

_encoder._conv_1.bias f4 [40]
0.16876999 0.7944166 -1.3654737 -2.539557 0.8007163 -0.4155113 -0.042089075 0.04434361
-0.6200163 0.31246084 0.07388834 0.47738844 1.0387604 0.111012556 1.4408945 0.31506625
0.58925563 0.8351254 1.2410812 1.7326493 -0.02888665 0.19874959 -0.3806445 -0.13635261
-0.5607524 0.40674198 -0.1879813 1.4969505 -0.2834232 0.8598549 -0.26920456 -0.37466273
0.16842455 0.60237646 0.7215683 -0.423792 0.536595 0.6964709 0.22230862 0.46331453
00000000: 0ad2 2c3e e35e 4b3f d8c7 aebf 1a88 22c0
00000010: befb 4c3f e6bd d4be 9865 2cbd a5a1 353d
00000020: 63b9 1ebf defa 9f3e c552 973d 426c f43e
00000030: 1af6 843f 8d5a e33d 3b6f b83f 5d50 a13e
00000040: 75d9 163f c7ca 553f c0db 9e3f 74c7 dd3f
00000050: b2a3 ecbc 0385 4b3e d6e3 c2be 05a0 0bbe
00000060: 788d 0fbf 7c40 d03e 2b7e 40be 139c bf3f
00000070: d81c 91be 731f 5c3f 2ed5 89be cbd3 bfbe
00000080: 7c77 2c3e 5835 1a3f b3b8 383f 44fb d8be
00000090: 4a5e 093f eb4b 323f dfa4 633e 9037 ed3e

_encoder._residual_stack_1.conv_layers.0.weight f4 [40, 40, 3]
0.011640326 0.010863179 0.006837013 0.15293609 0.02727106 -0.11408702 0.54167956 0.08217028
-0.061791737 -0.6010761 -0.72076195 -0.7154109 -0.0952044 0.06397116 0.16745882 0.45196417
0.0017467674 0.0047254227 0.64747477 0.41943282 0.18791102 0.33261383 0.050867766 0.10618064
0.35395753 0.062431283 -0.03127592 -0.13232993 0.102617055 0.26826137 0.39047673 0.33779657
-0.12691377 0.65899944 0.1147019 -0.23823728 -0.17597996 0.02163373 0.017233184 0.169469
-0.013595835 0.016142009 -0.4125914 -0.3472277 -0.4241744 -0.15583384 -0.09619881 -0.03937469
-0.12783155 -0.19433148 8.820071e-05 0.25931877 -0.044663917 -0.20727704 0.35407063 0.044796675
0.07486386 -0.06935523 -0.06911707 -0.13597737 -0.22824384 -0.09503755 0.16849598 -0.09533253
-0.15797862 -0.091488875 -0.07198334 0.078225024 -0.14930661 -0.18305938 0.1962912 0.036670938
0.13153477 0.17573954 -0.060492136 0.23533668 -0.10496301 -0.16445658 -0.18509087 0.09511962
-0.044101633 -0.041384585 0.029037837 -0.08418167 0.16490212 0.063060276 -0.15824467 0.56979626
0.2512926 0.04225969 0.057884455 0.16561605 0.39661652 0.16164456 0.04191759 -0.08859409
0.009365087 -0.0026973346 0.24075092 -0.23859431 0.07786004 0.15826237 0.024512077 0.15804322
-0.11152523 0.054901335 -0.21215695 0.09823803 -0.19153939 -0.16903514 -0.45918974 -0.6055648
-0.076764174 0.23091 -0.10254469 -0.0078120884 -0.057753365 -0.04740271 0.05175377 0.02964284
-0.2967821 0.06228989 0.2803506 0.14436331 -0.08203571 -0.22225532 0.0041595446 -0.071781084
0.1867669 0.04209837 0.023045376 -0.16067159 -0.2960469 -0.0979784 -0.19292583 -0.18257149
-0.057946887 0.32706437 0.33907518 0.2768053 0.16006848 0.073187895 -0.24287821 0.010460033
0.17964317 0.15883443 -0.2625348 -0.32437286 -0.20917456 0.51831293 -0.22829339 -0.24305336
-0.2934047 -0.042054072 -0.15895393 0.10143046 -0.17779766 0.14128627 0.20496759 -0.1882384
-0.37730882 -0.23709047 -0.08270671 -0.06609117 -0.21347187 0.12998053 0.046627134 -0.21204133
-0.01691323 0.09898542 0.0693313 0.21131371 0.45738032 0.2775674 0.029721275 -0.17699824
-0.12629075 0.19906312 0.10961976 -0.17222391 -0.1414601 -0.05884785 0.2141877 -0.003646649
-0.18345214 0.14459455 -0.16902322 -0.035612546 0.20569393 -0.21299322 0.092035726 0.1606665
0.05357092 0.06314555 -0.045794677 -0.35979486 0.046212673 0.1726127 -0.005208118 -0.14434226
0.19373514 0.32791868 0.0015500596 -0.20078523 0.30897227 -0.046350196 -0.25928077 -0.32021412
0.017283674 0.13358888 0.0012165528 0.00016163943 0.016215706 -0.19262178 -0.056921393 0.269325
-0.09356668 0.048204727 0.18381901 -0.0059113256 0.097225994 -0.046609607 -0.20631845 0.12861219
0.09617571 -0.078981355 -0.0129793985 -0.008273355 0.013374745 0.19240381 -0.28074914 0.028975742
0.042646144 0.2617909 -0.15300299 -0.15117465 0.020528613 -0.01848155 0.055737935 -0.09486489
0.28710085 -0.029841019 -0.32750073 -0.28090143 0.29186738 0.084805496 0.051905956 0.18094485
0.16922238 -0.55041254 -0.22915658 0.22799997 -0.018467348 -0.1258603 0.006221062 0.11895997
00000000: 11b7 3e3c 7afb 313c 0609 e03b 479b 1c3e
00000010: 8f67 df3c 75a6 e9bd 83ab 0a3f e448 a83d
00000020: 5519 7dbd 20e0 19bf db83 38bf 2b25 37bf
00000030: 86fa c2bd 5003 833d 537a 2b3e d967 e73e
00000040: caf3 e43a b8d7 9a3b e8c0 253f e6bf d63e
00000050: bf6b 403e 5c4c aa3e b85a 503d 3c75 d93d
00000060: ec39 b53e f2b7 7f3d 2e1b 00bd 7f81 07be
00000070: e428 d23d 8e59 893e 91ec c73e acf3 ac3e
00000080: aff5 01be 30b4 283f d4e8 ea3d 79f4 73be
00000090: 1734 34be 3839 b13c 9b2c 8d3c 4889 2d3e
000000a0: 11c1 5ebc 3f3c 843c 2e3f d3be d4c7 b1be
000000b0: 632d d9be e892 1fbe e203 c5bd 5b47 21bd
000000c0: 46e6 02be d5fe 46be 65f8 b838 6ec5 843e
000000d0: 83f1 36bd 6f40 54be bf48 b53e b87c 373d
000000e0: 3952 993d 1d0a 8ebd 408d 8dbd a73d 0bbe
000000f0: c1b8 69be 0ca3 c2bd 368a 2c3e b43d c3bd
00000100: 26c5 21be 855e bbbd 006c 93bd 7134 a03d
00000110: d5e3 18be eb73 3bbe 8f00 493e 4434 163d
00000120: 0db1 063e 11f5 333e 9ac6 77bd 19fc 703e
00000130: d9f6 d6bd 4e67 28be 7688 3dbe 13ce c23d
00000140: eaa3 34bd e282 29bd c2e0 ed3c 7067 acbd
00000150: 1adc 283e bf25 813d e40a 22be 2bde 113f
00000160: 6ca9 803e 7f18 2d3d 4018 6d3d 4197 293e
00000170: 5211 cb3e 2786 253e c7b1 2b3d d170 b5bd
00000180: 0670 193c c4c5 30bb 6987 763e 1152 74be
00000190: 1675 9f3d 880f 223e 8dcd c83c 15d6 213e
000001a0: 5767 e4bd 39e0 603d ac3f 59be 0531 c93d
000001b0: e722 44be 8c17 2dbe eb1a ebbe 4b06 1bbf
000001c0: 8936 9dbd ac73 6c3e f302 d2bd 8cfc ffbb
000001d0: cb8e 6cbd 5829 42bd c3fb 533d 8bd5 f23c
000001e0: d3f3 97be af23 7f3d 1d8a 8f3e fad3 133e
000001f0: 5702 a8bd e696 63be ca4c 883b f601 93bd
00000200: d23f 3f3e 576f 2c3d a8c9 bc3c 1887 24be
00000210: 7693 97be e6a8 c8bd 598e 45be 05f4 3abe
00000220: b759 6dbd fb74 a73e 439b ad3e 6db9 8d3e
00000230: fee8 233e 89e3 953d 11b5 78be 8f60 2b3c
00000240: 61f4 373e 7ea5 223e f66a 86be 3314 a6be
00000250: db31 56be 28b0 043f bec5 69be fbe2 78be
00000260: 2439 96be e440 2cbd d2c4 22be c6ba cf3d
00000270: 9710 36be 59ad 103e 06e3 513e 91c1 40be
00000280: 9f2e c1be d8c7 72be 2362 a9bd cf5a 87bd
00000290: 5f98 5abe 9e19 053e 18fc 3e3d 5d21 59be
000002a0: 9d8d 8abc deb8 ca3d 92fd 8d3d 9f62 583e
000002b0: c12d ea3e 501d 8e3e 087a f33c 073f 35be
000002c0: 5d52 01be 34d7 4b3e 5380 e03d 775b 30be
000002d0: ebda 10be 710a 71bd 0554 5b3e 9efc 6ebb
000002e0: e1da 3bbe 9810 143e 6c14 2dbe 76de 11bd
000002f0: 6ea1 523e e51a 5abe 3a7d bc3d c285 243e
00000300: 2e6d 5b3d 7452 813d 3393 3bbd 0837 b8be
00000310: 8049 3d3d 62c1 303e dca8 aabb 75ce 13be
00000320: 8162 463e f5e4 a73e 5f2b cb3a a59a 4dbe
00000330: 9d31 9e3e b4d9 3dbd 73c0 84be 1bf3 a3be
00000340: 7e96 8d3c 86cb 083e bd74 9f3a c17d 2939
00000350: cdd6 843c a53e 45be 6826 69bd f7e4 893e
00000360: e39f bfbd 5272 453d 0d3b 3c3e cbb3 c1bb
00000370: 6c1e c73d b7e9 3ebd 2545 53be eab2 033e
00000380: c5f7 c43d fac0 a1bd 8ba7 54bc f78c 07bc
00000390: bf21 5b3c 8105 453e 5abe 8fbe 895e ed3c
000003a0: b9ad 2e3d 7509 863e d1ac 1cbe 87cd 1abe
000003b0: 9f2b a83c 9f66 97bc 764d 643d 8648 c2bd
000003c0: e2fe 923e 2775 f4bc 2dae a7be 50d2 8fbe
000003d0: a46f 953e 81ae ad3d 579b 543d 9b49 393e
000003e0: a248 2d3e d6e7 0cbf 06a8 6abe d378 693e
000003f0: d648 97bc 86e1 00be 0dda cb3b 49a1 f33d

_encoder._residual_stack_1.conv_layers.0.bias f4 [40]
-1.0914863 -0.94907725 0.3387862 -0.641032 -1.1184434 -1.9085021 -1.7376176 -1.052752
-1.8275332 -2.3207493 0.19845027 0.56428015 -1.802492 -1.680425 -1.5446799 -1.2899874
-0.6981969 -2.3004048 -1.8840783 -0.9748711 -1.0031178 -0.8681089 -2.8540792 -1.910975
-1.5374277 -1.494501 0.20883533 -1.9152131 -2.4774532 -0.9805482 -2.26471 -1.2953829
-2.9880466 -1.5192642 -1.8907971 0.15290889 -0.9867768 -2.7073605 1.1668257 -0.90652925
00000000: d3b5 8bbf baf6 72bf 6375 ad3e ac1a 24bf
00000010: 2729 8fbf cc49 f4bf 416a debf 94c0 86bf
00000020: 9cec e9bf 2887 14c0 8c36 4b3e aa74 103f
00000030: 0fb8 e6bf 2b18 d7bf 12b8 c5bf 4f1e a5bf
00000040: 08bd 32bf d539 13c0 7a29 f1bf 2791 79bf
00000050: 2a66 80bf 633c 5ebf 3ca9 36c0 d49a f4bf
00000060: 6eca c4bf cf4b bfbf eed8 553e b425 f5bf
00000070: 988e 1ec0 3505 7bbf 02f1 10c0 1bcf a5bf
00000080: 283c 3fc0 4077 c2bf a405 f2bf 2694 1c3e
00000090: 689d 7cbf 6545 2dc0 8b5a 953f 4d12 68bf

_encoder._residual_stack_1.conv_layers.1.weight f4 [40, 40, 3]
-0.74275196 -1.0965444 -1.20009 -0.59693396 0.18832387 0.0016027733 -0.5114472 0.24188866
0.1950009 0.24091513 -0.103147835 -0.14445806 0.19549853 0.312838 -0.12623471 0.053287752
0.0043999003 -0.096129164 -0.2747163 -0.15106663 -0.24142866 -0.8300699 -0.44312423 -0.3863034
-0.3345913 -0.1689781 0.1303221 -0.11669008 0.17103834 0.122775584 -0.31961238 0.11551645
-0.05730478 -0.19932294 0.16809362 -0.19845311 -0.72378325 -0.79014516 -0.01433159 -0.14724934
-0.20463806 -0.1610622 -0.17569984 -0.12541503 0.17182116 0.12892309 0.1843612 -0.5865881
-0.2209755 0.2281825 0.5305572 0.11092088 0.11284479 -0.058171548 -0.06058226 0.23121823
0.15598454 -0.5777569 -0.16905324 -0.5115293 -0.49623623 -0.13862854 0.089286454 -0.106056735
-0.1305084 -0.09769522 -0.036931798 -0.3743367 0.35194448 0.13091172 0.07579744 0.02121847
0.14030004 0.038156196 -0.0806448 -0.346061 0.15302834 -0.014758072 -0.23793902 0.118791915
0.16433616 0.035944883 0.20958032 0.030196933 -0.006815969 -0.10114672 0.12826316 0.14343522
0.16722095 0.17036225 -0.23381726 -0.02489754 0.09746233 0.031458724 0.14397316 -0.03700399
0.25817096 -0.10113511 -0.2773592 -0.06876047 -0.34172824 0.16830681 -0.0047573727 -0.036725458
-0.0033871848 -0.73689795 -0.45548582 -0.3861465 -0.2579229 0.13988592 0.03618691 -0.1006256
-0.41207227 -0.18793978 -0.38842735 -0.3547556 -0.6956369 -0.034687117 -0.022715967 0.013481678
-0.33157605 -0.48157063 -0.1894809 -0.3004807 -0.53384584 -0.7223454 -0.15998648 -0.19775502
0.11623807 -0.09862141 -0.042552434 0.034581043 -0.426909 -0.10194246 0.3680537 -0.31123757
-0.38552693 -0.24546197 -0.028707685 -0.15021786 -0.24809834 -0.06498144 0.09046084 0.051432166
0.20736948 -0.16472548 -0.084510855 -0.76357424 0.16166133 0.2495334 -0.1684282 -0.3116886
-0.2525651 -0.22352682 -0.35664344 0.17441069 0.17308867 -0.120525986 -0.25874063 0.28140086
0.022994287 -0.028720163 0.021839777 -0.1078199 0.15068051 -0.28666925 -0.24681158 0.028074212
0.15554728 -0.25284684 -0.031716235 -0.6109804 -0.33772144 -0.27966774 -0.58174086 -0.23875426
-0.71945554 -0.48669213 -0.64390224 -0.5921271 0.122958384 0.012862791 -0.16160882 -0.046637606
0.13925377 -0.017108351 -0.04412631 0.023773365 -0.0030292694 -0.14577602 0.022133818 -0.25000474
-0.1991837 -0.012869872 -0.1682853 -0.3022962 -0.7365714 -0.82150406 -0.30118835 -0.048773017
-0.113579586 0.2284459 -0.29111084 0.04381741 -0.45481822 -0.23945284 -0.029536044 0.11170775
-0.18644024 -0.31648383 -0.08357863 -0.012575561 -0.15548387 0.4532689 0.11200678 -0.18392083
0.24981087 -0.10308323 -0.15533319 0.11130901 -0.21330668 -0.29197386 0.40997505 0.19213048
-0.19945852 0.18707909 -0.18988036 0.1792861 -1.8342555 -1.3729124 -1.1810881 0.092314385
-0.009035968 0.27856216 -0.22340485 0.056793742 0.028448911 -0.057474207 -0.102485776 -0.21061955
-0.09496122 0.076922044 -0.033553734 -0.12645438 -0.03729296 0.010877735 -0.33345416 -0.31372738
-0.3197152 -0.3894049 -0.25293624 -0.27443314 -0.09481723 0.0293987 0.018493824 -0.2232203
00000000: fe24 3ebf 915b 8cbf 8d9c 99bf aad0 18bf
00000010: f9d7 403e 2614 d23a 34ee 02bf a9b1 773e
00000020: 51ae 473e 75b2 763e 2c3f d3bd d0ec 13be
00000030: c430 483e 4d2c a03e ac43 01be 4244 5a3d
00000040: 0a2d 903b 5edf c4bd 9da7 8cbe 36b1 1abe
00000050: 1339 77be 767f 54bf 2ee1 e2be 8fc9 c5be
00000060: 8d4f abbe 9808 2dbe 2873 053e 35fb eebd
00000070: ad24 2f3e c471 fb3d 3ca4 a3be e393 ec3d
00000080: 6bb8 6abd 501b 4cbe bc20 2c3e 4b37 4bbe
00000090: dc49 39bf f446 4abf 0ccf 6abc 88c8 16be
000000a0: a48c 51be 7ded 24be a9ea 33be cc6c 00be
000000b0: e3f1 2f3e 6a04 043e 2fc9 3c3e a32a 16bf
000000c0: 6747 62be aca8 693e 99d2 073f 7d2a e33d
000000d0: 2b1b e73d 4a45 6ebd 1b25 78bd 79c4 6c3e
000000e0: 69ba 1f3e e0e7 13bf 4b1c 2dbe 96f3 02bf
000000f0: ad12 febe a4f4 0dbe d1db b63d 4634 d9bd
00000100: fea3 05be 6e14 c8bd cc45 17bd 0fa9 bfbe
00000110: 1132 b43e b90d 063e b03b 9b3d 5bd2 ad3c
00000120: d0aa 0f3e ac49 1c3d 1a29 a5bd e82e b1be
00000130: 76b3 1c3e d7cb 71bc 49a6 73be 2d49 f33d
00000140: bd47 283e f13a 133d 399c 563e 8f5f f73c
00000150: 7e58 dfbb 0326 cfbd 6b57 033e afe0 123e
00000160: f83b 2b3e 7173 2e3e cb6d 6fbe edf5 cbbc
00000170: 549a c73d ddda 003d b36d 133e 7f91 17bd
00000180: fc2e 843e ed1f cfbd 0602 8ebe 4ad2 8cbd
00000190: 01f7 aebe 9f58 2c3e bce3 9bbb 6f6d 16bd
000001a0: 88fb 5dbb 58a5 3cbf 7035 e9be feb4 c5be
000001b0: 780e 84be 413e 0f3e ba38 143d cb14 cebd
000001c0: 23fb d2be 4973 40be f3df c6be 87a2 b5be
000001d0: 4315 32bf 1414 0ebd d616 babc 42e2 5c3c
000001e0: 56c4 a9be 6d90 f6be 4807 42be 9bd8 99be
000001f0: 1faa 08bf a1eb 38bf 7fd3 23be 4b80 4abe
00000200: 3a0e ee3d 06fa c9bd 764b 2ebd daa4 0d3d
00000210: d193 dabe 35c7 d0bd 8971 bc3e 885a 9fbe
00000220: c963 c5be 625a 7bbe 612c ebbc b6d2 19be
00000230: 7e0d 7ebe fd14 85bd 8843 b93d 89aa 523d
00000240: aa58 543e ccad 28be 0714 adbd 9a79 43bf
00000250: 8c8a 253e af85 7f3e 7178 2cbe a695 9fbe
00000260: 3650 81be 37e4 64be f899 b6be b798 323e
00000270: 283e 313e 54d6 f6bd a779 84be c613 903e
00000280: 845e bc3c 8c46 ebbc 55e9 b23c aed0 dcbd
00000290: fe4b 1a3e 50c6 92be 2dbc 7cbe e4fb e53c
000002a0: c947 1f3e 2475 81be e2e8 01bd 3669 1cbf
000002b0: d3e9 acbe 9c30 8fbe f8ec 14bf ff7b 74be
000002c0: 3d2e 38bf b62f f9be c7d6 24bf a495 17bf
000002d0: 9bd1 fb3d 75be 523c c87c 25be 1307 3fbd
000002e0: 8a98 0e3e d026 8cbc cabd 34bd 5cc0 c23c
000002f0: b586 46bb 4f46 15be fb51 b53c 9f00 80be
00000300: d0f6 4bbe 28dc 52bc fb52 2cbe 91c6 9abe
00000310: f18f 3cbf 174e 52bf 5c35 9abe 37c6 47bd
00000320: 6a9c e8bd b9ed 693e 7b0c 95be e279 333d
00000330: efdd e8be 2033 75be 93f5 f1bc 08c7 e43d
00000340: 31ea 3ebe 2b0a a2be 462b abbd ba09 4ebc
00000350: 2a37 1fbe dc12 e83e d063 e53d be55 3cbe
00000360: 6cce 7f3e 4d1d d3bd aa0f 1fbe faf5 e33d
00000370: 116d 5abe 997d 95be 40e8 d13e dabd 443e
00000380: db3e 4cbe a991 3f3e ff6f 42be c796 373e
00000390: e2c8 eabf 98bb afbf e52d 97bf 530f bd3d
000003a0: 990b 14bc b39f 8e3e 3ec4 64be 8ea0 683d
000003b0: b10d e93c 136a 6bbd 10e4 d1bd a7ac 57be
000003c0: 077b c2bd 4e89 9d3d a46f 09bd 427d 01be
000003d0: 81c0 18bd 8738 323c 81ba aabe e0a0 a0be
000003e0: b6b1 a3be 1460 c7be dc80 81be 8082 8cbe
000003f0: 892f c2bd 8bd5 f03c 5c80 973c dd93 64be

_encoder._residual_stack_1.conv_layers.1.bias f4 [40]
-0.8122682 -1.7760227 -0.43220547 0.2889959 -0.7890688 -0.77118087 -0.10825483 -0.68544436
-0.48241067 -0.64926994 0.115044035 -1.0796682 -0.71530104 0.04130012 -1.025706 -1.2076834
-0.83897567 -0.7561719 -0.8331802 -0.6092753 -0.48490912 -0.54594344 -0.06227316 -0.08827698
-1.661371 -0.418217 -0.10266278 -0.4110728 0.39255035 -0.72249496 -0.25157747 -0.66110843
-0.48953062 -0.15714124 -0.73251253 -0.7941126 -0.86414665 -0.70396525 -1.1532359 -0.867197
00000000: cff0 4fbf b654 e3bf 094a ddbe 45f7 933e
00000010: 6a00 4abf 1c6c 45bf b5b4 ddbd 4879 2fbf
00000020: 88fe f6be 8e36 26bf 359c eb3d 9132 8abf
00000030: f81d 37bf 512a 293d 564a 83bf 5f95 9abf
00000040: 1cc7 56bf 7b94 41bf 4c4b 55bf 77f9 1bbf
00000050: 0246 f8be f3c2 0bbf 2412 7fbd 90ca b4bd
00000060: cea7 d4bf 8a20 d6be dd40 d2bd 2278 d2be
00000070: 5cfc c83e 6ef5 38bf c3ce 80be 673e 29bf
00000080: c2a3 fabe a2e9 20be f185 3bbf f74a 4bbf
00000090: b738 5dbf 1137 34bf 3c9d 93bf 9f00 5ebf

_encoder._residual_stack_1.conv_layers.2.weight f4 [40, 40, 3]
0.14105049 -0.9139354 -0.5852354 0.2362074 -0.40711266 -0.054696467 -0.17215541 0.058328517
0.10114781 -0.19897436 -0.1802964 0.033952326 0.0366099 0.259966 -0.17432864 -0.00073164306
0.099109136 -0.013043242 0.06895526 0.06927216 -0.17217603 -0.10551164 0.19858547 0.26589808
-0.041561037 0.008821185 0.0006225158 0.00695387 -0.08494266 -0.0067757475 0.01878088 -0.25110996
-0.022856444 -0.2821011 -0.25171018 0.013468866 -0.17480795 -0.18082601 0.3319603 -0.16802453
-0.24933566 0.05831858 0.1331691 0.22170895 -0.022046793 0.10943565 -0.2066846 -0.2267259
-0.05145402 0.07153912 0.17153993 0.024502965 -0.13538973 -0.31609896 0.17907867 -0.041031912
-0.13611615 0.09830407 -0.18879192 0.112214 -0.108684555 -0.20776965 -0.22969756 -0.2349201
-0.25517753 -0.46616143 0.003315212 0.03920963 -0.08960162 0.11963265 0.019455973 -0.22291018
-0.17544605 -0.118406504 0.004178559 0.102953635 -0.17889637 -0.4363402 0.20782837 -0.5043733
-0.01878797 0.13232686 0.004468873 -0.52049464 0.36674654 -0.11629256 -0.41223463 0.067654766
-0.10300402 -0.07603436 -0.27568793 -0.3058873 -0.21907638 -0.2855903 0.03615953 0.16351198
-0.06699775 0.06473006 -0.047841076 0.1770632 -0.11789987 -0.013013029 0.07152493 -0.320806
0.27250183 0.45998263 -0.1287096 0.32531893 0.11144758 -0.14843796 0.11194239 -0.03864779
0.06776153 0.11713776 0.073075 0.18599628 0.16401316 -0.07611274 0.13080218 -0.4682385
-0.19678493 -0.121471256 0.21645808 -0.3242012 -0.67611873 -0.045718256 -0.19282702 -0.07682209
0.08300081 -0.22669013 0.05541072 -0.23210023 -0.38335043 0.2051386 -0.009450002 -0.18713763
-0.012526613 0.0019634005 0.1408819 -0.3001063 -0.45509475 -0.2919061 -0.19931613 -0.3019025
0.027126905 -0.21233259 -0.111769415 0.0044485372 -0.008364391 0.08535042 -0.4607113 -0.33137795
-0.031890925 -0.24270427 -0.015533495 0.013884147 -1.1307249 -0.44977477 -0.07240707 -0.28360954
-0.23026036 0.09692726 0.29067957 -0.26092896 0.07743818 -0.72985023 0.22631945 -0.194813
-0.029372182 -0.07127513 -0.061946865 -0.076473184 -0.1821275 -0.35459092 0.07525404 -0.1719748
-0.33859807 -0.7914272 -0.046150576 -0.04716799 0.09874371 0.009333442 -0.120553136 -0.5248014
-0.37631458 -0.3820782 -0.035106163 -0.03930383 0.042946104 -0.22946021 -0.24110754 -1.2419785
-0.4481558 -0.21241958 -0.2526183 -0.25028622 -0.46139243 -0.29797834 -0.4588582 -0.08178654
-0.057975363 0.06863676 -0.22965711 -0.30875847 0.07622201 -0.14288372 0.1803926 -0.23104231
-0.176712 -0.037542194 -0.056658663 -0.09619895 -0.03055304 -0.10454922 -0.08843093 -0.13841648
-0.07039216 -0.052425627 -0.16076946 -1.0240369 -0.5040229 -0.30353484 -0.1430989 -0.0074535967
-0.14145865 -0.0074853864 -0.72239375 -0.63860327 -0.6416076 -0.40586513 -0.45416617 -0.17025745
-0.11985411 -0.52526385 0.098525494 -0.6678446 -0.4813636 -0.048150156 -0.5809663 -0.32508427
-0.18188171 -0.1570409 -0.046060603 -0.15160781 -0.119672544 -0.15311545 -0.21639551 -0.24366608
-0.30967 -0.15134779 -0.23330685 -0.22326007 -0.24904008 -0.17859219 -0.14921026 -0.15679654
00000000: 8a6f 103e acf7 69bf fdd1 15bf 5ae0 713e
00000010: 1271 d0be 6709 60bd 8249 30be e2e9 6e3d
00000020: 9526 cf3d efbf 4bbe 9f9f 38be 9811 0b3d
00000030: 43f4 153d 431a 853e 3583 32be bccb 3fba
00000040: bbf9 ca3d 52b3 55bc 6a38 8d3d 90de 8d3d
00000050: ea4e 30be 7d16 d8bd fd59 4b3e cb23 883e
00000060: e83b 2abd bb86 103c 5430 233a 4add e33b
00000070: 6bf6 adbd 1707 debb 5cda 993c 7c91 80be
00000080: 703d bbbc 8e6f 90be 28e0 80be 85ac 5c3c
00000090: db00 33be 742a 39be b3f6 a93e 9f0e 2cbe
000000a0: d951 7fbe 77df 6e3d 7b5d 083e ac07 633e
000000b0: 7a9b b4bc cc1f e03d 21a5 53be d62a 68be
000000c0: 73c1 52bd 1a83 923d 2aa8 2f3e 71ba c83c
000000d0: 9ba3 0abe b9d7 a1be 6660 373e 1411 28bd
000000e0: 0862 0bbe a553 c93d ab52 41be 74d0 e53d
000000f0: 0296 debd 91c1 54be d635 6bbe e58e 70be
00000100: a1a6 82be b6ac eebe 0744 593b 479a 203d
00000110: 0e81 b7bd f601 f53d 2262 9f3c 9142 64be
00000120: 21a8 33be 1c7f f2bd 4bec 883b 5bd9 d23d
00000130: 9c30 37be fc67 dfbe f6d0 543e 9c1e 01bf
00000140: 3be9 99bc b180 073e a06f 923b 233f 05bf
00000150: 34c6 bb3e cb2a eebd 6b10 d3be 958e 8a3d
00000160: c6f3 d2bd e7b7 9bbd f826 8dbe 439d 9cbe
00000170: 8f55 60be e438 92be 041c 143d af6f 273e
00000180: 1e36 89bd 3291 843d 01f5 43bd 0e50 353e
00000190: 7d75 f1bd 9934 55bc aa7b 923d af40 a4be
000001a0: 5c85 8b3e d882 eb3e 73cc 03be 3490 a63e
000001b0: a13e e43d 1f00 18be 0d42 e53d 254d 1ebd
000001c0: 8fc6 8a3d ece5 ef3d 58a8 953d cf75 3e3e
000001d0: 11f3 273e ffe0 9bbd 02f1 053e f5bc efbe
000001e0: fd81 49be ecc5 f8bd 30a7 5d3e b3fd a5be
000001f0: 1e16 2dbf 1143 3bbd 7274 45be e654 9dbd
00000200: 54fc a93d 7521 68be 5af6 623d afab 6dbe
00000210: 8246 c4be da0f 523e 2ed4 1abc 02a1 3fbe
00000220: 6c3c 4dbc 65ac 003b 5843 103e 88a7 99be
00000230: 2e02 e9be b774 95be 8719 4cbe f792 9abe
00000240: 3e39 de3c b76d 59be 5de7 e4bd 09c5 913b
00000250: cc0a 09bc 33cc ae3d 5ae2 ebbe 5faa a9be
00000260: 0fa0 02bd 7887 78be 3380 7ebc 557a 633c
00000270: 98bb 90bf e148 e6be 284a 94bd 4535 91be
00000280: 5fc9 6bbe cd81 c63d f4d3 943e 7b98 85be
00000290: e997 9e3d 77d7 3abf 49c0 673e 0f7d 47be
000002a0: ee9d f0bc b2f8 91bd ffbb 7dbd f99d 9cbd
000002b0: a27f 3abe f18c b5be ca1e 9a3d 291a 30be
000002c0: ba5c adbe f99a 4abf 6308 3dbd 3933 41bd
000002d0: 243a ca3d 4beb 183c 90e4 f6bd 6259 06bf
000002e0: 4eac c0be c19f c3be 7bcb 0fbd 0efd 20bd
000002f0: 41e8 2f3d 9ef7 6abe e5e4 76be 27f9 9ebf
00000300: ad74 e5be 8584 59be 3057 81be 8425 80be
00000310: a13b ecbe 9e90 98be 76ef eabe b47f a7bd
00000320: 9377 6dbd 6e91 8c3d 3c2b 6bbe 9715 9ebe
00000330: 491a 9c3d 1c50 12be d6b8 383e 5b96 6cbe
00000340: fef3 34be d8c5 19bd ea12 68bd f503 c5bd
00000350: 5e4a fabc e71d d6bd 471b b5bd 0dbd 0dbe
00000360: c429 90bd 41bc 56bd c0a0 24be a413 83bf
00000370: a507 01bf eb68 9bbe 8588 12be 4d3d f4bb
00000380: 89da 10be f947 f5bb ccee 38bf 817b 23bf
00000390: 6540 24bf 8ecd cfbe 7888 e8be f857 2ebe
000003a0: 1276 f5bd b177 06bf bcc7 c93d ddf7 2abf
000003b0: 4a75 f6be 1939 45bd 35ba 14bf 7271 a6be
000003c0: 333f 3abe 54cf 20be 0baa 3cbd 143f 1bbe
000003d0: e116 f5bd 4cca 1cbe c996 5dbe 9a83 79be
000003e0: 118d 9ebe eafa 1abe fee7 6ebe 4a9e 64be
000003f0: 5d04 7fbe dfe0 36be 93ca 18be 468f 20be

_encoder._residual_stack_1.conv_layers.2.bias f4 [40]
0.07846336 0.066750355 -0.55488455 -1.2369131 -1.2939711 -0.7599928 -1.0942092 -0.30198044
-0.7111291 -0.69038373 0.14743248 0.77644336 0.03222453 0.6110212 -0.9155747 -0.6837071
-0.9833524 -0.2463508 -0.89567786 -0.73927134 0.12841156 -1.0225081 0.11427489 0.18746549
-1.0832391 -0.7096191 -0.12037095 -0.11474177 0.23145032 -0.95566785 -0.43935287 0.23792028
-1.0606577 -1.2913868 -0.029683271 -1.417172 -0.84638315 -0.36397338 -0.98335403 0.46849662
00000000: 66b1 a03d 69b4 883d ea0c 0ebf 2b53 9ebf
00000010: d8a0 a5bf e38e 42bf 0c0f 8cbf 2e9d 9abe
00000020: 8f0c 36bf fdbc 30bf 8af8 163e fec4 463f
00000030: defd 033d e36b 1c3f 1b63 6abf 6e07 2fbf
00000040: fcbc 7bbf 6243 7cbe 254b 65bf e340 3dbf
00000050: 527e 033e 8ce1 82bf f408 ea3d f4f6 3f3e
00000060: 94a7 8abf 99a9 35bf 0b85 f6bd bcfd eabd
00000070: 5001 6d3e a6a6 74bf dcf2 e0be 60a1 733e
00000080: a2c3 87bf 2a4c a5bf 552a f3bc e465 b5bf
00000090: 91ac 58bf b85a babe 17bd 7bbf cade ef3e

_encoder._residual_stack_1.conv_layers.3.weight f4 [40, 40, 3]
-0.038212735 -0.9207519 0.0017386145 0.024066294 -0.46016172 0.06659795 0.08705592 0.016556105
-0.02267424 -0.52619034 -0.59625417 -0.32180998 -0.47891665 0.26764756 0.2150162 -0.25801572
-0.008695626 0.4051262 0.23575726 0.2448307 0.0060091764 0.0670552 -0.17881337 0.024879275
0.2749075 0.34958142 0.31961498 0.3751638 -0.25857174 0.4344265 -0.1652853 -0.19552664
-0.1534073 0.18028288 -0.2053712 0.037360914 0.011224401 -0.9250747 0.11643335 0.022043712
-0.07898055 -0.000770882 -0.02808706 0.04181595 -0.14252159 0.30003694 0.3728555 -0.3186917
-0.25607523 -0.18742138 -0.4082267 -0.007754489 -0.013527862 0.0054219994 -0.021368723 0.21525317
0.11371254 -0.033154614 0.15770274 -0.21091671 -0.104706176 0.68087554 -0.089186646 0.16131482
0.1457521 0.4704922 0.0648439 -0.4196529 0.001046276 0.07058868 -0.055889763 0.05553371
-0.24069352 0.22425549 0.0313413 -0.4191065 0.019554244 0.050805245 -0.10110683 -0.17395309
-0.24811882 0.027756596 -0.062043503 -0.20343786 -0.01588177 0.07475987 0.043995608 0.15559188
-0.38492692 0.44925994 -0.351559 -0.066163935 -0.13737842 0.059374753 -0.059862714 -0.04589831
0.56334925 0.2484628 0.24433857 0.13924105 -0.035135202 0.07115973 0.017629188 -0.025331087
0.008084275 0.16439413 -0.2825341 -0.65990984 -0.025741046 0.034024116 -0.052055594 -0.068789266
-0.016810896 -0.035845198 0.27438915 -0.2584246 -0.02391159 -0.089515455 -0.49617615 -0.26051772
-0.25938147 -0.25481668 -0.15404336 -0.2133442 -0.2571283 -0.3758169 -0.08772564 -0.026449129
0.010106993 -0.08163817 0.005498544 0.0079316 -0.07174458 -0.04096197 -0.048152875 -0.2104755
-0.21079797 -0.16136046 0.10774924 -0.12597822 -0.034682896 -0.09118975 -0.06791533 -0.16149831
-0.08096924 -0.007166805 -0.0082159415 -0.09835064 -0.112588674 0.012321815 -0.17182066 -0.2224332
-0.4505131 -0.07940484 -0.18967171 -0.21426433 -0.3261271 -0.2968458 -0.09305907 -0.0062676403
-0.13912852 -0.5101767 -0.11301342 -0.051246457 0.1398479 -0.04085102 -0.0012829629 0.20599271
-0.056681063 -0.036093164 -0.030774273 -0.2119728 -0.22857814 -0.15976919 -0.23252441 -0.27252698
-0.28433824 -0.06267268 -0.078784555 -0.18447036 -0.15733308 -0.13200134 0.12497534 -0.045510445
-0.18616931 -0.1878313 -0.19998245 -0.19453801 0.102997825 0.054824088 -0.060610846 -0.07896457
-0.14784579 -0.114092246 -0.033628356 -0.012956425 -0.013785782 -0.20825385 -0.073879026 0.028882517
0.014453707 -0.12702122 -0.10579547 -0.2470202 -0.06920936 0.04448889 -0.04090465 0.0673578
-0.10746984 -0.027604971 -0.05523037 -0.025489612 -0.21513696 -0.28207684 -0.15848191 -0.1984568
-0.018976245 -0.061111636 -0.052316234 -0.064174235 -0.052307915 0.12411188 -0.114608124 -0.109784134
-0.25095135 -0.045901135 0.06713726 -0.022891663 -0.05093922 -0.14875753 -0.1394442 0.031311337
-0.099962465 0.021226408 -0.20629129 -0.033672724 0.0800907 -0.24872588 -0.26777217 -0.2848552
-0.009733266 -0.08931428 -0.16320828 0.3054922 -0.3242125 0.22360092 -0.061560925 -0.09564235
0.0057896846 -0.47565445 -0.5672383 0.05088701 0.34014052 0.31365585 0.42878163 0.1792915
00000000: f584 1cbd 66b6 6bbf 39e2 e33a ad26 c53c
00000010: 519a ebbe 8264 883d 604a b23d aba0 873c
00000020: 54bf b9bc 69b4 06bf 1da4 18bf 47c4 a4be
00000030: 9034 f5be 1a09 893e 352d 5c3e a31a 84be
00000040: 1978 0ebc b46c cf3e 5a6a 713e e6b4 7a3e
00000050: a0e8 c43b 3d54 893d da1a 37be 9fcf cb3c
00000060: adc0 8c3e 56fc b23e 93a4 a33e 7815 c03e
00000070: 8463 84be 266d de3e 8d40 29be 2338 48be
00000080: ce16 1dbe 139c 383e d44c 52be c207 193d
00000090: 8de6 373c b2d1 6cbf 9c74 ee3d 0495 b43c
000000a0: 8ec0 a1bd 0415 4aba d616 e6bc 3447 2b3d
000000b0: 2ef1 11be 719e 993e ebe6 be3e 8f2b a3be
000000c0: 4b1c 83be 64eb 3fbe 1703 d1be 5e19 febb
000000d0: f7a3 5dbc 07ab b13b 760d afbc 546b 5c3e
000000e0: 1fe2 e83d 22cd 07bd d47c 213e 8dfa 57be
000000f0: 3170 d6bd dc4d 2e3f 7da7 b6bd b62f 253e
00000100: 0a40 153e 5be4 f03e e1cc 843d bfdc d6be
00000110: 3223 893a cc90 903d aaec 64bd 5177 633d
00000120: 5d78 76be 3ba3 653e bc5f 003d 2195 d6be
00000130: 3930 a03c 2919 503d 1911 cfbd c220 32be
00000140: dc12 7ebe cd61 e33c 5421 7ebd 0452 50be
00000150: 7c1a 82bc b41b 993d bd34 343d 7a53 1f3e
00000160: 2415 c5be 6605 e63e 8bff b3be f580 87bd
00000170: eeac 0cbe f132 733d 9b32 75bd deff 3bbd
00000180: a837 103f 086d 7e3e e433 7a3e 3595 0e3e
00000190: eee9 0fbd 31bc 913d 166b 903c 2483 cfbc
000001a0: e873 043c ef56 283e 4fa8 90be daef 28bf
000001b0: e3de d2bc df5c 0b3d 3f38 55bd 63e1 8cbd
000001c0: 01b7 89bc 6ad2 12bd bc7c 8c3e 3b50 84be
000001d0: 3de2 c3bc e153 b7bd cd0a febe 9462 85be
000001e0: a6cd 84be 5577 82be 8bbd 1dbe e776 5abe
000001f0: 52a6 83be 136b c0be 80a9 b3bd d8ab d8bc
00000200: cd97 253c ea31 a7bd 212d b43b 8bf3 013c
00000210: d3ee 92bd bdc7 27bd f33b 45bd e486 57be
00000220: 6cdb 57be ad3b 25be a2ab dc3d 6f00 01be
00000230: a70f 0ebd b1c1 babd 3117 8bbd d05f 25be
00000240: 33d3 a5bd 85d7 eabb 289c 06bc 0f6c c9bd
00000250: e494 e6bd 70e1 493c c1f1 2fbe 87c5 63be
00000260: a7a9 e6be 019f a2bd 4d39 42be 1c68 5bbe
00000270: 22fa a6be 2cfc 97be c195 bebd c760 cdbb
00000280: b577 0ebe f19a 02bf 9473 e7bd cee7 51bd
00000290: 4a34 0f3e 6653 27bd 1729 a8ba c1ef 523e
000002a0: 672a 68bd 6dd6 13bd 541a fcbc 660f 59be
000002b0: 6310 6abe 899a 23be e11a 6ebe a888 8bbe
000002c0: c894 91be 895a 80bd cc59 a1bd cce5 3cbe
000002d0: ec1b 21be 5c2b 07be 12f3 ff3d 2969 3abd
000002e0: 2ba3 3ebe d956 40be 33c8 4cbe f934 47be
000002f0: 86f0 d23d 398f 603d 1443 78bd 2db8 a1bd
00000300: e364 17be 32a9 e9bd e3bd 09bd 2f47 54bc
00000310: c3dd 61bc 7f40 55be e34d 97bd 079b ec3c
00000320: 3ecf 6c3c da11 02be 4cab d8bd ddf2 7cbe
00000330: a3bd 8dbd fb39 363d a28b 27bd e3f2 893d
00000340: 2619 dcbd d223 e2bc 3e39 62bd 97cf d0bc
00000350: dd4c 5cbe 606c 90be 1549 22be 4238 4bbe
00000360: 1274 9bbc 3250 7abd 8c49 56bd c86d 83bd
00000370: d340 56bd 5f2e fe3d aab7 eabd 81d6 e0bd
00000380: b27c 80be d402 3cbd 437f 893d 4c87 bbbc
00000390: a5a5 50bd e553 18be 76ca 0ebe 5140 003d
000003a0: 1fb9 ccbd 01e3 ad3c 063e 53be 69ec 09bd
000003b0: 9806 a43d ffb1 7ebe 6f19 89be 8ad8 91be
000003c0: 4778 1fbc 68ea b6bd 1220 27be 7969 9c3e
000003d0: 2eff a5be a4f7 643e 4f27 7cbd 23e0 c3bd
000003e0: 65b7 bd3b fb88 f3be 8736 11bf e66e 503d
000003f0: e626 ae3e 8097 a03e 4489 db3e 3198 373e

_encoder._residual_stack_1.conv_layers.3.bias f4 [40]
0.026473407 -0.6201249 1.3438036 -0.27461442 -1.0469081 -0.40297318 -1.021098 -0.28149602
-0.90651894 -0.49947608 -0.5777822 -1.0456245 0.20312826 -0.2368139 -0.49244943 -0.2828033
-1.1215934 0.047501598 -0.18554513 -0.5210403 -0.6250958 0.19906396 -0.476113 -0.47642434
0.060361944 -0.41116634 -0.72081566 -0.1743771 0.744474 -0.47004724 -2.5908604 -1.1595553
0.43994126 -0.97545004 -0.028973272 -0.21116024 -0.7184778 -0.5757942 -0.75636613 -0.95659864
00000000: c2de d83c 81c0 1ebf c201 ac3f 439a 8cbe
00000010: 1601 86bf 8052 cebe 57b3 82bf 3f20 90be
00000020: a011 68bf 54bb ffbe 89e9 13bf 06d7 85bf
00000030: db00 503e 587f 72be 5522 fcbe 98cb 90be
00000040: 5f90 8fbf 0991 423d 8bff 3dbe e662 05bf
00000050: 4706 20bf 6cd7 4b3e 15c5 f3be e4ed f3be
00000060: 163e 773d 6584 d2be 6087 38bf e98f 32be
00000070: d995 3e3f 08aa f0be a8d0 25c0 4f6c 94bf
00000080: fb3f e13e 18b7 79bf 5b59 edbc 643a 58be
00000090: 29ee 37bf 4067 13bf 36a1 41bf a6e3 74bf

_encoder._residual_stack_1.conv_layers.4.weight f4 [40, 40, 3]
-0.1710388 -1.0270036 0.11356191 0.07857 0.21916161 -0.14801855 -0.0047404002 -0.07995992
0.2761011 -0.5001807 -0.024221232 0.33276454 -0.53667897 0.025455358 0.54150087 -0.005852969
0.061774608 0.20356056 -0.24060744 0.12662803 0.25728402 0.06539508 -0.06907102 0.06411824
-0.3218523 -0.027307795 0.1413423 -0.19418566 -0.41989887 -0.31381837 -0.5904659 -0.08156702
-0.0059804446 0.08104246 -0.4645277 -0.29102755 -0.08750201 -0.38969865 -0.10655487 0.020368934
-0.11856301 0.059996027 -0.0674686 -0.36198395 0.11556267 0.120841034 -0.024489406 -0.026814654
-0.008031901 -0.15275408 0.4164528 0.13216244 -0.3647071 0.026303796 0.18763815 -0.18821068
-0.22065608 -0.89098233 0.18382488 0.2896629 -0.21401696 0.05230772 0.31899753 0.0689681
0.30946994 0.33279333 0.020854399 -0.76992285 0.4770794 0.2976996 0.19970834 0.048543967
-0.03061218 -0.12554322 -0.2537504 -0.07960107 -0.4250136 0.42186242 0.35232025 -0.27451745
-0.005974321 0.06843565 -0.027580194 -0.1987531 -0.014084507 -0.18839794 0.057001326 0.10202054
-0.09567586 -0.051719517 -0.3566127 0.11444907 0.2956811 0.12658978 0.4023644 -0.42433643
-0.23010188 0.05222362 0.34903032 -0.34206873 -0.40566614 0.19200596 -0.018658051 -0.034063753
-0.014792763 -0.07918969 0.04045382 0.28624952 0.48529142 0.3913967 0.3060252 -0.48345387
-0.10925315 -0.042899553 -0.21812566 -0.3405758 0.17656314 0.18268566 -0.19924 0.12315651
-1.2791052 -0.89232594 -0.4813495 -0.02530528 -0.12402315 -0.06021348 -1.3425959 -0.55235255
-0.09450276 -0.63776803 -0.4115705 0.017802227 -0.079412125 -0.31272864 -0.111323096 -1.4004107
-0.6815167 -0.20922434 -0.0108311735 0.079286285 -0.03683951 -0.1001749 -0.001880562 -0.09021088
-0.2698075 -0.28874764 -0.14887536 -0.39954323 -0.13096619 -0.4122288 -0.74504566 -0.6762543
-0.39584363 -0.2613004 0.07145811 -0.24931712 -0.44960922 -0.55819464 -0.3556408 -0.44366
-0.42425 -0.2658236 -0.3429219 -0.19806154 -0.17528233 -0.016864251 -0.084943265 0.11222252
-0.2626412 -0.14141595 -0.13145232 -0.22434819 -0.5572725 -0.09190222 -0.3337517 -0.3743251
-0.2354998 -0.4067718 -0.09881952 -0.06151368 -0.16956231 0.023351917 0.044572137 -0.8666351
-0.51629305 -0.42579374 -0.22704373 -0.10400235 -0.025896303 0.045475625 -0.025495829 0.014768301
-0.86744446 -0.5287905 0.00020896194 -0.14852935 -0.033804867 0.14351748 -0.5630486 -0.7722169
-0.51668435 -0.19126095 -0.06810865 -0.70352936 -0.2674773 -0.30905828 -0.31656545 -0.0012551872
-0.2069762 0.016658368 -0.4208006 -0.024148488 0.23302442 -0.46732843 -0.37988943 -0.55137455
-0.42749652 -0.43931106 -0.15043353 -0.115315884 -0.4048465 0.05525348 -0.14542095 -0.039012067
-0.15903805 -1.2796184 -0.31438643 -0.05762876 -0.15417069 0.08802237 -0.012297526 0.0037747575
-0.017177414 0.29684734 -0.4753735 -0.450193 -0.54088765 -0.62501127 -0.77108556 -0.22154373
0.063575685 -0.070858605 -0.2738561 0.14941153 -0.0545554 -0.14114766 0.2217467 -0.83168274
0.048677918 0.04117158 -0.3689301 -0.1356482 -0.061208885 -0.22442164 0.08816486 -0.087599985
00000000: cc24 2fbe db74 83bf 2693 e83d 4fe9 a03d
00000010: e76b 603e 2d92 17be 5c55 9bbb 07c2 a3bd
00000020: 205d 8d3e d80b 00bf 9b6b c6bc 1d60 aa3e
00000030: cb63 09bf c187 d03c cd9f 0a3f 43ca bfbb
00000040: 5f07 7d3d 2e72 503e cc61 76be c7aa 013e
00000050: bbba 833e dbed 853d 1b75 8dbd 6c50 833d
00000060: d3c9 a4be 99b4 dfbc 09bc 103e 9bd8 46be
00000070: fcfc d6be cdac a0be c628 17bf 9c0c a7bd
00000080: 9bf7 c3bb 97f9 a53d 93d6 edbe 9001 95be
00000090: 4134 b3bd 9586 c7be 7139 dabd c0dc a63c
000000a0: 2ad1 f2bd 65be 753d fa2c 8abd f655 b9be
000000b0: 1fac ec3d 817b f73d 029e c8bc 68aa dbbc
000000c0: 3c98 03bc 916b 1cbe 4d39 d53e 9755 073e
000000d0: e4ba babe 0f7b d73c 3724 403e 4dba 40be
000000e0: abf3 61be 6b17 64bf 973c 3c3e b24e 943e
000000f0: 4327 5bbe 9f40 563d a553 a33e 263f 8d3d
00000100: d872 9e3e e363 aa3e d8d6 aa3c aa19 45bf
00000110: c043 f43e 156c 983e 5880 4c3e 0ad6 463d
00000120: 65c6 fabc 678e 00be 93eb 81be e305 a3bd
00000130: 629b d9be 5afe d73e 5263 b43e 8d8d 8cbe
00000140: 3dc4 c3bb fd27 8c3d dcef e1bc ef85 4bbe
00000150: b4c2 66bc 64eb 40be 397a 693d 25f0 d03d
00000160: b5f1 c3bd d8d7 53bd f195 b6be 4664 ea3d
00000170: 8363 973e c0a0 013e b502 ce3e a042 d9be
00000180: d49f 6bbe 6fe8 553d 1ab4 b23e a223 afbe
00000190: 79b3 cfbe 369d 443e c5d8 98bc 6f86 0bbd
000001a0: 585d 72bc 342e a2bd e8b2 253d 4c8f 923e
000001b0: 1e78 f83e 2665 c83e 56af 9c3e 4487 f7be
000001c0: 1ec0 dfbd 71b7 2fbd 555c 5fbe f45f aebe
000001d0: f8cc 343e f311 3b3e 9205 4cbe 7b39 fc3d
000001e0: b8b9 a3bf 796f 64bf 7173 f6be 054d cfbc
000001f0: d9ff fdbd 69a2 76bd 2fda abbf fa66 0dbf
00000200: aa8a c1bd c444 23bf 5eb9 d2be fad5 913c
00000210: d3a2 a2bd f81d a0be 5dfd e3bd a840 b3bf
00000220: e177 2ebf e83e 56be 3c75 31bc d960 a23d
00000230: 07e5 16bd 7f28 cdbd 317d f6ba 7bc0 b8bd
00000240: 3524 8abe bbd6 93be c872 18be ee90 ccbe
00000250: 001c 06be a70f d3be 50bb 3ebf 001f 2dbf
00000260: 04ac cabe 2bc9 85be a158 923d fd4c 7fbe
00000270: 2e33 e6be d8e5 0ebf 8d16 b6be 6727 e3be
00000280: 4c37 d9be 081a 88be 7693 afbe a5d0 4abe
00000290: 367d 33be e626 8abc bcf6 adbd ecd4 e53d
000002a0: e878 86be 58cf 10be 709b 06be 88bb 65be
000002b0: 69a9 0ebf 3b37 bcbd 81e1 aabe 8aa7 bfbe
000002c0: dc26 71be 6544 d0be e361 cabd c5f5 7bbd
000002d0: bea1 2dbe 854c bf3c 4691 363d ccdb 5dbf
000002e0: c82b 04bf a301 dabe 277e 68be 2fff d4bd
000002f0: 7c24 d4bc a644 3a3d a1dc d0bc bef6 713c
00000300: d710 5ebf d05e 07bf cb1c 5b39 1418 18be
00000310: f976 0abd 3ff6 123e f423 10bf 02b0 45bf
00000320: 6d45 04bf e9d9 43be 8c7c 8bbd 801a 34bf
00000330: c9f2 88be e33c 9ebe de14 a2be 1885 a4ba
00000340: 92f1 53be 2177 883c 2d73 d7be 0dd3 c5bc
00000350: f49d 6e3e ac45 efbe de80 c2be e226 0dbf
00000360: d3e0 dabe 61ed e0be 3f0b 1abe bc2a ecbd
00000370: 0a48 cfbe 7951 623d 3be9 14be 1ecb 1fbd
00000380: dfda 22be 89ca a3bf 42f7 a0be 220c 6cbd
00000390: ecde 1dbe 1345 b43d 907b 49bc ec61 773b
000003a0: a6b7 8cbc 60fc 973e 2864 f3be b27f e6be
000003b0: 9d77 0abf bd00 20bf dd65 45bf 5cdc 62be
000003c0: f833 823d 511e 91bd de36 8cbe 56ff 183e
000003d0: 7c75 5fbd 0389 10be 9111 633e 29e9 54bf
000003e0: 7f62 473d 88a3 283d 68e4 bcbe 5de7 0abe
000003f0: 2bb6 7abd c9ce 65be c78f b43d 9f67 b3bd

_encoder._residual_stack_1.conv_layers.4.bias f4 [40]
0.24696074 -2.0200536 0.57927984 -0.086066015 -0.5763399 -0.81471616 -1.5880316 -0.9002665
-1.2609007 -0.117140085 0.013597872 -1.179793 -0.7505176 0.107138135 -0.48042694 -0.6984512
0.113816634 -0.0004362168 -0.27091023 0.01986493 0.5595662 -1.457035 0.11015848 -1.1729361
-0.295086 -0.62297946 -0.4816657 -0.16554017 -0.08311281 -0.4697239 0.16759619 0.07475321
-0.17086919 -0.65061206 -1.826574 0.48652515 -0.06594564 -1.742821 -0.38552433 0.1067263
00000000: 47e3 7c3e 8f48 01c0 af4b 143f 6143 b0bd
00000010: 038b 13bf 3d91 50bf 9f44 cbbf de77 66bf
00000020: 3265 a1bf 24e7 efbd 9cc9 5e3c 7503 97bf
00000030: ec21 40bf 3d6b db3d 85fa f5be b3cd 32bf
00000040: b218 e93d 07b4 e4b9 bfb4 8abe c7bb a23c
00000050: bb3f 0f3f 1f80 babf c59a e13d c522 96bf
00000060: 8315 97be 957b 1fbf e39c f6be 5d83 29be
00000070: 0d37 aabd a77f f0be 569e 2b3e 3618 993d
00000080: 55f8 2ebe 838e 26bf 2dcd e9bf d319 f93e
00000090: 820e 87bd c214 dfbf 7263 c5be 5293 da3d

_encoder._residual_stack_1.conv_layers.5.weight f4 [40, 40, 3]
0.050526343 -0.6751815 0.11403456 0.39131463 0.35164848 0.040159535 0.54276496 0.36022356
-1.0838575 -0.38343617 -0.051303346 -0.014170636 0.09678982 0.0273121 0.22829627 0.2911491
0.40796193 -0.2792038 -0.3623249 -0.16576162 -0.018836698 -0.17389464 -0.5565211 0.1889141
-0.17920281 -0.035390414 -0.09505863 -0.0013986242 -0.88495946 -0.2777221 -0.082015365 0.05708021
-0.24736984 0.110679 -0.19812924 0.44581646 -0.013846402 -0.02014662 -0.78545463 -0.19052827
-0.15668948 0.1837783 0.15412576 -0.136187 -0.027947297 0.001759774 -0.17098399 -0.017995171
-0.24551272 -0.55782855 -0.092106216 -0.27988434 -0.94063383 0.12943396 -0.26098952 -0.27826285
-0.658414 0.077190205 -0.08362078 0.24473885 -0.06750062 -0.0035724894 -0.36545908 -0.21997702
-0.29763922 0.0577781 0.024650877 -0.23526296 -0.5409986 -0.38312137 -0.3588786 -0.36905938
-0.18346263 -0.051899992 -0.5057824 0.06426321 -0.06228605 0.44631442 -0.43326026 -0.121479504
-0.005460767 -0.107136704 -0.09405141 0.15828356 0.09081931 0.077363126 -0.03351921 0.029950138
0.015808165 0.13723281 -0.08874008 -0.0837901 -0.12276108 0.09076295 -0.10511646 -0.3289037
-0.111490615 -0.34684682 -0.10128916 -0.07545507 -0.023915637 0.1612448 0.209313 -0.41456914
-0.042583186 0.067696184 0.17853905 -0.22007579 -0.04026233 -0.40054268 0.17901912 -0.4775476
-0.39426517 0.20062459 -0.2360458 -0.101634465 0.18728131 0.13191007 -0.11685505 0.08712722
-0.4641247 -0.09796536 -0.019131936 -0.33072487 -0.30795488 -0.14017357 -0.14672758 -0.064588524
-0.17780644 -0.06159486 -0.7611718 -0.67793787 -0.120966226 -0.14065403 0.05179338 0.030168504
-0.16901626 -0.25543627 -0.33557063 -0.19149111 -0.35580233 0.04653636 -0.08051235 -0.18931228
-0.05205476 0.15564767 -0.11459895 0.40083173 0.06789347 -0.34431812 -0.19853137 -0.24975628
-0.4666723 -0.008132917 -0.31358773 -0.25272366 -0.06541759 0.27603924 -0.23902069 -0.18576865
-0.166656 -0.093815096 -0.2262508 -0.15183903 -0.11572809 -0.0923321 -0.012058326 0.027417134
-0.4354314 -0.4718955 0.031849075 -0.27503937 -0.10187321 -0.21776491 0.090114504 -0.0017741414
-0.055235077 -0.586039 -0.4514443 0.09891999 -0.28214344 -0.2069963 -0.6677633 -0.31315178
0.0066860095 0.0028540096 -0.11184179 -0.22151148 -0.23935686 -0.047394466 -0.26005712 -0.0801871
-0.095794044 0.01460406 -0.037288483 0.0527711 -0.051288176 -0.25557387 -0.20662896 -0.69240004
-0.9057763 -0.23907384 -0.07217001 -0.0036846611 -0.45764062 -0.15295118 0.064675 -0.115862764
-0.185695 -0.11635581 -0.3268969 -0.12174841 -0.36783916 -0.14456582 -0.4125888 -0.0499154
-0.3441392 -0.28018913 -0.5920067 0.042831123 0.011004683 -0.03729278 0.08693566 0.29217225
0.098411895 -0.35541394 -0.16491023 0.11388425 -0.41504517 -0.5828079 -0.64038897 -0.454292
0.16428256 -0.08568725 -0.05836442 0.036954843 -0.22928602 -0.5072772 -0.14014098 -0.024218487
0.040754087 -1.0540328 -1.9608719 0.1338815 0.14655729 0.21545579 0.1481979 -0.15286279
-0.90579164 -0.5433037 -0.024384258 -0.7514736 -0.19051845 -0.049349044 -0.08877244 -0.12166588
00000000: b6f4 4e3d b2d8 2cbf f48a e93d 645a c83e
00000010: 450b b43e 537e 243d a5f2 0a3f 396f b83e
00000020: d8bb 8abf bf51 c4be 7523 52bd f52b 68bc
00000030: be39 c63d a0bd df3c 7fc6 693e 7f11 953e
00000040: 63e0 d03e cdf3 8ebe a682 b9be 6abd 29be
00000050: 6b4f 9abc 7011 32be 2b78 0ebf b372 413e
00000060: f180 37be 8af5 10bd 19ae c2bd 0a52 b7ba
00000070: b48c 62bf 9731 8ebe acf7 a7bd f0cc 693d
00000080: 854e 7dbe acab e23d 64e2 4abe 0e42 e43e
00000090: 05dc 62bc 860a a5bc 8e13 49bf d819 43be
000000a0: 3573 20be 6130 3c3e 25d3 1d3e 9b74 0bbe
000000b0: bbf1 e4bc 38a8 e63a 6d16 2fbe 9c6a 93bc
000000c0: b067 7bbe dacd 0ebf 2fa2 bcbd 004d 8fbe
000000d0: 61cd 70bf 568a 043e 6ba0 85be 7878 8ebe
000000e0: d28d 28bf e615 9e3d 5f41 abbd d29c 7a3e
000000f0: c43d 8abd 6d20 6abb 741d bbbe a841 61be
00000100: 2b64 98be bba8 6c3d a3f0 c93c c6e8 70be
00000110: e27e 0abf 7c28 c4be f0be b7be 5af5 bcbe
00000120: a1dd 3bbe 1695 54bd f57a 01bf 6e9c 833d
00000130: a81f 7fbd 5383 e43e 4ad4 ddbe 3fca f8bd
00000140: 3cf0 b2bb 7d6a dbbd 079e c0bd 1615 223e
00000150: 79ff b93d 8f70 9e3d 704b 09bd fe59 f53c
00000160: 2080 813c c286 0c3e 5cbd b5bd 259a abbd
00000170: 296a fbbd ede1 b93d 4c47 d7bd 1166 a8be
00000180: 3155 e4bd e895 b1be b170 cfbd 3088 9abd
00000190: baea c3bc 5b1d 253e 2656 563e 6842 d4be
000001a0: b56b 2ebd 4ca4 8a3d f1d2 363e 8c5b 61be
000001b0: 1dea 24bd ee13 cdbe ca50 373e 1e81 f4be
000001c0: 20dd c9be 8870 4d3e fdb5 71be bb25 d0bd
000001d0: acc6 3f3e 6f13 073e b351 efbd c26f b23d
000001e0: c1a1 edbe 10a2 c8bd 94ba 9cbc c554 a9be
000001f0: 43ac 9dbe a989 0fbe c13f 16be fd46 84bd
00000200: e412 36be e44a 7cbd 28dc 42bf 568d 2dbf
00000210: 24bd f7bd 9c07 10be 4c25 543d f023 f73c
00000220: 9912 2dbe 8bc8 82be eacf abbe 3f16 44be
00000230: b92b b6be e99c 3e3d a9e3 a4bd 14db 41be
00000240: 5f37 55bd 1a62 1f3e dbb2 eabd d139 cd3e
00000250: bb0b 8b3d 774a b0be cf4b 4bbe 1cc0 7fbe
00000260: acef eebe ed3f 05bc 928e a0be ff64 81be
00000270: a8f9 85bd 0455 8d3e d7c1 74be 233a 3ebe
00000280: dfa7 2abe 2122 c0bd 4aae 67be b17b 1bbe
00000290: d902 edbd 9d18 bdbd 4990 45bc e699 e03c
000002a0: ddf0 debe 499c f1be 2d74 023d f6d1 8cbe
000002b0: e7a2 d0bd c4fd 5ebe f48d b83d 4f8a e8ba
000002c0: 2d3e 62bd a706 16bf b523 e7be 9096 ca3d
000002d0: 1b75 90be d7f6 53be 89f2 2abf 6e55 a0be
000002e0: 5016 db3b 560a 3b3b 4f0d e5bd e8d3 62be
000002f0: f719 75be b320 42bd 3526 85be 2239 a4bd
00000300: ab2f c4bd de45 6f3c cfbb 18bd 8226 583d
00000310: 8d13 52bd 94da 82be 8b96 53be 2141 31bf
00000320: f5e0 67bf c6cf 74be dfcd 93bd 5b7a 71bb
00000330: df4f eabe 3c9f 1cbe 5474 843d 7549 edbd
00000340: d526 3ebe f44b eebd 085f a7be 3b57 f9bd
00000350: 6a55 bcbe 1009 14be d73e d3be 1774 4cbd
00000360: 0333 b0be f374 8fbe c08d 17bf b06f 2f3d
00000370: fc4c 343c 50c0 18bd 530b b23d 9a97 953e
00000380: 2d8c c93d d1f8 b5be 3ade 28be 253c e93d
00000390: cd80 d4be e632 15bf 88f0 23bf f698 e8be
000003a0: b039 283e cc7c afbd 880f 6fbd f65d 173d
000003b0: f4c9 6abe ebdc 01bf 1e81 0fbe d965 c6bc
000003c0: c2ed 263d 8cea 86bf dafd fabf 3b18 093e
000003d0: 1d13 163e 71a0 5c3e 31c1 173e 1088 1cbe
000003e0: f6e1 67bf f415 0bbf 7fc1 c7bc 9360 40bf
000003f0: 4517 43be 3922 4abd 53ce b5bd f62b f9bd
